app/src/main/assets/model.tflite (tflite, 840840 bytes, 12 tensors)

sequential_31/conv1d_80/BiasAdd/ReadVariableOp f4 [64]
0.027867071 -0.07446816 0.010073933 0.01273316 -0.12794992 -0.010526912 -0.16543235 0.019314043
-0.07323674 -0.027143326 0.04249537 0.13833705 -0.08082567 0.070237525 -0.13253401 0.03945291
-0.10325542 0.011794028 -0.07987131 0.098574646 0.036386807 0.023764873 0.022674907 -0.1400666
0.04727564 0.10082836 -0.14548735 -0.061845295 0.056473095 0.09275112 -0.19590908 -0.057044465
-0.020225717 -0.049011827 -0.015337488 -0.22168072 -0.047203563 -0.13737269 -0.15451515 -0.047059633
-0.061292112 0.09859041 0.0037850721 -0.117822655 -0.027776387 -0.13154358 -0.03166895 -0.06090928
0.03323613 -0.17392556 -0.002680369 0.01636292 -0.010428359 0.06772722 -0.0110526895 -0.068842426
-0.18583553 0.12694252 -0.10779104 0.03482065 -0.058585715 0.048223473 -0.10395224 0.078460425
00000000: 7c49 e43c c382 98bd 230d 253c be9e 503c
00000010: 4e05 03be 1279 2cbc 1967 29be 7c38 9e3c
00000020: 25fd 95bd ae5b debc a00f 2e3d 3aa8 0d3e
00000030: ee87 a5bd b1d8 8f3d ffb6 07be 6099 213d
00000040: 9477 d3bd bd3b 413c 9293 a3bd 81e1 c93d
00000050: 550a 153d 8dae c23c bac0 b93c 9e6d 0fbe
00000060: 1aa4 413d 197f ce3d a3fa 14be 7e51 7dbd
00000070: 5550 673d 4df4 bd3d 649c 48be 75a7 69bd
00000080: 67b0 a5bc a0c0 48bd 164a 7bbc 4500 63be
00000090: 8658 41bd 6dab 0cbe 3839 1ebe 9ac1 40bd
000000a0: 700d 7bbd c5e9 c93d f90e 783b 014d f1bd
000000b0: 4e8b e3bc 5cb3 06be 4db7 01bd 027c 79bd
000000c0: 9c22 083d 8b19 32be 21a9 2fbb 880b 863c
000000d0: b5db 2abc 92b4 8a3d 5716 35bc 42fd 8cbd
000000e0: ab4b 3ebe 38fd 013e 8cc1 dcbd 19a0 0e3d
000000f0: 93f7 6fbd fa85 453d e9e4 d4bd dcaf a03d

sequential_31/conv1d_81/BiasAdd/ReadVariableOp f4 [128]
-0.0140342675 -0.033856377 -0.06714756 0.028266579 -0.018161535 -0.039136022 -0.03817742 -0.07614495
-0.017305396 0.006716289 0.028732661 -0.049321212 -0.004493491 -0.08079327 -0.054621466 -0.013155906
0.020381738 -0.05467083 0.006498511 -0.014649149 0.006540239 -0.017378272 -0.024240961 -0.05854872
-0.06735637 0.03198098 0.010862176 -0.009950856 -0.019847851 0.001531242 0.025041217 0.04087335
0.022581887 -0.017737227 -0.034126643 -0.0048803096 -0.042754978 -0.04196562 -0.03665074 0.02410633
0.0150733525 0.00050684076 -0.05874315 -0.03725224 -0.12037414 0.034505613 -0.012538265 -0.008541962
0.017706223 -0.026416825 -0.047612377 -0.042006765 0.012081752 0.0141296005 -0.0033312577 0.00014400984
-0.028175233 -0.043744877 -0.02925506 0.016033027 -0.055378668 -0.020767443 -0.063603625 -0.0025846998
-0.073675804 -0.032169253 -0.012914081 0.0064951647 -0.026297571 -0.08435899 0.0034115764 -0.0654858
-0.08701288 0.022948943 -0.045355476 -0.015226827 -0.015044623 -0.00046116175 -0.08342184 -0.048767377
-0.033738226 -0.03739715 -0.013157766 0.048243437 -0.029873693 -0.008089485 -0.037091915 0.0048771207
0.010016075 0.024283018 -0.08220299 0.039105166 -0.044347577 -0.10253505 -0.035936225 -0.045733824
-0.03327776 -0.055321302 -0.042734876 -0.049854476 0.012451656 0.0010318666 -0.019695358 0.019608954
-0.025033155 -0.07752891 -0.013417922 0.030262107 -0.033092994 -0.0022837154 -0.001693315 -0.026405469
0.048204497 0.010834212 -0.002004681 -0.00025433753 -0.07457609 0.01295281 -0.019711455 -0.013903096
-0.014692809 -0.017749704 0.011244472 -0.04720945 0.016138818 0.019495467 0.020102674 -0.042016953
00000000: fcef 65bc fcac 0abd a984 89bd 508f e73c
00000010: 80c7 94bc 184d 20bd ed5f 1cbd e2f1 9bbd
00000020: 0cc4 8dbc 5114 dc3b c260 eb3c 0a05 4abd
00000030: 223e 93bb f176 a5bd c2ba 5fbd df8b 57bc
00000040: 9af7 a63c 85ee 5fbd 76f1 d43b fc02 70bc
00000050: 804f d63b e15c 8ebc fb94 c6bc c8d0 6fbd
00000060: 23f2 89bd 7dfe 023d 45f7 313c ea08 23bc
00000070: f697 a2bc f5b3 c83a 3d23 cd3c d06a 273d
00000080: a6fd b83c a94d 91bc 61c8 0bbd 01eb 9fbb
00000090: d81f 2fbd 24e4 2bbd 161f 16bd a37a c53c
000000a0: 39f6 763c 82dd 043a a89c 70bd ce95 18bd
000000b0: b886 f6bd c255 0d3d 4c6d 4dbc 96f3 0bbc
000000c0: a40c 913c 1968 d8bc 3205 43bd 490f 2cbd
000000d0: 8af2 453c d77f 673c 3b51 5abb 5901 1739
000000e0: bfcf e6bc d42d 33bd 4fa8 efbc b257 833c
000000f0: bed4 62bd 7c20 aabc 9e42 82bd 1164 29bb
00000100: 57e3 96bd e8c3 03bd 9595 53bc 64d5 d43b
00000110: 016e d7bc 68c4 acbd c194 5f3b 6b1d 86bd
00000120: cf33 b2bd 6cff bb3c aac6 39bd f179 79bc
00000130: b97d 76bc 15c8 f1b9 12d9 aabd 4dc0 47bd
00000140: 1831 0abd c12d 19bd ac93 57bc e99a 453d
00000150: adb9 f4bc c289 04bc b1ed 17bd 41d0 9f3b
00000160: 771a 243c 2eed c63c 0b5a a8bd bd2c 203d
00000170: cea5 35bd e5fd d1bd dd31 13bd 6453 3bbd
00000180: 434e 08bd 9798 62bd c40a 2fbd 3534 4cbd
00000190: 0802 4c3c b33f 873a 2958 a1bc f5a2 a03c
000001a0: 5512 cdbc 7ac7 9ebd d8d6 5bbc 3de8 f73c
000001b0: 858c 07bd 63aa 15bb 39f2 ddba 4850 d8bc
000001c0: 1472 453d fb81 313c f760 03bb 9b58 85b9
000001d0: 59bb 98bd 0638 543c eb79 a1bc d0c9 63bc
000001e0: 1cba 70bc d467 91bc bc3a 383c b25e 41bd
000001f0: 8e35 843c f5b4 9f3c 5dae a43c f819 2cbd

sequential_31/dense_63/MatMul;sequential_31/dense_63/BiasAdd f4 [11]
0.5412191 -0.2903876 1.6950793 -2.8508387 -1.2630984 1.5563538 2.1985943 0.86756825
1.3019768 -0.20996542 -1.0263852
00000000: 568d 0a3f afad 94be 5cf8 d83f 2474 36c0
00000010: 35ad a1bf 9a36 c73f c5b5 0c40 f418 5e3f
00000020: 2da7 a63f 2d01 57be 9760 83bf

sequential_31/batch_normalization_75/batchnorm/mul_1;sequential_31/batch_normalization_75/batchnorm/add_1;sequential_31/dense_63/MatMul;sequential_31/dense_63/BiasAdd f4 [11, 128]
0.082248084 0.10844874 -0.017450506 0.028306646 -0.082092136 -0.051873572 -0.017350283 -0.061584298
0.20089357 -0.11622005 0.15042257 0.04547155 -0.006960248 0.0073010107 0.10035763 -0.0595261
-0.1047163 0.022290362 -0.08057357 -0.07835192 -0.08435262 -0.10848569 0.0891409 -0.05388609
-0.071398705 -0.015992755 -0.032107893 -0.06717423 0.010641059 0.084711075 0.12935287 -0.026064089
-0.089774035 0.03383551 0.012978092 -0.080043994 0.16987912 0.0715824 0.015379979 0.16423069
-0.1451833 -0.054794844 -0.07425897 0.0557684 0.0049335766 0.07381976 0.07433931 -0.08149995
-0.044775154 -0.1341196 0.029013744 -0.05649631 0.051574253 -0.10353335 0.055506647 0.0021752282
0.044997822 -0.1044668 0.10342165 -0.006347751 -0.026989585 -0.05992699 0.11848422 -0.010902167
-0.06262164 -0.0017914688 -0.047182713 0.0369426 0.10090107 0.08284606 0.10468997 0.10252686
-0.031156667 0.13508102 -0.078934625 0.098778225 0.06760041 0.10474392 0.05728408 0.07327276
-0.05743022 -0.030245962 -0.025322724 -0.098907426 0.07832608 0.018351845 0.08645154 0.079551116
-0.09777725 -0.009603964 -0.053711634 -0.019149374 -0.08888088 0.079892024 -0.030273521 0.0064194356
0.020308062 0.00209795 0.03389263 0.0033856349 -0.009307503 -0.12656547 -0.009082369 0.087022945
0.006903333 -0.10439317 -0.081278294 -0.13069762 0.0060794717 -0.020395322 0.041520327 -0.0752808
-0.0631809 -0.039140932 -0.091244034 -0.088546254 -0.042735904 0.015602882 -0.06175772 0.009731837
-0.09269715 0.105131105 0.07322954 0.06584563 0.06597884 -0.014316839 0.027672675 0.044553567
-0.091484904 0.109563075 -0.005645967 -0.0932959 0.05547824 -0.04123194 0.026997762 0.04450375
-0.071242444 -0.033138692 -0.09247919 0.06339099 0.10185161 0.010388103 -0.0015482708 -0.051649414
-0.119016744 0.022751097 -0.056996845 0.046267927 -0.06550396 -0.086135164 -0.12990715 -0.056417305
-0.08785271 0.053350303 0.098596625 0.06574727 0.05539496 0.036018908 0.07300863 0.05047405
-0.014902355 0.099688604 0.020440845 -0.028582789 0.16268724 0.06636115 -0.013136111 0.04440348
-0.0114706755 0.08202781 0.028535131 -0.09939367 0.069505915 -0.13375796 0.0020730146 -0.058093466
0.00085750717 0.04367413 0.05228263 0.054878477 -0.044379696 -0.09855309 0.007824864 0.069229044
0.07465673 -0.06800394 0.070177704 0.089091696 -0.07798516 0.113028325 0.14936097 0.084161155
0.018232077 -0.037516866 -0.09585316 -0.004366298 0.017984174 -0.041962538 -0.017160604 -0.051595677
0.035174448 -0.060873233 0.07152523 -0.11647808 0.077850096 -0.034705665 0.00073054346 -0.06236807
-0.038850997 -0.10903183 -0.053505026 -0.062806964 -0.017635835 0.031312823 0.13405749 0.0039925366
-0.031070646 -0.055803735 0.070661016 -0.039167617 0.026089372 0.042237412 0.06563264 0.012349964
-0.035983842 -0.028017612 0.0056284163 0.08876984 0.09678567 0.14272237 0.04002525 -0.09470016
0.06521821 0.07075112 0.028508011 0.006129773 -0.10880221 0.026534062 -0.07105133 -0.0050070887
-0.039589424 -0.12500477 0.07912789 0.080753244 -0.06022137 0.039048377 0.048823792 -0.03499659
0.032138247 0.051161118 -0.087489106 0.020858223 0.06636552 0.03578515 0.04731591 -0.045662493
00000000: af71 a83d 5f1a de3d 5df4 8ebc 57e3 e73c
00000010: ec1f a8bd 6279 54bd 2e22 8ebc d13f 7cbd
00000020: 0bb7 4d3e c704 eebd 6008 1a3e 6040 3a3d
00000030: cb12 e4bb 513d ef3b 4d88 cd3d a4d1 73bd
00000040: 8075 d6bd 479a b63c c203 a5bd f976 a0bd
00000050: 11c1 acbd bf2d debd 818f b63d a9b7 5cbd
00000060: 7c39 92bd 3d03 83bc 9183 03bd a592 89bd
00000070: d657 2e3c 007d ad3d 1475 043e 5b84 d5bc
00000080: 73db b7bd 1b97 0a3d 10a2 543c 1bee a3bd
00000090: cbf4 2d3e cb99 923d 4ffc 7b3c 172c 283e
000000a0: eeaa 14be 8f70 60bd 1615 98bd 686d 643d
000000b0: d7a9 a13b d02e 973d 353f 983d 72e9 a6bd
000000c0: 2766 37bd a656 09be 3bae ed3c ad68 67bd
000000d0: 863f 533d 4b09 d4bd f05a 633d 468e 0e3b
000000e0: a34f 383d b1f2 d5bd bbce d33d cb00 d0bb
000000f0: 4319 ddbc 0176 75bd dba7 f23d 019f 32bc
00000100: c63f 80bd b8cf eaba a942 41bd 2051 173d
00000110: 38a5 ce3d 32ab a93d b267 d63d 9af9 d13d
00000120: 443c ffbc ae52 0a3e 7aa8 a1bd 3d4c ca3d
00000130: 1572 8a3d fb83 d63d b6a2 6a3d 0710 963d
00000140: f33b 6bbd 61c6 f7bc 9a71 cfbc fa8f cabd
00000150: 6d69 a03d 9c56 963c 810d b13d b2eb a23d
00000160: 703f c8bd f259 1dbc bb00 5cbd 26df 9cbc
00000170: 2e07 b6bd 6e9e a33d 2d00 f8bc 215a d23b
00000180: 185d a63c c37d 093b 00d3 0a3d 87e1 5d3b
00000190: 7f7e 18bc 619a 01be 37ce 14bc 1639 b23d
000001a0: 5b35 e23b 16cc d5bd 3c75 a6bd 99d5 05be
000001b0: 4e36 c73b 1714 a7bc 3811 2a3d d22c 9abd
000001c0: fd64 81bd 3e52 20bd 27de babd bd57 b5bd
000001d0: d80b 2fbd 3ba3 7f3c aaf5 7cbd 4872 1f3c
000001e0: 01d8 bdbd fa4e d73d 5ef9 953d 13da 863d
000001f0: ea1f 873d 2d91 6abc ceb1 e23c cd7d 363d
00000200: 705c bbbd 9b62 e03d ce01 b9bb ec11 bfbd
00000210: 273d 633d d3e2 28bd 692a dd3c 9049 363d
00000220: 8fe7 91bd 70bc 07bd bb65 bdbd 23d3 813d
00000230: 9497 d03d dd32 2a3c 59ef caba 568e 53bd
00000240: 0dbf f3bd 8260 ba3c 8675 69bd 7083 3d3d
00000250: f126 86bd a267 b0bd 6106 05be d515 67bd
00000260: 1fec b3bd d985 5a3d 07ed c93d 81a6 863d
00000270: d3e5 623d 9088 133d 8c85 953d e1bd 4e3d
00000280: 0229 74bc 8a29 cc3d 8f73 a73c 7426 eabc
00000290: 7c97 263e 5be8 873d d838 57bc 6ce0 353d
000002a0: 80ef 3bbc 32fe a73d 82c2 e93c e98e cbbd
000002b0: 1e59 8e3d d9f7 08be 6adb 073b 6af3 6dbd
000002c0: 55ca 603a a5e3 323d 5026 563d 41c8 603d
000002d0: 7cc7 35bd 34d6 c9bd dc33 003c f5c7 8d3d
000002e0: a1e5 983d a645 8bbd 54b9 8f3d b575 b63d
000002f0: afb6 9fbd 657b e73d 15f2 183e af5c ac3d
00000300: 705b 953c 49ab 19bd a94e c4bd 2a13 8fbb
00000310: 8c53 933c e9e0 2bbd 6594 8cbc fd55 53bd
00000320: 1513 103d 3656 79bd d27b 923d 0f8c eebd
00000330: df6f 9f3d 8727 0ebd f181 3f3a a975 7fbd
00000340: 3922 1fbd 154c dfbd 1628 5bbd f0a0 80bd
00000350: 0779 90bc e041 003d 5e46 093e d3d3 823b
00000360: de87 febc 7592 64bd b9b6 903d 396e 20bd
00000370: 61b9 d53c 2301 2d3d 686a 863d 8157 4a3c
00000380: cb63 13bd 3185 e5bc 946e b83b f6cc b53d
00000390: 9137 c63d d025 123e 84f1 233d 28f2 c1bd
000003a0: 2091 853d f7e5 903d a289 e93c 43dc c83b
000003b0: b1d3 debd f65d d93c 5c83 91bd 8112 a4bb
000003c0: 8528 22bd 4001 00be ce0d a23d f561 a53d
000003d0: afaa 76bd 31f1 1f3d 75fb 473d 9658 0fbd
000003e0: 65a3 033d 528e 513d 7d2d b3bd ddde aa3c
000003f0: a5ea 873d 7393 123d 54ce 413d 9808 3bbd

sequential_31/conv1d_80/Conv1D f4 [64, 1, 3, 6]
0.09481842 0.07122739 -0.0729156 0.12278295 -0.07981848 0.08411515 0.0058020544 -0.071943626
-0.051759843 -0.13257262 -0.069941506 -0.069702104 0.15088414 -0.09397738 -0.017965103 0.07651514
-0.12020833 -0.06550111 0.068291456 0.23929285 0.15141802 0.006811993 -0.053891044 -0.09864026
-0.088947974 0.054675005 -0.03361508 0.06322131 0.08076466 0.066981986 -0.0035580783 0.06788334
0.12863144 0.02207209 -0.1344833 -0.090312235 -0.05945115 0.012638166 -0.13551822 -0.016982678
0.11594563 -0.02741352 -0.10598437 -0.17982459 -0.0172885 0.064976335 -0.060513776 0.10122542
-0.17265043 0.0684965 0.07662921 0.12445987 -0.005809255 -0.0023721035 -0.062426005 0.006852903
-0.04503552 0.02326101 -4.3632488e-05 -0.1540079 0.15228364 0.07844668 0.23446281 -0.0037912854
-0.0032753383 -0.04676282 0.07857869 -0.08111394 0.21335343 -0.06930525 0.13485782 -0.029408429
0.15730841 0.12118091 0.049963657 0.10014225 -0.048987184 -0.14050195 0.10693787 -0.07013334
0.057499122 0.022630733 0.014057489 -0.037884858 0.09652066 -0.030215783 0.08223955 -0.03627084
-0.109409325 0.027255587 -0.023989987 -0.18667111 0.16926977 0.12145233 0.0054638404 0.041529864
-0.098782726 -0.18512729 0.004010308 -0.054098066 0.05638249 -0.07585681 -0.0067346888 0.053522862
0.06889024 -0.13747385 0.039494973 0.01812228 -0.08093136 -0.14584394 0.03739194 0.11013574
0.044455588 0.09124273 -0.16173814 -0.12403639 -0.02343564 0.0011775843 0.044890966 -0.092481926
-0.1802151 -0.08638496 -0.05284017 0.084164634 -0.022217257 -0.15726061 -0.010689332 -0.124902375
0.013853327 -0.120467715 -0.13343729 -0.044284783 0.01639093 -0.18059544 0.14748737 0.09387424
0.14208195 0.13925207 -0.039698794 -0.13278647 0.12998465 -0.12595221 -0.1357756 0.04649584
0.057239648 0.08136752 -0.16334622 -0.04247343 -0.03558805 -0.063933834 0.05112436 0.05381439
-0.16855082 0.05265442 0.026060825 -0.16245532 -0.0004411028 -0.09688022 -0.0476648 -0.084635966
-0.1596635 -0.053886957 -0.009459302 -0.044651844 0.069393136 0.024014717 -0.13531856 0.12536792
0.013761772 0.034246728 0.065122195 -0.0035243323 0.016121345 0.12421882 -0.035842348 -0.093624406
0.18841566 -0.043494824 -0.048627373 0.14088748 0.115893565 -0.14590411 -0.17827392 0.07972151
-0.025704145 0.014713586 -0.043743763 -0.15797308 0.04400482 -0.11453945 -0.08025472 0.00020177069
0.06138054 -0.034232885 0.053261247 -0.15537204 0.049060237 0.15525268 0.0017203456 0.14479953
0.052306823 -0.057036135 -0.06639067 0.08364429 0.19361542 0.0058589247 -0.02096002 -0.02843974
0.06720952 0.023332871 0.18584944 -0.0637559 0.14463617 -0.043174185 -0.11385063 0.07433093
-0.107974105 0.1917276 -0.009654351 -0.07892193 -0.044611644 -0.07256074 0.040475067 0.23098758
-0.12901217 -0.12297616 -0.05992951 0.074114874 0.035374884 0.18019113 -0.10038056 -0.08605336
0.07949304 0.04909779 0.007853298 -0.082264796 -0.055698264 0.03853942 0.026816282 0.08337463
-0.112579666 -0.16744158 0.19083543 -0.0875203 0.030801825 -0.050793916 -0.06731143 -0.16534138
0.1285437 -0.07294791 -0.005412745 0.0736004 -0.1685521 -0.08826215 -0.025055317 -0.12817515
00000000: 2930 c23d aadf 913d c654 95bd a175 fb3d
00000010: df77 a3bd 9044 ac3d 291f be3b 2e57 93bd
00000020: 2102 54bd 1ec1 07be 7e3d 8fbd fabf 8ebd
00000030: 5f81 1a3e 3677 c0bd 8d2b 93bc f8b3 9c3d
00000040: c92f f6bd 7225 86bd 64dc 8b3d 2f09 753e
00000050: 530d 1b3e 2437 df3b dbbc 5cbd e803 cabd
00000060: 5b2a b6bd e6f2 5f3d f7af 09bd 2d7a 813d
00000070: f167 a53d da2d 893d a62e 69bb 6c06 8b3d
00000080: f6b7 033e 87d0 b43c fdb5 09be 9ff5 b8bd
00000090: 0d83 73bd 4f10 4f3c 4ac5 0abe 421f 8bbc
000000a0: e774 ed3d 5192 e0bc 550e d9bd f023 38be
000000b0: 9da0 8dbc 5012 853d 4bdd 77bd 464f cf3d
000000c0: 46cb 30be e547 8c3d c6ef 9c3d d1e4 fe3d
000000d0: 905b bebb 4b75 1bbb 69b2 7fbd 518e e03b
000000e0: 2a77 38bd e08d be3c 0702 37b8 3fb4 1dbe
000000f0: 3ef0 1b3e a7a8 a03d 0517 703e 3777 78bb
00000100: 0fa7 56bb 5f8a 3fbd dded a03d 111f a6bd
00000110: 5279 5a3e e9ef 8dbd 2b18 0a3e f2e9 f0bc
00000120: 7515 213e b22d f83d b1a6 4c3d 6117 cd3d
00000130: c9a6 48bd bedf 0fbe 3e02 db3d 12a2 8fbd
00000140: 3384 6b3d 1664 b93c 6251 663c 272d 1bbd
00000150: a0ac c53d 1787 f7bc 366d a83d bb90 14bd
00000160: ff11 e0bd 1c47 df3c a686 c4bc b626 3fbe
00000170: 0e55 2d3e 00bc f83d 040a b33b 381b 2a3d
00000180: 994e cabd 0292 3dbe e768 833b ef95 5dbd
00000190: 53f1 663d d15a 9bbd aaae dcbb ca3a 5b3d
000001a0: 5316 8d3d f2c5 0cbe 7bc5 213d 2d75 943c
000001b0: 57bf a5bd 1d58 15be 4a28 193d d98e e13d
000001c0: 1017 363d 78dd ba3d af9e 25be ca06 febd
000001d0: 19fc bfbc 2c59 9a3a 97df 373d 2a67 bdbd
000001e0: 4f8a 38be 99ea b0bd ef6e 58bd 825e ac3d
000001f0: f700 b6bc ed08 21be 4f22 2fbc d1cc ffbd
00000200: 11f9 623c c7b7 f6bd c9a3 08be f663 35bd
00000210: 4646 863c 03ee 38be ee06 173e 2341 c03d
00000220: ee7d 113e 1898 0e3e 349b 22bd 2df9 07be
00000230: b21a 053e 9ef9 00be c208 0bbe 6c72 3e3d
00000240: 1f74 6a3d 04a4 a63d 3b44 27be 9ff8 2dbd
00000250: c6c4 11bd beef 82bd c767 513d 7a6c 5c3d
00000260: 9698 2cbe 29ac 573d 837d d53c b05a 26be
00000270: d143 e7b9 2369 c6bd 2a3c 43bd 9f55 adbd
00000280: d47e 23be 92b8 5cbd 30fb 1abc dae4 36bd
00000290: fd1d 8e3d 83ba c43c f390 0abe 7360 003e
000002a0: 0e79 613c 4c46 0c3d c95e 853d 7cf8 66bb
000002b0: e910 843c 7066 fe3d 6dcf 12bd 27be bfbd
000002c0: 09f0 403e a127 32bd 7f2d 47bd cf44 103e
000002d0: 9b59 ed3d e367 15be 708d 36be 0845 a33d
000002e0: 8091 d2bc 4111 713c a92c 33bd b2c3 21be
000002f0: 663e 343d a993 eabd 965c a4bd 6892 5339
00000300: 296a 7b3d c837 0cbd 7728 5a3d d919 1fbe
00000310: 63f3 483d 8ffa 1e3e 387d e13a 5446 143e
00000320: ae3f 563d b99e 69bd d5f7 87bd b34d ab3d
00000330: 1f43 463e 39fc bf3b 59b4 abbc 75fa e8bc
00000340: 25a5 893d 9424 bf3c 514f 3e3e 7492 82bd
00000350: 811b 143e 6ad7 30bd 852a e9bd d13a 983d
00000360: 8721 ddbd 3d54 443e 482d 1ebc d2a1 a1bd
00000370: b3ba 36bd ba9a 94bd 2fc9 253d 0288 6c3e
00000380: c41b 04be edda fbbd a578 75bd 8ac9 973d
00000390: 41e5 103d 0684 383e 5394 cdbd be3c b0bd
000003a0: 3fcd a23d c41a 493d 1fab 003c 727a a8bd
000003b0: dd23 64bd 83db 1d3d d2ad db3c 51c0 aa3d
000003c0: 2b90 e6bd ce75 2bbe 5d6a 433e d83d b3bd
000003d0: 1c54 fc3c 480d 50bd 93da 89bd 404f 29be
000003e0: f6a0 033e b765 95bd 655d b1bb cebb 963d
000003f0: ec98 2cbe c9c2 b4bd cf40 cdbc 5940 03be

sequential_31/conv1d_81/Conv1D f4 [128, 1, 3, 64]
0.0574757 -0.052217457 -0.09568227 0.07588215 0.033973023 -0.008327388 -0.068907544 -0.034021303
-0.032318953 0.028608907 -0.065612614 0.07833592 -0.029115 -0.012655503 -0.07280582 -0.0048985495
-0.020587314 -0.020490667 -0.01443551 -0.005019246 0.047228903 0.0856505 -0.13229929 -0.037329886
-0.027856365 0.050120346 0.027836366 -0.040218323 0.01934165 -0.06933771 0.08779306 0.031024102
-0.021671899 0.007583617 0.057590254 -0.003054646 -0.015694495 -0.0013274542 0.04419858 0.033831492
-0.032115877 0.072498806 0.021121677 -0.0021515447 -0.04465147 -0.079139166 0.024686119 -0.044471238
-0.13386562 0.012812313 0.047248565 0.062144607 0.06209498 0.012562915 -0.071593314 0.016267931
-0.07841106 -0.046201352 -0.01860428 0.03377923 -0.048911463 -0.037639827 -0.041029397 0.048010398
-0.10103602 0.03798079 0.063162774 0.054185983 -0.012680568 -0.056563117 -0.05437588 0.050165355
-0.016556062 -0.0074304175 -0.058903534 0.022845758 0.038483642 0.022154171 -0.017305497 0.0023865213
0.04665823 -0.03362576 0.05348859 0.039763436 0.01572721 -0.0035668644 -0.023015896 0.03127805
0.045174837 -0.057687715 -0.0071673775 -0.055963982 -0.0006244549 0.032982945 0.067377724 0.033420898
0.0074576805 -0.07570599 -0.02598108 -0.043997295 0.022479855 -0.08886141 0.018343387 -0.08571234
-0.037357144 -0.026333576 -0.06883043 0.031182857 0.019787116 -0.050248403 -0.034989383 0.015030758
-0.04080456 -0.04306544 -0.006668808 -0.032109566 -0.004189344 0.014191092 -0.0044760606 0.053224877
-0.050078787 0.035905544 0.0039481814 -0.02481495 -0.011800722 -0.032181956 -0.07006646 -0.012334714
-0.07722126 -0.07624668 -0.10584678 0.03875512 0.06103772 0.018551078 -0.018749004 -0.050586063
0.017289195 -0.025246795 -0.034639325 -0.039471757 -0.06699261 0.06700319 -0.045318536 -0.023640905
-0.03897366 -0.035499994 0.004165174 -0.07036475 0.01389599 -0.09738325 0.015383293 -0.10294561
-0.032965157 -0.078634106 -0.009458463 0.036476206 0.058378104 -0.055209123 0.030204885 -0.00030038372
0.04251609 0.072136305 -0.052574474 -0.06280115 -0.018669724 -0.07004246 0.014115014 0.028352667
-0.04852295 0.019336637 -0.03453667 0.015261112 -0.08085286 0.016442202 0.02784264 -0.0048965844
0.023507463 0.028237775 -0.14577873 -0.077943884 -0.070294835 -0.07007619 0.017123668 0.042866778
0.038224243 -0.04235823 -0.039199866 -0.01728318 -0.042714965 -0.070574984 -0.012563656 0.0842148
0.02011256 0.07710697 0.06361721 0.10361643 -0.034235142 -0.015610874 -0.07030687 0.009753959
-0.040271707 -0.008930964 -0.03302314 -0.032730002 0.08170695 -0.09732549 0.06360144 -0.0760687
0.040907387 0.059546623 -0.021314643 0.045895457 -0.017731197 0.055770148 -0.008735587 0.050309025
-0.05426608 -0.09186315 -0.037058298 0.06553914 0.04319822 -0.028270582 0.028705562 0.051744435
-0.031048961 -0.016755726 -0.038094137 -0.06978839 0.0758616 0.06596109 -0.029030003 0.04023183
-0.0066006803 -0.1362435 -0.07295529 -0.01944543 0.048327528 0.08406248 -0.0070477417 -0.017001797
-0.07804759 -0.06382466 -0.04474423 0.073529266 0.056596737 -0.14027707 0.04893067 -0.066065036
-0.046259288 0.081244305 0.08339334 0.0016827069 0.092882216 -0.078159705 -0.07828561 0.06414974
00000000: a46b 6b3d f9e1 55bd 11f5 c3bd 1a68 9b3d
00000010: 4c27 0b3d 996f 08bc 661f 8dbd ec59 0bbd
00000020: e160 04bd 3a5d ea3c e85f 86bd 956e a03d
00000030: 9582 eebc 0759 4fbc 381b 95bd 0384 a0bb
00000040: baa6 a8bc 0bdc a7bc eb82 6cbc 7d78 a4bb
00000050: 1873 413d 8869 af3d 7779 07be 39e7 18bd
00000060: 0833 e4bc fe4a 4d3d 1709 e43c f8bb 24bd
00000070: 6172 9e3c ee00 8ebd d9cc b33d 4226 fe3c
00000080: 4489 b1bc fe7f f83b c2e3 6b3d 7530 48bb
00000090: be91 80bc f9fd adba 9209 353d e492 0a3d
000000a0: f08b 03bd 417a 943d 5e07 ad3c ee00 0dbb
000000b0: 76e4 36bd b713 a2bd 8b3a ca3c 7927 36bd
000000c0: 1214 09be bcea 513c b687 413d 588b 7e3d
000000d0: 4e57 7e3d afd4 4d3c 849f 92bd 5344 853c
000000e0: fa95 a0bd a13d 3dbd 0168 98bc 175c 0a3d
000000f0: 6357 48bd 382c 1abd 710e 28bd 8da6 443d
00000100: f9eb cebd bf91 1b3d 7c5b 813d 1ff2 5d3d
00000110: 28c2 4fbc baae 67bd 3eb9 5ebd 307a 4d3d
00000120: 94a0 87bc dc7a f3bb d544 71bd 0727 bb3c
00000130: 06a1 1d3d aa7c b53c 42c4 8dbc 2f67 1c3b
00000140: b31c 3f3d 2abb 09bd da16 5b3d fcde 223d
00000150: 5ad6 803c 0ec2 69bb d58b bcbc 6a1d 003d
00000160: 4009 393d f449 6cbd 52dc eabb 7d3a 65bd
00000170: 75b2 23ba 2019 073d 55fd 893d 5ae4 083d
00000180: 8f5f f43b be0b 9bbd 46d6 d4bc 8236 34bd
00000190: ac27 b83c f9fc b5bd df44 963c f489 afbd
000001a0: ce03 19bd 83b9 d7bc f8f6 8cbd 3173 ff3c
000001b0: 9718 a23c 45d1 4dbd 0751 0fbd 9243 763c
000001c0: af22 27bd 6365 30bd 0486 dabb 5285 03bd
000001d0: c446 89bb c181 683c ebab 92bb 5402 5a3d
000001e0: 6a1f 4dbd b111 133d bf5f 813b b948 cbbc
000001f0: d157 41bc 3ad1 03bd 017f 8fbd 8a17 4abc
00000200: 2e26 9ebd 3827 9cbd 32c6 d8bd b0bd 1e3d
00000210: b002 7a3d 6ef8 973c 8397 99bc 5533 4fbd
00000220: 12a2 8d3c 5ed2 cebc f7e1 0dbd 23ad 21bd
00000230: 6c33 89bd f838 893d ee9f 39bd 92aa c1bc
00000240: d8a2 1fbd 7168 11bd 037c 883b 651b 90bd
00000250: 02ac 633c df70 c7bd 350a 7c3c 26d5 d2bd
00000260: 7906 07bd eb0a a1bd abf7 1abc 1368 153d
00000270: e11d 6f3d f622 62bd 3c70 f73c d27c 9db9
00000280: 5a25 2e3d 33bc 933d 5558 57bd e49d 80bd
00000290: 40f1 98bc 6c72 8fbd a942 673c da43 e83c
000002a0: 00c0 46bd de67 9e3c 5376 0dbd be09 7a3c
000002b0: 2f96 a5bd ccb1 863c 4016 e43c 8773 a0bb
000002c0: b992 c03c e852 e73c 0547 15be 0ba1 9fbd
000002d0: bdf6 8fbd 1b84 8fbd ef46 8c3c 1395 2f3d
000002e0: 0691 1c3d d37f 2dbd 0a90 20bd 7595 8dbc
000002f0: e3f5 2ebd 9e89 90bd cbd7 4dbc cf78 ac3d
00000300: 18c3 a43c 42ea 9d3d bd49 823d da34 d43d
00000310: 263a 0cbd c0c4 7fbc 0cfd 8fbd 12cf 1f3c
00000320: f2f3 24bd 2e53 12bc 4643 07bd e50f 06bd
00000330: f955 a73d 9652 c7bd 7941 823d e8c9 9bbd
00000340: 818e 273d 29e7 733d 0c9c aebc e0fc 3b3d
00000350: 0441 91bc 3d6f 643d b51f 0fbc d610 4e3d
00000360: 1c46 5ebd bf22 bcbd 71ca 17bd 6239 863d
00000370: 9ef0 303d b597 e7bc ed27 eb3c f9f1 533d
00000380: 645a febc 4e43 89bc 9908 1cbd 37ed 8ebd
00000390: 545d 9b3d 9c16 873d 54d0 edbc 22ca 243d
000003a0: 854a d8bb 6b83 0bbe 9569 95bd 064c 9fbc
000003b0: 16f3 453d f328 ac3d bef0 e6bb 5a47 8bbc
000003c0: 6ad7 9fbd 81b6 82bd ba45 37bd 8396 963d
000003d0: fbd1 673d cba4 0fbe 876b 483d 1b4d 87bd
000003e0: 617a 3dbd 6a63 a63d 21ca aa3d 468e dc3a
000003f0: 0839 be3d 3212 a0bd 3554 a0bd f060 833d

sequential_31/batch_normalization_74/batchnorm/sub f4 [128]
-0.5230756 -0.61843246 -0.76863855 -0.6788521 -0.2969892 -0.23716746 -0.7538597 -0.701923
-0.4070406 -0.3438175 -0.77597 -0.26026863 -0.37595978 -0.28610244 -0.22094788 -0.5820531
-0.3691616 -0.834269 -0.47793582 -0.30923545 -0.25917375 -0.3183999 -0.7997849 -0.6663815
-0.2467534 -0.81681705 -0.9209144 -0.7216342 -0.30715352 -0.72021466 -0.57020164 -0.72414863
-0.66971606 -0.3567395 -0.39157128 -0.27738854 -0.3825152 -0.21088684 -0.5324895 -0.4711289
-0.8182417 -0.23490685 -0.5799733 -0.20377706 -0.29933727 -0.89519984 -0.46697468 -0.37864995
-0.7509569 -0.68567204 -0.68990415 -0.5371105 -0.65494156 -0.5982043 -0.908675 -0.7116064
-0.2767887 -0.84202486 -0.21645308 -0.835018 -0.7528329 -0.40824866 -0.6309685 -0.55355823
-0.6201102 -0.20321324 -0.9648515 -0.45405424 -0.8231041 -0.20259854 -0.31622672 -1.0604132
-0.6994872 -1.0464693 -0.5694091 -0.4706499 -0.87406963 -0.89195144 -0.26485527 -0.7339211
-0.30138084 -0.6368702 -0.26282644 -0.9294912 -0.6995455 -1.0622679 -0.8809964 -0.6325652
-0.8199132 -1.0589734 -0.63232046 -0.59953064 -0.27984828 -0.3563752 -0.26053593 -0.54243386
-0.5523245 -0.7313959 -1.059516 -0.9330454 -0.45192724 -0.4691765 -0.27867976 -0.41062763
-0.5974661 -0.18219039 -0.5277038 -1.1357791 -0.43241116 -0.44060588 -0.23664592 -0.7809142
-0.97929996 -0.9521324 -0.3732065 -0.293118 -0.23959753 -0.7960814 -0.57743937 -0.9413605
-0.7010437 -0.23772359 -0.65818816 -0.5115471 -0.65276814 -0.4314585 -1.0658091 -0.77282363
00000000: 48e8 05bf 9751 1ebf 7fc5 44bf 40c9 2dbf
00000010: f80e 98be 07dc 72be f3fc 40bf 3ab1 33bf
00000020: a067 d0be d908 b0be f8a5 46bf ee41 85be
00000030: cd7d c0be 057c 92be 2940 62be 6f01 15bf
00000040: c002 bdbe a792 55bf 01b4 f4be 1c54 9ebe
00000050: 6cb2 84be 5005 a3be b4be 4cbf fa97 2abf
00000060: ecac 7cbe ec1a 51bf 0cc1 6bbf 05bd 38bf
00000070: 3a43 9dbe fd5f 38bf bcf8 11bf ce61 39bf
00000080: 8372 2bbf 8fa6 b6be 087c c8be df05 8ebe
00000090: 08d9 c3be b8f2 57be 3b51 08bf cf37 f1be
000000a0: 4a78 51bf 6c8b 70be 2179 14bf efaa 50be
000000b0: bc42 99be d12b 65bf 4e17 efbe 68de c1be
000000c0: b63e 40bf 3488 2fbf 8f9d 30bf 1380 09bf
000000d0: 40aa 27bf eb23 19bf ed9e 68bf d62b 36bf
000000e0: 40b7 8dbe f18e 57bf e0a5 5dbe bdc3 55bf
000000f0: a8b9 40bf f805 d1be 2787 21bf feb5 0dbf
00000100: 8bbf 1ebf 2217 50be 8200 77bf cc79 e8be
00000110: f3b6 52bf fe75 4fbe 78e8 a1be 9fbb 87bf
00000120: 9811 33bf b5f2 85bf cbc4 11bf 06f9 f0be
00000130: 07c3 5fbf ee56 64bf 1c9b 87be 41e2 3bbf
00000140: 974e 9abe ed09 23bf 3091 86be 23f3 6dbf
00000150: 6a15 33bf 65f8 87bf fb88 61bf cbef 21bf
00000160: d5e5 51bf 718c 87bf c1df 21bf d77a 19bf
00000170: 4648 8fbe cf76 b6be f764 85be f2dc 0abf
00000180: 2365 0dbf c33c 3bbf 389e 87bf 10dc 6ebf
00000190: 0263 e7be e737 f0be 1daf 8ebe c93d d2be
000001a0: 8af3 18bf 1e90 3abe 9917 07bf 3661 91bf
000001b0: ff64 ddbe 1897 e1be 4f53 72be fee9 47bf
000001c0: 67b3 7abf f3be 73bf ec14 bfbe 9013 96be
000001d0: 0e59 75be fecb 4bbf 11d3 13bf 00fd 70bf
000001e0: 9a77 33bf d06d 73be 057f 28bf c0f4 02bf
000001f0: d01b 27bf 21e8 dcbe 6f6c 88bf c5d7 45bf

sequential_31/batch_normalization_74/batchnorm/mul f4 [128]
3.2203035 4.081839 4.7864943 2.7241082 1.4606225 1.2183899 4.3561416 7.4100404
2.3139553 2.4530778 3.435523 1.209314 2.0293024 2.3770847 1.3639996 2.7298322
1.6242558 8.057187 2.65996 1.5328285 1.4480253 1.8936231 4.3590264 3.102935
1.7776209 3.672383 3.748398 3.8967676 1.4395776 3.4695375 2.737386 2.7978296
2.747013 2.3365874 2.5546098 0.7695732 2.273405 1.3051407 3.5315554 2.2170374
4.1453514 0.91504896 3.7336774 1.1877933 1.1580925 3.6086671 2.9108021 2.1254342
2.701219 3.933505 3.2281244 4.1044445 3.535308 3.0798414 4.4351535 3.493344
1.3288541 6.243118 1.2186283 4.1929 5.6165032 2.7813103 3.7644663 3.6400921
4.659056 1.6130307 4.210487 2.1265166 4.1365333 1.8753831 1.583511 5.6752605
6.1739683 3.8457725 5.8112507 2.284929 3.5921392 5.165705 1.5280464 4.5587316
1.625715 3.1801672 2.070116 3.4214702 4.299292 4.471493 5.4168024 2.94812
3.7572148 3.5963027 5.2965474 2.4926836 0.8667263 0.90910375 0.84164 3.154756
2.786851 4.562747 5.7681684 4.555346 2.9101985 2.9563248 0.69586945 1.9592113
3.0415955 1.1710622 2.817606 5.0593967 3.4830735 2.9953198 1.8851668 3.2565067
4.1774516 4.4776115 2.013333 1.1029098 1.9709005 3.6754851 4.1116395 4.832099
3.7838764 1.304447 3.2493947 3.718411 3.5274448 2.2835705 5.32057 4.461869
00000000: 7419 4e40 6d9e 8240 f62a 9940 ca57 2e40
00000010: aef5 ba3f 33f4 9b3f 8365 8b40 0d1f ed40
00000020: d817 1440 3aff 1c40 9cdf 5b40 cdca 9a3f
00000030: 17e0 0140 2822 1840 8a97 ae3f 92b5 2e40
00000040: 9de7 cf3f 3dea 0041 c93c 2a40 b933 c43f
00000050: e558 b93f 3e62 f23f 257d 8b40 7d96 4640
00000060: 1589 e33f 5308 6b40 c1e5 6f40 a464 7940
00000070: 1444 b83f e70c 5e40 5531 2f40 a40f 3340
00000080: 10cf 2f40 a68a 1540 ba7e 2340 c002 453f
00000090: 787f 1140 da0e a73f 0105 6240 f1e3 0d40
000000a0: b8a6 8440 a640 6a3f 92f4 6e40 9c09 983f
000000b0: 603c 943f 67f4 6640 954a 3a40 1d07 0840
000000c0: c6e0 2c40 8cbe 7b40 9799 4e40 9c57 8340
000000d0: 7c42 6240 1f1c 4540 c7ec 8d40 f392 5f40
000000e0: e417 aa3f 9fc7 c740 03fc 9b3f 3d2c 8640
000000f0: 65ba b340 fd00 3240 04ed 7040 45f7 6840
00000100: fd16 9540 ca77 ce3f 4fbc 8640 d918 0840
00000110: 7b5e 8440 8e0c f03f 7db0 ca3f bc9b b540
00000120: 2691 c540 2321 7640 c4f5 b940 473c 1240
00000130: 9ce5 6540 754d a540 0697 c33f 21e1 9140
00000140: 6e17 d03f dc87 4b40 c87c 0440 5ef9 5a40
00000150: cd93 8940 7816 8f40 7256 ad40 00ae 3c40
00000160: 3576 7040 d329 6640 517d a940 2188 1f40
00000170: c6e1 5d3f 06bb 683f b875 573f 86e7 4940
00000180: c45b 3240 0602 9240 d694 b840 65c5 9140
00000190: b140 3a40 6d34 3d40 8024 323f 70c7 fa3f
000001a0: 80a9 4240 5ee5 953f a853 3440 94e6 a140
000001b0: adea 5e40 52b3 3f40 254d f13f 9b6a 5040
000001c0: afad 8540 9848 8f40 73da 0040 262c 8d3f
000001d0: 7846 fc3f 263b 6b40 8d92 8340 8ea0 9a40
000001e0: 082b 7240 1ff8 a63f 15f6 4f40 72fa 6d40
000001f0: a8c1 6140 0526 1240 1c42 aa40 a1c7 8e40

sequential_31/batch_normalization_73/batchnorm/sub f4 [64]
-0.22595318 -0.18655857 -0.17575489 -0.22442013 -0.11241445 -0.2398315 -0.16029128 -0.17262234
-0.1342244 -0.20835477 -0.15058532 -0.13791397 -0.11211708 -0.27754897 -0.21962132 -0.27536294
-0.21807058 -0.19437014 -0.21143706 -0.20081031 -0.21446387 -0.15735525 -0.16146705 -0.18694371
-0.28098404 -0.1589735 -0.17253421 -0.12876782 -0.20199189 -0.19244851 -0.22853355 -0.11692065
-0.18218961 -0.31795272 -0.21585503 -0.17011745 -0.20624846 -0.14788112 -0.2361693 -0.1439591
-0.12905163 -0.15919577 -0.1410566 -0.19499391 -0.15703815 -0.16659532 -0.16098566 -0.20026067
-0.28693768 -0.14556411 -0.19371484 -0.2337186 -0.18752445 -0.21903485 -0.17836782 -0.18197428
-0.21588959 -0.17966035 -0.21849932 -0.16444358 -0.15807474 -0.15606588 -0.118617736 -0.19499977
00000000: 4560 67be 3609 3fbe 17f9 33be 64ce 65be
00000010: 8c39 e6bd 6496 75be 6623 24be e9c3 30be
00000020: 1f72 09be f45a 55be 0a33 1abe 5239 0dbe
00000030: a49d e5bd e61a 8ebe 69e4 60be 5ffc 8cbe
00000040: e54d 5fbe f708 47be f582 58be 38a1 4dbe
00000050: 6b9c 5bbe bc21 21be 9e57 25be 2c6e 3fbe
00000060: 24dd 8fbe f3c9 22be cfac 30be b6db 03be
00000070: f6d6 4ebe 3911 45be b304 6abe 1874 efbd
00000080: ea8f 3abe b3ca a2be 1a09 5dbe 4533 2ebe
00000090: cc32 53be 266e 17be 5dd6 71be 046a 13be
000000a0: 1c26 04be 3704 23be 2471 10be 7cac 47be
000000b0: 9cce 20be f797 2abe 6dd9 24be 2211 4dbe
000000c0: 7fe9 92be c20e 15be 2f5d 46be ee53 6fbe
000000d0: 6906 40be ac4a 60be 0ea6 36be 7757 3abe
000000e0: 2912 5dbe e2f8 37be 49be 5fbe e663 28be
000000f0: 58de 21be bccf 1fbe dbed f2bd 05ae 47be

sequential_31/batch_normalization_73/batchnorm/mul f4 [64]
0.20640883 0.34415323 0.27578336 0.4631069 0.27947417 0.36994353 0.24701427 0.32297078
0.24833918 0.3719797 0.2892685 0.4349008 0.2814413 0.47168732 0.19821303 0.37078613
0.5151622 0.4425387 0.30569753 0.18475778 0.14768611 0.36061057 0.42254144 0.39285246
0.4301795 0.4218777 0.13016145 0.2371172 0.19738467 0.20187639 0.39351323 0.78423804
0.33791918 0.3911075 0.23065281 0.21085028 0.3222366 0.32502517 0.4235812 0.29128838
0.24066994 0.34950027 0.25915745 0.4082564 0.22018686 0.89195293 0.37920582 0.40058395
0.51090354 0.35517383 0.55920833 0.7625086 0.5184365 0.4609805 0.32313684 0.2283804
0.7260806 0.1833776 0.22201698 0.2709372 0.60826814 0.2476263 0.25303656 0.35062653
00000000: d65c 533e da34 b03e 7a33 8d3e 591c ed3e
00000010: 3d17 8f3e 3d69 bd3e 4ff1 7c3e 6d5c a53e
00000020: a04c 7e3e 2074 be3e 001b 943e 51ab de3e
00000030: 1319 903e 0081 f13e 5bf8 4a3e aed7 bd3e
00000040: ace1 033f 6f94 e23e 6384 9c3e 2531 3d3e
00000050: 073b 173e f3a1 b83e 5a57 d83e f523 c93e
00000060: 7d40 dc3e 5b00 d83e 0b49 053e dace 723e
00000070: 351f 4a3e afb8 4e3e 917a c93e d3c3 483f
00000080: be03 ad3e 3e3f c83e 4030 6c3e 23e9 573e
00000090: 32fc a43e b369 a63e a3df d83e c023 953e
000000a0: 2e72 763e b3f1 b23e 49b0 843e fc06 d13e
000000b0: aa78 613e 0757 643f 4427 c23e 5719 cd3e
000000c0: 93ca 023f 58d9 b53e 4728 0f3f c333 433f
000000d0: 41b8 043f a305 ec3e 3172 a53e 8ddc 693e
000000e0: 6be0 393f 56c7 3b3e 6b58 633e 48b8 8a3e
000000f0: 76b7 1b3f c091 7d3e 028e 813e 5285 b33e

sequential_31/dense_62/BiasAdd/ReadVariableOp f4 [128]
0.054022074 -0.008456637 0.049071744 0.01972655 0.0061577354 -0.036928363 -0.020360183 0.022156658
0.006381503 0.029162021 0.00018153632 0.06901774 0.048996303 0.009106328 0.036298815 -0.0042564822
-0.0197727 0.0024442412 -0.004511226 0.041374203 0.09838408 -0.0037614456 0.001903215 0.006778933
0.02692182 -0.018280692 0.0049682837 -0.0013733616 0.029217483 0.04790544 0.0021996354 0.017754475
0.008106171 0.041038632 0.045965064 0.041382845 0.027393831 0.027099658 0.025638495 0.020856872
-0.027952831 0.018222665 -0.021171037 0.014489183 0.001385658 0.014187304 0.05678616 -0.0399188
0.02366748 0.011712791 -0.0033952915 0.036407776 0.07180361 -0.011243303 -0.0013497439 0.06589156
0.027341483 0.045852035 0.013076488 0.031388298 -0.0069546974 0.096953124 0.0282133 -0.0040715155
-0.013791792 0.012439328 -0.024598487 0.023510158 -0.028401427 -0.041182667 0.026312202 0.033978768
0.0014691267 -0.0025188639 -0.056981366 -0.031973623 0.02950393 0.018844092 0.029194163 -0.013104475
0.023699503 0.028072271 0.022182897 0.011607065 0.044704266 0.041105792 0.0043697474 0.04765934
0.03671941 0.01886129 -0.08224656 0.0029963779 -0.01074314 0.0623062 0.013120195 -0.008207708
0.015169156 0.013293567 0.004659067 0.0048768385 0.033881824 -0.04633958 0.043441106 -0.018758496
-0.018034283 0.035412367 -0.014520356 -0.0070240246 0.051401403 -0.0076299175 0.023703903 0.013064623
0.050927136 0.029537933 -0.021778256 0.0132649345 0.056705117 0.031212002 -0.015764475 -0.04310074
0.019586628 0.018927779 0.062436365 0.06569144 0.07326595 0.007291529 0.057236385 0.026918063
00000000: 4046 5d3d b58d 0abc 74ff 483d 9399 a13c
00000010: d4c6 c93b 3242 17bd 66ca a6bc e181 b53c
00000020: ed1b d13b 31e5 ee3c c95a 3e39 2c59 8d3d
00000030: 59b0 483d b532 153c 11ae 143d f679 8bbb
00000040: 5bfa a1bc 902f 203b e8d2 93bb ff77 293d
00000050: 987d c93d 9682 76bb 4c75 f93a d021 de3b
00000060: 268b dc3c 64c1 95bc fccc a23b 5e02 b4ba
00000070: 8159 ef3c 7f38 443d c227 103b d571 913c
00000080: bfcf 043c 2018 283d dd45 3c3d 0f81 293d
00000090: 0769 e03c 1a00 de3c d207 d23c 08dc aa3c
000000a0: 56fd e4bc b347 953c e26e adbc 0a64 6d3c
000000b0: f89e b53a de71 683c 9b98 683d e581 23bd
000000c0: 4ee2 c13c 02e7 3f3c 8a83 5ebb 5220 153d
000000d0: c50d 933d d535 38bc e4e9 b0ba 27f2 863d
000000e0: 3ffb df3c 58cf 3b3d c43e 563c 0491 003d
000000f0: 3be4 e3bb 5c8f c63d 941f e73c 596a 85bb
00000100: f8f6 61bc 53ce 4b3c c482 c9bc 6098 c03c
00000110: 1caa e8bc 28af 28bd b08c d73c 522d 0b3d
00000120: b68f c03a 8613 25bb 4b65 69bd c6f6 02bd
00000130: 3ab2 f13c ed5e 9a3c 9928 ef3c 27b4 56bc
00000140: 7625 c23c d2f7 e53c e8b8 b53c 8f2b 3e3c
00000150: d21b 373d 8c5e 283d 1930 8f3b 7136 433d
00000160: 1867 163d fe82 9a3c e270 a8bd e15e 443b
00000170: ff03 30bc c934 7f3d 16f6 563c 9f79 06bc
00000180: 0d88 783c 43cd 593c 16ab 983b e3cd 9f3b
00000190: abc7 0a3d 92ce 3dbd 4def 313d 6bab 99bc
000001a0: a2bc 93bc 8f0c 113d cae6 6dbc ca29 e6bb
000001b0: 478a 523d 6304 fabb b02e c23c 000d 563c
000001c0: f998 503d 89f9 f13c 5068 b2bc 2b55 593c
000001d0: a043 683d 50b0 ff3c 8024 81bc 678a 30bd
000001e0: 2374 a03c 6e0e 9b3c 46bd 7f3d 3c89 863d
000001f0: 750c 963d c7ed ee3b b370 6a3d 4583 dc3c

sequential_31/dense_62/MatMul f4 [128, 1408]
0.059371635 0.019967949 -0.024713235 0.005957698 0.0341609 0.05195494 0.007822944 0.050687607
0.0104451645 -0.02854693 0.021440465 -0.020089593 0.0010764691 -0.023020811 0.005787231 0.047950655
0.017573042 -0.010403569 -0.021912653 -0.04240277 -0.020177921 -0.041590437 0.015124599 -0.038321733
0.025411218 -0.031363253 -0.0047045946 -0.045944292 0.038367733 0.09585251 0.034638453 0.052473992
0.0033972953 -0.03547128 -0.04050451 -0.011764617 0.077274084 0.010463165 0.027208334 -0.0045699575
0.0028476731 -0.017433941 -0.070500225 -0.007966989 -0.065060064 0.048893835 0.020662611 0.015855005
-0.05499959 -0.050246634 0.006365782 0.045699734 0.017138034 -0.026709188 0.044282176 0.0032296085
-0.006298711 -0.013443339 0.044918258 -0.07821023 -0.021877386 -0.021195661 0.040726677 0.035592493
0.0013603143 -0.019102398 -0.029261319 -0.041274205 -0.028881172 0.030726481 0.04002837 0.09112528
-0.020823682 -0.0043110927 0.0039801034 -0.023869224 0.0060861707 0.060483888 0.04000369 -0.043224815
-0.015408746 -0.008074977 0.020628272 -0.08387361 0.0334345 0.054429032 -0.0017315298 0.051579256
0.08745636 -0.033531547 0.016028812 0.08099172 0.019511573 -0.0054608197 0.024773203 0.034596574
-0.009739433 0.054596126 -0.034880202 0.042402968 0.012641796 -0.02670539 0.005552009 0.057332844
-0.02507368 0.053942904 -0.0054846103 0.05432265 0.005613745 -0.015406521 0.028801097 0.06899113
0.037764903 -0.022226209 0.046311717 -0.028083546 -0.025482718 0.0016146401 -0.104924224 -0.0492127
0.03632167 0.030613378 0.05881981 0.008204784 -0.055779517 -0.06839552 0.025665127 0.040091664
0.012836653 -0.0779368 0.07835409 0.021848615 -0.0020593028 0.027792238 -0.07474512 -0.037018538
-0.07331373 0.017704273 -0.06483008 0.04642072 -0.03074682 0.08204474 -0.029792717 0.017185275
-0.05242072 0.039144997 -0.016066235 0.024495635 -0.03453993 -0.035754792 -0.0074140504 -0.026312651
0.06412218 -0.063953765 -0.06070817 0.028298574 0.056883648 0.027691238 -0.025288815 0.056086548
0.024723072 0.009971266 0.006204484 -0.026294917 -0.0036043797 0.029137237 0.017710576 -0.06680563
-0.055071484 0.0018649944 -0.093246706 0.034206446 -0.036116716 -0.048847258 -0.022158483 -0.051649593
-0.0400318 0.040266518 0.0057877153 -0.036485996 0.040269934 0.018762814 0.05298779 -0.020976476
6.897358e-05 0.05710426 0.022143655 -0.04370524 0.064834245 0.043022275 0.031642552 0.062948905
-0.10123678 -0.019026587 0.09593795 0.051034126 0.020520547 0.059254512 -0.017248763 0.021265522
-0.051076878 -0.02609199 0.022295564 0.035405934 0.0023593744 -0.014816314 -0.03655065 0.033416532
-0.055279642 0.048916984 -0.044220325 -0.031972893 0.02139692 0.03910457 -0.02328113 -0.006987756
0.001103255 -0.07090043 0.06644037 0.019434256 0.072884545 0.031214666 0.07539989 0.039461892
-0.0063088327 0.045870874 -0.016431995 -0.009080042 0.054852642 0.04627795 -0.006800552 0.08838697
0.0892577 -0.009235809 0.07519638 -0.014231178 -0.0207629 -0.05946194 0.007983122 -0.0329749
0.01693037 0.03203065 -0.0055845566 0.074208744 0.05094373 0.019670842 -0.11423049 0.035318017
0.007403731 0.02600564 0.0302669 0.07435186 0.041731484 0.017815767 0.037685964 0.08416986
00000000: ac2f 733d d393 a33c 6973 cabc cb38 c33b
00000010: 4dec 0b3d b4ce 543d ce2b 003c cf9d 4f3d
00000020: 3222 2b3c 40db e9bc eaa3 af3c ee92 a4bc
00000030: 4f18 8d3a 2496 bcbc d0a2 bd3b e867 443d
00000040: 57f5 8f3c bb73 2abc 2a82 b3bc 87ae 2dbd
00000050: 2b4c a5bc bc5a 2abd 2bcd 773c 40f7 1cbd
00000060: 302b d03c c176 00bd 0029 9abb 1530 3cbd
00000070: 7c27 1d3d 524e c43d 0de1 0d3d f8ee 563d
00000080: 28a5 5e3b 554a 11bd 0fe8 25bd 61c0 40bc
00000090: e041 9e3d b26d 2b3c 03e4 de3c 95bf 95bb
000000a0: 07a0 3a3b a0d1 8ebc 6c62 90bd f987 02bc
000000b0: 363e 85bd e744 483d a344 a93c 5be2 813c
000000c0: 4047 61bd 6acf 4dbd 0d98 d03b a52f 3b3d
000000d0: 1065 8c3c 3acd dabc 3a61 353d d7a7 533b
000000e0: 6b65 cebb 7341 5cbc 35fc 373d af2c a0bd
000000f0: 3438 b3bc 86a2 adbc 04d1 263d 6fc9 113d
00000100: 934c b23a a27c 9cbc 6fb5 efbc 240f 29bd
00000110: 3598 ecbc 1ab6 fb3c caf4 233d e49f ba3d
00000120: 6d96 aabc 1144 8dbb 876b 823b 6489 c3bc
00000130: 806e c73b f4bd 773d e9da 233d 810c 31bd
00000140: f774 7cbc e94c 04bc 9ffc a83c edc5 abbd
00000150: 9df2 083d faf0 5e3d 80f4 e2ba c544 533d
00000160: 521c b33d 6058 09bd db4e 833c fdde a53d
00000170: bcd6 9f3c adf0 b2bb 2cf1 ca3c 23b5 0d3d
00000180: 2592 1fbc 30a0 5f3d 8bde 0ebd bcae 2d3d
00000190: 891f 4f3c 43c5 dabc a1ed b53b d8d5 6a3d
000001a0: 5167 cdbc 3cf3 5c3d 3fb8 b3bb 6d81 5e3d
000001b0: 82f3 b73b a26b 7cbc 47f0 eb3c 394b 8d3d
000001c0: 5faf 1a3d bd13 b6bc 5bb1 3d3d 770f e6bc
000001d0: 22c1 d0bc 55a2 d33a 83e2 d6bd 4293 49bd
000001e0: 08c6 143d e8c8 fa3c 0bed 703d 5c6d 063c
000001f0: 1079 64bd f312 8cbd ac3f d23c 2837 243d
00000200: d350 523c 549d 9fbd 1c78 a03d defb b23c
00000210: 5ef5 06bb 8cac e33c f813 99bd c0a0 17bd
00000220: 8225 96bd 8d08 913c a2c5 84bd a723 3e3d
00000230: c1e0 fbbc 1307 a83d db0f f4bc 22c8 8c3c
00000240: 1cb7 56bd 8156 203d 569d 83bc 12ab c83c
00000250: be79 0dbd 9e73 12bd 90f1 f2bb a18d d7bc
00000260: 7d52 833d 31fa 82bd 21a9 78bd 69d2 e73c
00000270: d4fe 683d bcd8 e23c 7d2a cfbc 02bb 653d
00000280: 0a88 ca3c 855e 233c fc4e cb3b 7068 d7bc
00000290: 7537 6cbb 37b1 ee3c c515 913c 64d1 88bd
000002a0: a392 61bd d472 f43a 21f8 bebd 0f1c 0c3d
000002b0: 1fef 13bd 1014 48bd b585 b5bc 868e 53bd
000002c0: 62f8 23bd 81ee 243d e0a6 bd3b 5772 15bd
000002d0: 16f2 243d 79b4 993c ba09 593d dcd6 abbc
000002e0: e9a5 9038 28e6 693d 9c66 b53c 4404 33bd
000002f0: d1c7 843d 2038 303d 9f9b 013d 5beb 803d
00000300: 3b55 cfbd a5dd 9bbc 1e7b c43d 2909 513d
00000310: b51a a83c dcb4 723d 474d 8dbc 0835 ae3c
00000320: fd35 51bd debe d5bc 30a5 b63c d005 113d
00000330: bc9f 1a3b 20c0 72bc 22b6 15bd c6df 083d
00000340: e86c 62bd 2d5d 483d 5f20 35bd 02f6 02bd
00000350: 9848 af3c 1d2c 203d 11b8 bebc 8cf9 e4bb
00000360: 189b 903a 3f34 91bd e411 883d 9734 9f3c
00000370: 7e44 953d e6b5 ff3c 426b 9a3d cba2 213d
00000380: 53ba cebb 19e3 3b3d 649c 86bc 75c4 14bc
00000390: 2aad 603d f38d 3d3d 2ad7 debb 3a04 b53d
000003a0: becc b63d ca51 17bc 8f00 9a3d e329 69bc
000003b0: f516 aabc 5d8e 73bd a4cb 023c b010 07bd
000003c0: 8fb1 8a3c 9232 033d a8fe b6bb c1fa 973d
000003d0: 5faa 503d bf24 a13c adf1 e9bd a0a9 103d
000003e0: ff9a f23b c809 d53c 4af2 f73c ca45 983d
000003f0: a2ee 2a3d 5ff2 913c 995c 1a3d 3f61 ac3d
