app/src/main/assets/model.tflite (tflite, 838536 bytes, 12 tensors)

sequential_14/conv1d_28/BiasAdd/ReadVariableOp f4 [64]
000000 90 2f d7 ba fc f8 16 3c 8b 96 03 bb eb 92 21 bc
       -0.0016417373 0.009214636 -0.0020078744 -0.009861688
000010 19 7a ec 3b 0c 4a 41 ba 0d 35 1d 3a 28 89 e0 3a
       0.0072167036 -0.00073733996 0.000599698 0.001713072
000020 4b 51 e0 3b 14 c0 12 3b c0 9c c9 b9 b8 d1 ff ba
       0.0068456284 0.002239232 -0.00038454495 -0.0019517457
000030 76 09 93 ba 75 48 f0 bb 1b 8d 72 bb e3 22 19 bb
       -0.001121803 -0.0073328563 -0.0037010375 -0.0023366741
000040 5b 4d 81 bb 43 bd 82 bb 6e c3 0a 3c 30 cb 7a 3b
       -0.003945989 -0.003989847 0.008469446 0.0038268082
000050 23 67 df ba 0c 1e 65 3a 6f 45 97 bb 2f 9d e0 bb
       -0.0017044287 0.0008740134 -0.0046164314 -0.0068546752
000060 7d af 49 3b 30 24 d9 3b e7 0f 24 3a 1e 16 eb ba
       0.0030774765 0.0066266283 0.0006258473 -0.0017935669
000070 d3 be 99 3b 89 d4 14 3b 86 7c a9 ba 1b 58 18 3c
       0.0046919375 0.0022709689 -0.0012930788 0.00929835
000080 b7 91 29 3c ed c2 f9 3b 88 20 24 bb 96 26 5c bb
       0.0103496825 0.007622114 -0.0025043804 -0.0033592335
000090 3f dd 09 bc 24 b7 dd 3a c8 43 fc ba 10 7c 02 bb
       -0.008414566 0.0016915542 -0.0019246275 -0.0019910373
0000a0 ba fa a9 bb 49 c5 1f 3c f8 1c ff bb 04 a0 a5 bb
       -0.0051873596 0.009751626 -0.0077854358 -0.0050544757
0000b0 53 5d 7f 3a 8d b9 33 bc c0 4a 84 3b 76 ff ba bb
       0.00097413844 -0.010969532 0.004037231 -0.005706723
0000c0 34 6b 93 bc 68 ea fb ba 3b c9 44 bc bb 44 63 bb
       -0.017995454 -0.0019219639 -0.012010868 -0.0034678418
0000d0 6c f0 79 bb 56 49 ea ba de 67 a2 bb 0a bf 15 bb
       -0.0038137687 -0.0017874639 -0.0049562296 -0.0022849464
0000e0 a2 7c 85 bb 06 b4 e3 bb 00 22 31 3c bc 3b e1 3b
       -0.0040736953 -0.0069489507 0.010811329 0.006873576
0000f0 55 f2 0c bb 23 39 63 bc f4 6d 22 3c 4f 4e 38 bc
       -0.0021506746 -0.013868603 0.00991391 -0.011249139

sequential_14/conv1d_29/BiasAdd/ReadVariableOp f4 [128]
000000 20 b6 8a ba f1 6a a6 ba 2c a6 9a 3b 5d 9a a5 3b
       -0.0010582842 -0.0012696666 0.0047195163 0.005053802
000010 c6 f1 43 b9 fc 17 d7 bb 34 a9 11 3a 37 f1 d7 b9
       -0.00018686717 -0.0065641385 0.0005556524 -0.00041187715
000020 c3 91 89 3b 04 d7 21 3b 9f 27 80 3b 48 61 22 ba
       0.0041982844 0.002469481 0.003910973 -0.00061943056
000030 d1 3a 23 3b 26 74 d9 bb 1e 15 bb 38 b6 69 b6 bb
       0.0024906883 -0.0066361604 8.920788e-05 -0.005566801
000040 4f 3f 03 bc 0b 60 00 bb 04 d2 70 3a 42 e7 8e bb
       -0.008010699 -0.0019588496 0.0009186568 -0.004361064
000050 ed 23 8e 3b f6 4f 85 bc 00 3c 12 bc ef c3 93 bb
       0.004337779 -0.01627348 -0.008925438 -0.004509441
000060 a6 2c 50 3b 59 24 ac 3b 5a 47 89 3b 73 84 6c 3b
       0.0031764894 0.0052533564 0.004189414 0.0036089688
000070 92 a5 f4 ba fe 3e 1a bb 7e f6 01 bc aa 5d 9a 3b
       -0.0018665066 -0.0023536081 -0.0079323035 0.0047108727
000080 53 6d cc 3b 6c 43 cf 3b 1b 8c 88 bb 82 97 89 3b
       0.0062386184 0.006325176 -0.0041670925 0.0041989693
000090 d1 b5 94 bb ad f4 ab 39 3f be 5c bc 99 65 c8 3a
       -0.0045382758 0.0003279796 -0.013473093 0.0015289068
0000a0 cf 39 54 bb 21 c3 48 3a 32 d3 1e bc dd 99 97 3b
       -0.003238309 0.0007658471 -0.009693908 0.004626496
0000b0 59 88 d2 ba cf b2 ac bb 03 4d 1c bb 1d 09 16 bb
       -0.0016062363 -0.005270339 -0.0023849613 -0.0022893616
0000c0 47 f2 75 3b f8 81 e8 3b f4 14 63 b9 01 ee 11 3b
       0.0037528442 0.0070955716 -0.00021656213 0.0022267106
0000d0 04 2d 8e bb 0c 20 5a bb 84 9c 13 bc 8f d4 bf ba
       -0.0043388624 -0.0033283262 -0.009009484 -0.0014635491
0000e0 8a 20 05 3b 24 99 a3 39 b1 80 b2 bb f6 43 1b bc
       0.0020313584 0.0003120388 -0.00544747 -0.009476652
0000f0 38 1f 52 bb 33 67 ae 3b 11 a7 64 bb 7a e6 61 3a
       -0.0032062065 0.005322361 -0.0034889618 0.00086174125
000100 60 e6 0c 3b b6 b0 eb bb ce b3 b1 bb d3 53 b7 bb
       0.002149962 -0.0071926964 -0.0054230457 -0.0055947094
000110 7c 95 3a bb be bd f6 3b d0 13 9f 3a 1e 29 3e 3b
       -0.0028470447 0.0075299433 0.0012136642 0.0029016207
000120 cd bc 0c 3b 5f c4 43 ba 1d 55 86 bb b9 bd 49 bb
       0.0021474839 -0.0007467921 -0.0040995018 -0.003078325
000130 5c f4 f8 3a cf 01 8b 3a 4e 0a 56 3b 6a c9 1d bb
       0.0018993723 0.0010605397 0.003265995 -0.002407635
000140 6c 72 06 3c 72 dd f4 3b c0 b2 2d 3b 48 c9 af bb
       0.008205991 0.0074726874 0.0026504248 -0.0053645708
000150 22 b8 77 3b 5e cc 8b 3a 6e c4 cd 3b d8 88 d9 bb
       0.003779896 0.0010665765 0.0062795198 -0.0066386275
000160 ea 24 31 bb 42 68 89 3a 58 a0 8d 3b e9 33 c7 3b
       -0.002703006 0.0010483342 0.004322093 0.006079186
000170 0a 21 a8 3a c7 23 f7 3a 68 c9 5c bb f7 d9 00 bb
       0.0012827229 0.0018855267 -0.0033689383 -0.0019661167
000180 e9 b5 88 bb e5 f3 9b ba a4 c6 90 3b ca c0 37 3a
       -0.004172076 -0.0011898248 0.004418211 0.0007009624
000190 b5 f1 10 3c 9a ba a9 3b 9f f3 cd 3b 52 75 3a bb
       0.00884669 0.0051797153 0.0062851454 -0.0028451276
0001a0 b4 ff 35 3b e0 e3 8c bb 8a ce 23 3b 06 25 5a 3b
       0.002777082 -0.0042996258 0.0024994933 0.0033286228
0001b0 fc a9 6f bc 64 93 39 3c 86 90 ac 3b 1d 6b e0 3b
       -0.01462793 0.011326645 0.005266252 0.0068487064
0001c0 1d ce 93 bb 89 d6 50 3b e4 5a 88 3b 76 9f 48 bb
       -0.0045106546 0.0031866154 0.0041612256 -0.0030612624
0001d0 40 0c 70 3b fd 18 99 bb 41 53 4f 3b ec bd d7 3b
       0.0036628395 -0.0046721683 0.0031635317 0.0065839197
0001e0 42 62 16 3c 25 ab 10 bb b5 1a b3 bb d7 ec 7a bb
       0.0091787 -0.0022074666 -0.00546583 -0.003828814
0001f0 17 99 42 ba fe 1f cf 3b 34 8e 20 bc 48 67 99 bb
       -0.0007423325 0.0063209524 -0.009799529 -0.0046815015

sequential_14/dense_29/MatMul;sequential_14/dense_29/BiasAdd f4 [11]
000000 91 91 04 3f d9 9b 33 bf f4 0d be b9 ec a2 57 3f
       0.51784617 -0.7015968 -0.0003625002 0.84232974
000010 55 4f 31 3e 69 99 85 bf af ea c8 be 29 58 c0 3e
       0.17315419 -1.0437442 -0.3924155 0.3756726
000020 ef b3 9c bf b5 ed 1d bf da 01 1c 3e
       -1.2242411 -0.6169084 0.15235081

sequential_14/batch_normalization_44/batchnorm/mul_1;sequential_14/batch_normalization_44/batchnorm/add_1;sequential_14/dense_29/MatMul;sequential_14/dense_29/BiasAdd f4 [11, 128]
000000 95 74 d1 bd 8d 95 2d 3e f9 f1 a8 3c cd f9 d7 39
       -0.102273144 0.1695158 0.020623194 0.00041194112
000010 05 86 b4 bc 22 1b de bd 7a 74 1d bb de 59 38 be
       -0.022036562 -0.10845019 -0.0024025724 -0.18003032
000020 be 91 0b bc 4e f9 48 be 36 b0 20 be 11 61 c9 3d
       -0.008518634 -0.19626352 -0.15692219 0.09832967
000030 08 8d 1a be 57 76 d5 bd 64 79 ba bd ca d4 d1 bd
       -0.15092862 -0.10422962 -0.09105185 -0.102456644
000040 e2 ed 66 3e 53 75 b3 bc 27 df cf be 01 52 bf bd
       0.22551683 -0.02190653 -0.4059994 -0.09341813
000050 f3 e3 8c bd 7f 95 dd 3d 61 b2 2e 3d 55 4a d9 3d
       -0.06879415 0.1081953 0.042650584 0.10609881
000060 04 7e 63 3e e2 59 82 3d cc b3 cc bd ce 9b 20 be
       0.2221604 0.063648 -0.09995231 -0.15684435
000070 8c 91 04 3e 08 35 55 3e a2 3c 80 3d fe 99 da bd
       0.12946147 0.20821011 0.06261565 -0.10673903
000080 00 b1 a9 3d ab a3 76 3d cd 76 ab be ca 77 ba 3e
       0.08285713 0.06021468 -0.33489075 0.36419517
000090 b6 f6 8e 3d 18 da 0e bd 29 70 15 bd d4 09 40 3e
       0.0698065 -0.03487596 -0.036483917 0.18753749
0000a0 c2 2e 1e be d2 e9 02 3e c9 6d a1 3d 2c 13 2b 3c
       -0.15447524 0.12784508 0.07882268 0.010441583
0000b0 ee 82 9a bd 48 d7 d2 bd ba 69 fe 3d 4d 28 c6 3d
       -0.07544504 -0.10294968 0.124225095 0.096756555
0000c0 ae 0d 81 3e bd d9 f6 bd ec f6 68 be 98 29 f7 bd
       0.2520575 -0.12053249 -0.22750443 -0.1206848
0000d0 d7 31 b4 3d 89 74 bd 3b 5a 19 2e be 80 a3 07 3e
       0.08798569 0.0057817143 -0.17001858 0.13245964
0000e0 c6 af 7c bd f6 b2 83 be ac a8 c8 3d 91 8e 3d be
       -0.061691068 -0.25722474 0.097977966 -0.18511416
0000f0 29 84 3d 3e 63 9f a0 bd 61 a9 21 be db 6d 6a ba
       0.18507446 -0.078429006 -0.15787269 -0.00089427613
000100 8d b2 6e 3d b8 89 b9 bc 65 94 dc 3c 9d d1 74 ba
       0.058275748 -0.022648677 0.026926229 -0.0009339096
000110 e4 18 f1 3c cf c2 4a be 9b ce b3 3d e3 50 9d be
       0.029430814 -0.19800876 0.08779641 -0.30725774
000120 32 98 bb 3d 71 ea 22 be 7d c4 5c bd 08 ad 76 3e
       0.09159888 -0.15909745 -0.053898323 0.24089444
000130 06 35 cb 3d 11 09 45 bd 66 b9 99 3d 26 02 1a be
       0.09922223 -0.04810435 0.07506065 -0.15039882
000140 83 02 96 bd 35 e4 15 be 20 f0 84 bd 47 38 52 3b
       -0.07324698 -0.14637835 -0.06491113 0.0032077
000150 d2 ed 03 3e 05 c6 bd 3c 2d 04 77 3d 77 6d 25 bd
       0.1288369 0.023165712 0.060306717 -0.040387597
000160 89 a4 c6 be e0 b1 e4 3d e6 e5 82 be 97 b0 b0 3d
       -0.38797405 0.111667395 -0.25566024 0.08627432
000170 98 ae 5f 3d 53 3c 4c 3d d2 94 5c 3e 0b 66 0b be
       0.054609865 0.049862217 0.21541145 -0.13613145
000180 76 1e a9 bc 5f a9 ad 3d 1a 17 4f be 75 42 0c be
       -0.020644408 0.084795706 -0.20223656 -0.13697226
000190 f7 18 07 3d 01 b2 86 3c 96 8e 6d 3b 8b cc 16 3e
       0.032982793 0.0164423 0.0036248318 0.14726464
0001a0 a8 0e d8 3d 44 60 c0 3d bd f7 21 3e ec f2 4c 3c
       0.105496705 0.09393361 0.15817161 0.012509089
0001b0 35 2e 10 be 8f 6c df bd e6 fd f7 bd 02 7e 00 3e
       -0.14080127 -0.10909378 -0.12108974 0.12548068
0001c0 26 5d aa bd b1 91 1a 3d 65 b0 7e bd dc fd e7 bd
       -0.08318548 0.0377366 -0.06217994 -0.11327717
0001d0 c2 ad 48 3d c4 7d 31 be 14 71 09 be f8 38 dd bd
       0.048993833 -0.17333132 -0.13422042 -0.108018816
0001e0 24 8d e4 bd 36 d1 60 be 87 93 d6 3d 61 e5 d3 bc
       -0.11159733 -0.21954808 0.10477357 -0.025866212
0001f0 63 e5 bc bc e0 8e 53 3e ce 11 b2 3c 55 0c 72 3e
       -0.023058599 0.20659971 0.021737006 0.23637517
000200 cb 06 01 bd 63 b4 7c bc 8f 3e 08 be 5a 0d 41 be
       -0.03150062 -0.015423867 -0.13305114 -0.1885275
000210 8d 15 c0 3c 85 b4 7d be 9a aa 95 3e f3 f5 60 3e
       0.023447776 -0.24775894 0.2923172 0.21968822
000220 84 51 6c be 96 0f 0e be dd 2e 25 3e cc ad 6f 3b
       -0.2307797 -0.13873133 0.16131158 0.0036572097
000230 6c be 73 be 08 d5 7e be 01 0a 26 3d 72 0e 39 3e
       -0.23803109 -0.24885952 0.040536884 0.18071917
000240 a2 be c4 bd c5 aa 69 3d 08 74 9c 3e f5 07 17 be
       -0.09606673 0.057047624 0.30557275 -0.14749129
000250 37 b8 d6 3d b4 8d 83 be 4b 60 ec bc a7 96 42 bd
       0.10484355 -0.25694048 -0.02885451 -0.047506955
000260 46 96 4d be 6e 21 50 3e 2d ae fa bd c2 9c 09 be
       -0.20076856 0.20325252 -0.12240253 -0.13438705
000270 e5 23 a9 3d ae a7 ed 3d db 50 03 3e 86 d6 38 be
       0.082587995 0.11604248 0.12823813 -0.18050584
000280 db bd cc bd 83 a4 8f 3e 78 ff 83 3d b9 3a 9f be
       -0.099971496 0.280552 0.06445211 -0.3109949
000290 0f f9 1a bc c2 ee 07 3e 77 04 c2 3c 92 67 48 3d
       -0.009458794 0.13274673 0.02368377 0.048926897
0002a0 25 fa 83 3e 0a df a3 3c 9d 14 65 3e f8 eb 36 be
       0.25776783 0.020003814 0.22371145 -0.17863452
0002b0 b3 bc dd 3d c1 cb 5c bd 18 27 5e bd d5 24 3e be
       0.10827007 -0.053905252 -0.0542365 -0.18568738
0002c0 65 5e bb bd 0f 90 2f 3c ab 4b 95 3d d5 a2 94 bd
       -0.09148864 0.010715499 0.07289823 -0.0725762
0002d0 6e 24 ab 3d 56 ab 8a bb c4 92 3e 3e a5 07 48 3e
       0.08356558 -0.0042318506 0.18610674 0.19534166
0002e0 ba b1 6b bc 44 6d 72 be 8d 4f f3 bd 21 6f 27 3e
       -0.014385635 -0.23674494 -0.118804075 0.16350986
0002f0 3e df b7 be c2 7e aa 3e d4 92 48 be 07 81 76 be
       -0.35912508 0.33299834 -0.1958726 -0.24072658
000300 b6 8a b0 3c c5 58 ba 3d 0b e7 77 bd 05 8b b7 3a
       0.021550518 0.09098963 -0.060523074 0.0014003223
000310 b7 46 28 3c 60 10 9e 3c 90 d6 ae bd ce 5b 37 3e
       0.010270766 0.019294918 -0.08537018 0.17906114
000320 64 6f ce 3d c5 8f 6b 3e c1 78 20 bd aa 76 12 3e
       0.1007984 0.23004062 -0.03917766 0.14303079
000330 d6 74 51 3e 97 82 00 be 02 74 3b 3c 27 c9 d7 3d
       0.20454726 -0.12549816 0.011441233 0.10536414
000340 31 e2 3c bc 18 67 2d 3d 18 4b 06 be a6 ce e9 bd
       -0.011528538 0.042334646 -0.13114583 -0.11416368
000350 f5 71 ef bc 4a 63 33 3e 61 ee d2 3b 7f cc 14 be
       -0.029229144 0.17518345 0.0064371084 -0.14531134
000360 b4 5e 14 3e 40 2d 71 3d 3f 12 cc 3e a1 30 80 bd
       0.14489251 0.058881044 0.3985767 -0.06259275
000370 2a 3b 63 be 80 80 82 3e ad e5 b4 bd 56 35 56 3e
       -0.22190538 0.25488663 -0.0883287 0.20918784
000380 5c 6e 4a be 21 15 00 3e 84 75 cf bd f3 a4 4e 3d
       -0.19768661 0.1250806 -0.10129836 0.050450277
000390 fa 19 29 3e 2a 3c 2b 3e 3a 48 69 3e 85 15 07 3e
       0.16513816 0.1672217 0.22781458 0.13191803
0003a0 89 c9 16 be 21 9c a2 bd 8d ff 57 be 09 40 2f 3d
       -0.14725317 -0.079399355 -0.21093579 0.042785678
0003b0 d5 66 0f 3d db 02 20 3d 9c e6 6c 3e e8 a9 78 3e
       0.035010178 0.039065223 0.23134845 0.24283564
0003c0 e6 63 3c 3e 00 f7 9a bd 4f e8 ff bc 34 a4 c3 bd
       0.18397483 -0.07566643 -0.031238703 -0.09552804
0003d0 c2 38 f4 3c e5 27 0e 3e 13 31 16 3e 03 c6 a7 be
       0.02981222 0.13882406 0.14667158 -0.32768258
0003e0 31 d2 8b 3d c6 73 70 bc fe 34 89 bd 06 d7 15 be
       0.068272 -0.01467604 -0.066995606 -0.14632806
0003f0 92 92 77 3e 04 73 a1 be 4f 0e 77 3d f8 e2 70 3e
       0.24177006 -0.31533062 0.06031638 0.23524082

sequential_14/conv1d_28/Conv1D f4 [64, 1, 3, 3]
000000 ce d9 15 3e 0a 03 15 be c6 a7 7a bd f2 8a 0d 3e
       0.14633867 -0.1455194 -0.061195157 0.13822535
000010 db 0e 2f 3e 1b 1e 96 bd fb 1d d1 bd 95 87 16 3d
       0.1709551 -0.07329961 -0.102107964 0.036750395
000020 84 b3 5f bb d4 fc f1 bd 4c ab b0 bd bc 17 b9 bd
       -0.00341341 -0.11815801 -0.08626422 -0.0903773
000030 42 98 1a 3e 0c e9 aa 3d 62 71 25 b9 75 d1 94 3c
       0.15097144 0.083452314 -0.00015777865 0.018166283
000040 88 1e 88 3d 1e 7c 1a be 59 9b 3a bd f9 ef dc bd
       0.066464484 -0.1508641 -0.045558307 -0.10787959
000050 8a 1e e2 bc 63 2d a1 bd ae 7d de 3d dc 34 10 3e
       -0.027602453 -0.07869985 0.10863815 0.14082664
000060 c9 af e7 3d 4d 44 69 3c 39 0a 14 3e fc 53 10 3e
       0.11312825 0.014237476 0.14457025 0.14094537
000070 f9 c2 00 be c0 62 2a be fe 92 32 3e 6b 09 34 3d
       -0.12574376 -0.16639233 0.17438886 0.043954294
000080 a9 00 0c 3e 75 d2 bc 3d 9b a8 1c be fb 9f f9 3d
       0.13672127 0.09219829 -0.15298693 0.12188717
000090 9a 66 13 3d d7 04 7c 3d 69 61 28 3e be d8 d4 3d
       0.03598652 0.061528053 0.16443409 0.10392903
0000a0 36 1d 91 bc 16 2f 47 3d 47 4a 27 3d ce e8 e7 bd
       -0.017714124 0.04862889 0.04084232 -0.11323701
0000b0 a5 bb 1b bd ab 91 02 bc 8b 3f 46 bc 0f 69 19 be
       -0.03802075 -0.0079693 -0.012100111 -0.14981483
0000c0 3f 0e aa 3d 4e 50 04 3e 8f 75 42 3c bd 0b 0b be
       0.083034985 0.12921259 0.011868848 -0.13578697
0000d0 86 13 28 3d 7b 9c 72 3d d6 95 b7 bd 26 59 fe bd
       0.041034244 0.059231263 -0.08964126 -0.124193475
0000e0 e8 12 12 be a9 a7 95 bd c3 d9 00 3e b0 5c e4 3d
       -0.14265025 -0.07307369 0.1258307 0.11150491
0000f0 9c 16 e6 bb 22 ff 02 3e 84 4b 0f 3e 62 e3 d2 bd
       -0.007021738 0.12792638 0.1399365 -0.10297276
000100 b4 d7 5e 3d b2 a3 a4 3d 3a 62 83 3d db 2b 92 bd
       0.05440493 0.08039035 0.064152196 -0.07137271
000110 a7 6b 74 bd b6 fb 81 3d d2 16 28 be 47 f3 24 be
       -0.059672978 0.06346838 -0.16414955 -0.16108428
000120 b4 fc 25 3c 1e c9 fd bc 6b 66 f1 3d 6e 71 df bd
       0.01013105 -0.03097969 0.11787113 -0.10910307
000130 f8 d7 8d bd 67 37 14 3d a1 0a 84 bd e2 29 0f be
       -0.069259584 0.03618565 -0.0644734 -0.13980821
000140 24 31 26 3e c1 ed d9 3b 74 83 af bd 68 d0 8e 3d
       0.16229683 0.006650657 -0.085699946 0.06973344
000150 9c ab c7 3d cb f1 05 3b b7 02 86 bb ad 97 f6 bd
       0.09749529 0.002043831 -0.004089679 -0.120406486
000160 56 c0 7e 3d f4 c5 5c bd f1 e1 d0 3d 9c 02 b5 3d
       0.062195145 -0.05389972 0.10199345 0.08838388
000170 fc c1 d5 bd ed c8 19 3e 9c 32 14 be 24 90 68 bd
       -0.1043739 0.15018053 -0.14472431 -0.05677809
000180 46 06 dd bd f2 23 14 3e cb 9c a1 3d cc 39 e4 bd
       -0.10792212 0.14466837 0.07891234 -0.111438364
000190 95 3b f4 bd 5c e1 77 bd 5a 06 15 be 1a a5 16 bd
       -0.11925427 -0.060517654 -0.14553204 -0.036778547
0001a0 9d d7 27 3c 90 44 80 3d 62 f8 30 3e 62 55 b5 3d
       0.010244277 0.06263077 0.1728225 0.08854176
0001b0 7b 0f fa 3d 0c ea 5c bd fc f7 8b bd 19 32 e4 bd
       0.12209984 -0.053934142 -0.06834409 -0.11142368
0001c0 3f 97 c6 3c 63 b7 2e 3e 34 96 23 3c 14 c0 ea 3d
       0.024242042 0.17062144 0.009984542 0.11462417
0001d0 a0 69 05 3e 0c 70 10 3e 5e b4 e2 bd ef 63 9b 3d
       0.13028574 0.14105242 -0.110695586 0.0758742
0001e0 ab aa d8 3d 74 7b 15 be a8 bc 45 3d 55 d0 27 3e
       0.10579427 -0.14597875 0.04827562 0.16388066
0001f0 19 3a 29 bc 84 1c 4d bd 37 61 eb 3c 13 dd 10 bb
       -0.010328793 -0.050076023 0.02873288 -0.0022104427
000200 ab cd b9 3d 6c 3d 85 bd e6 3a a1 3d 6b cd e1 3d
       0.09072431 -0.06505856 0.07872562 0.110255085
000210 ec 2b 0d be 26 b1 c3 3d ec d1 d7 3d 62 c6 1e 3e
       -0.13786286 0.09555273 0.10538086 0.15505365
000220 49 67 61 3d f4 9f 85 3d e4 b9 14 3e 1f cc 19 3d
       0.05503014 0.06524649 0.14524037 0.03754818
000230 1a 8b b2 3c 01 ea df bd e5 a4 c0 3d d1 7d a8 ba
       0.021794844 -0.109333046 0.09406451 -0.0012854879
000240 46 04 0b be 02 05 18 be 92 6f 75 bd 54 47 bb 3d
       -0.13575849 -0.1484566 -0.059920855 0.09144464
000250 3d bb ee bd 4d c5 89 bd c8 7c d8 3d 25 f5 42 3d
       -0.116568066 -0.06727085 0.10570675 0.04759707
000260 f1 a3 a7 3c 2a ca b4 bc cb 5c 27 3d 1b e7 2d be
       0.020463916 -0.022069056 0.04085998 -0.16982691
000270 d7 af cd 3c 99 3a 98 bd 65 60 7b bd e8 23 1c be
       0.025108261 -0.074330516 -0.061371226 -0.15248072
000280 10 e9 28 be e5 0e 61 bd 2e 08 c3 3d 52 f6 12 3d
       -0.16495156 -0.054945845 0.095230445 0.03587944
000290 30 51 0c 3d 44 38 1d 3e de 0a e3 bd 85 55 22 3e
       0.034257114 0.15353495 -0.11086057 0.15852936
0002a0 35 15 32 bd 3d e7 33 bd 59 12 d2 3c c2 58 4e bd
       -0.043477256 -0.043921698 0.025643514 -0.050377615
0002b0 0b 13 1b 3e 07 42 14 be f7 dd 46 bd bd cd 91 3d
       0.15143983 -0.14478312 -0.048551526 0.071193196
0002c0 f3 74 ea 3d 9e 29 fb bd 2a ab 62 bc 13 0a c7 3d
       0.114480875 -0.12263797 -0.013834754 0.097187184
0002d0 96 b4 fa 3b b3 a1 04 3e a0 e3 0a be d8 96 f7 3a
       0.007650922 0.12952308 -0.13563395 0.001888956
0002e0 27 f1 da 3d 17 33 94 3d b9 c9 00 3b ab ad 85 3d
       0.106905274 0.07236307 0.0019651486 0.06527265
0002f0 b3 09 d8 bb 7e 7b 4b bc 8f c9 ce bd 35 b1 b4 3d
       -0.006592953 -0.01241958 -0.10097038 0.08822862
000300 81 a3 bc 3b e3 96 92 3b fe 39 fb 3c bd cc 1f bd
       0.005756796 0.0044735535 0.030667301 -0.039013613
000310 07 d1 e7 bc 46 27 29 3c e7 3f 64 bd 05 66 95 bd
       -0.028297914 0.010324305 -0.055725005 -0.07294849
000320 a8 2d ed 3d db ff 17 3e d4 b2 e3 bc 9a 27 3c bd
       0.11580974 0.14843695 -0.027795233 -0.045936204
000330 55 69 eb bd 20 4e bc 3d 64 d2 24 bd 0d 36 20 be
       -0.114947 0.09194589 -0.040239707 -0.15645619
000340 2a 9e 2a 3d 87 1c 09 3e b9 9e 2d bd 08 9e f5 3d
       0.041654743 0.13389789 -0.042387698 0.11993033
000350 01 63 c3 bd 00 b2 89 bd f1 be 18 3d 3c 9a 20 3e
       -0.09540368 -0.06723404 0.03729147 0.15683836
000360 04 9e 85 3d c9 56 d3 3d 0b 16 de 3d 5d f0 d6 3d
       0.0652428 0.10319287 0.10844048 0.104950644
000370 3c 2f 47 ba c9 fd 3c 3d b4 cf b0 bd 20 9e 41 bd
       -0.0007598286 0.046140466 -0.08633366 -0.04726994
000380 64 02 d4 3d 4e 5b 5a 3d 6f 41 a0 3d b1 7e fb 3d
       0.103520185 0.05330973 0.078249805 0.12280024
000390 a7 47 af bd 50 4a 97 bd 58 68 00 bc 1d ff 23 3e
       -0.085585885 -0.07387221 -0.0078373775 0.16015287
0003a0 33 10 16 3e 76 44 94 3d d8 c5 02 bc c6 d0 9c 3c
       0.14654617 0.072396204 -0.00798174 0.01914252
0003b0 ec 9e 29 bd 8e e0 1e be 9d b4 22 3e 60 b5 a8 3d
       -0.041411325 -0.15515348 0.15889211 0.082377195
0003c0 5f 30 40 bb b6 d4 8f bc a3 6e 53 bd fe 20 31 3d
       -0.0029325706 -0.017557483 -0.051619183 0.043244354
0003d0 d7 b3 07 3e 36 0c b7 bd 8c 51 a2 3d 1b 15 ae bd
       0.13252197 -0.08937876 0.0792571 -0.08500119
0003e0 c2 a9 2b 3e 9d 3a 92 3d ca fa 93 bd 71 26 0e be
       0.16763976 0.07140086 -0.072255686 -0.13881852
0003f0 41 64 1d 3e a3 8a 04 bd 88 38 a3 bc 6b 73 41 bd
       0.15370275 -0.032358777 -0.019924417 -0.04722921

sequential_14/conv1d_29/Conv1D f4 [128, 1, 3, 64]
000000 8f 39 d8 3d 43 16 ca 3d 3b c9 8f bc ee f7 46 3d
       0.105578534 0.09867527 -0.017552009 0.048576288
000010 99 67 9f bd de 60 9b bd 9c 84 d1 bd 96 6c 01 bc
       -0.077834316 -0.07586835 -0.10230371 -0.007899424
000020 cf 83 d6 bb 25 ba 80 bd 2b ea 35 bd 84 40 13 bd
       -0.0065464745 -0.06285504 -0.044412773 -0.0359502
000030 6e c3 b0 bd 2f 0b 49 3c 70 5d bb bd 58 1c ae bd
       -0.08631025 0.012270733 -0.09148681 -0.085015
000040 98 05 76 3d 6a 8f 58 3d b4 c0 e6 bc b2 f4 3f bd
       0.06006393 0.052871145 -0.02816806 -0.04686422
000050 81 b8 ba 3d f3 12 00 3d ee 25 23 bd 93 53 31 bd
       0.091172226 0.03126807 -0.039831094 -0.043292593
000060 cd 54 29 3d 20 9b b2 3d 69 71 a2 3d db 0e 1d bd
       0.041340638 0.08720994 0.079317875 -0.038344245
000070 94 e4 81 bb eb ac 70 bd 79 f2 98 bd 34 15 21 bd
       -0.003964016 -0.058758657 -0.07468123 -0.03932686
000080 e2 f1 8e 3d 85 5c 9d bd ff df 13 3d 54 a3 54 3d
       0.06979729 -0.07683662 0.03610229 0.051913574
000090 34 93 9c bd ab 01 97 bb 58 c3 3c 3d e1 7c fc bc
       -0.07645264 -0.004608353 0.04608473 -0.030821266
0000a0 80 8c bb bd 82 cb 38 3d c8 55 c0 bb 49 da bf 3d
       -0.091576576 0.045115955 -0.005869601 0.093678065
0000b0 70 c5 26 bd e1 0e ce 3c 09 0c 6e 3d c7 db 37 3c
       -0.040715635 0.02515358 0.058116946 0.011221833
0000c0 fb 23 8d 3d e5 02 b5 3d ef 78 c3 bd 40 1d ca bd
       0.06891628 0.08838443 -0.095445506 -0.0986886
0000d0 07 44 27 3d 69 cf 2c bd 7d 34 f0 bc 6d ba eb bc
       0.04083636 -0.04218999 -0.029321903 -0.028775418
0000e0 28 24 98 bd 9e f0 5e bd d4 11 e2 3c d7 d8 4a 3c
       -0.07428771 -0.05442869 0.027596392 0.0123808
0000f0 e8 f2 1d 3c c7 92 a4 bd 01 c2 7b bd 27 2d 93 bd
       0.009640433 -0.08035808 -0.061464313 -0.071863465
000100 30 44 02 3a 2f bc ce 3d ce 95 ca bd fd ff 29 bc
       0.0004969267 0.10094487 -0.09891854 -0.010375974
000110 1d 65 9c 3d 8e af d4 3c 6a 27 a6 3d 09 0a 9a bd
       0.07636473 0.025962617 0.081129864 -0.07521445
000120 91 74 68 3d 4a d1 a3 3d 61 f7 99 3d 7d f6 a6 bd
       0.05675179 0.07998903 0.07517887 -0.08152483
000130 52 ad 9d bd 9c b4 9d bd a8 99 33 3d b5 df 5d bd
       -0.07699074 -0.07700464 0.04384771 -0.05416842
000140 2a 96 fe 3c ed e8 be bd 68 a4 15 3d 14 3e 03 bc
       0.031077463 -0.09321771 0.036533743 -0.008010406
000150 24 86 87 3c c6 32 8a bc 48 db ae 3d 03 58 ba 3c
       0.016543455 -0.016869914 0.08537918 0.022747045
000160 8c 7f 81 3d 24 50 20 3c 75 93 5f 3d 90 d7 25 bd
       0.06323156 0.009784732 0.054583985 -0.04048878
000170 bb 3c 87 bc 87 52 c5 3b b4 6d cc bd c9 a0 31 bd
       -0.01650845 0.006021801 -0.09981862 -0.043366227
000180 5c a7 ce bd 55 9b c0 3c bc 6a 12 3d 1a 39 98 bd
       -0.10090515 0.023511568 0.03574632 -0.07432766
000190 80 10 dd bc 08 78 12 3d 42 4b ca 3d 73 03 ed 3c
       -0.026985407 0.035759002 0.098776355 0.028932309
0001a0 24 57 63 3c b6 85 31 3d 02 d1 18 bd b0 af bc bd
       0.013875756 0.043340407 -0.0373087 -0.09213197
0001b0 40 8e 20 3d 8c c2 6a bb 7e 63 98 3d 69 cb bf 3d
       0.03919816 -0.0035821525 0.07440852 0.09364969
0001c0 9f d8 ca bc a6 c2 99 3b 96 9e a3 3d 78 b9 8f 3c
       -0.024761496 0.0046923934 0.07989232 0.017544493
0001d0 87 bd bf bd dc 37 e0 3b 42 ec 64 3d 87 31 84 bd
       -0.09362321 0.0068425965 0.055889376 -0.06454759
0001e0 fb 79 76 bb 74 05 92 3d 0c d8 c9 bd f4 eb 98 bd
       -0.0037609327 0.07129946 -0.09855661 -0.074668795
0001f0 b3 7e 9d 3d cb 72 96 bd 30 f2 c1 bc 6e 91 88 bb
       0.076901816 -0.07346114 -0.023675054 -0.004167727
000200 8c 1e 97 3d 55 b5 1d 3d 69 2c 5a 3d 2e 6d 61 3d
       0.07378873 0.03850301 0.05326501 0.055035762
000210 09 e0 46 3d d1 57 aa 3c f1 f3 9c 3d f9 10 80 bd
       0.0485535 0.020793827 0.07663716 -0.06253237
000220 79 ba a6 bd 34 47 17 3d 64 c8 25 3d cd f6 51 bc
       -0.081410356 0.03693314 0.04047431 -0.01281519
000230 6d 29 b8 bd 71 af c7 bc aa 9b 9c bd 36 23 83 bd
       -0.08992276 -0.02437565 -0.07646878 -0.064032
000240 12 3a 16 bc ac 1b b5 bc 62 78 72 3d c7 47 a7 3d
       -0.0091691185 -0.022107922 0.059196837 0.08167987
000250 46 fb 07 3d c1 d3 90 bc a1 ad 0d 3d 79 3a d1 bb
       0.033198617 -0.017679097 0.034589414 -0.0063851443
000260 d6 b3 3e 3d 0d f1 0a 3d ad 8a d6 3b 0d 8b 88 bc
       0.046558224 0.03392129 0.006547293 -0.016667867
000270 bf 7c 22 bd 08 5f 63 bc 1a 72 b8 3d 35 2c 98 3d
       -0.03966975 -0.013877638 0.09006138 0.07430307
000280 7d 52 46 3d ed 86 6a 3d e5 69 c5 3d bc 9b c4 3d
       0.04841851 0.05725758 0.096393384 0.096000165
000290 de 86 74 3d b4 86 3d bd d8 74 90 3d 36 64 c0 b9
       0.059698932 -0.04627104 0.07053536 -0.00036695757
0002a0 e5 18 d6 bb 49 f4 c9 bd de a6 89 bd 26 91 9f bd
       -0.0065337294 -0.09861047 -0.067212805 -0.07791357
0002b0 c4 cc bb bd d8 07 24 3d 61 f1 be 3d a8 46 99 bc
       -0.09169915 0.040046543 0.09323383 -0.01871045
0002c0 b3 9c d1 3c 62 20 ad 3d 3e e4 c2 3d 52 b9 98 3d
       0.025587415 0.08453442 0.0951619 0.07457222
0002d0 2a 60 23 bd 57 b5 c4 bd c0 4b 36 bd e0 0f ac bd
       -0.03988663 -0.096049 -0.044505835 -0.084014654
0002e0 18 e3 9e bd 54 92 4c bd 2e fa fa 3a b3 ba 98 3d
       -0.077581584 -0.049944237 0.0019148046 0.07457485
0002f0 80 f6 fa 3b 02 53 c7 bd 51 b0 be 3d 8f 73 82 3c
       0.0076587796 -0.09732629 0.093109734 0.015924243
000300 46 ec 68 bd 8a cf bf 3d 1d de 4a 3d 28 e1 a9 bd
       -0.056865953 0.09365757 0.04952823 -0.08294898
000310 95 0e a9 3d 36 dc b3 3d 00 af b3 bb 1a 78 b2 3d
       0.082547344 0.08782236 -0.005483508 0.08714314
000320 23 76 df bb 84 ea a5 bd 4a e4 a8 bc b8 45 ee 3c
       -0.006819503 -0.08101371 -0.02061667 0.029085979
000330 a6 54 4b bd 9c ec a3 3d 2a b8 b6 bd 48 6a 42 3d
       -0.049641274 0.08004114 -0.08921845 0.04746464
000340 6f b2 58 bc aa 28 db 3b db d8 a5 3d 17 2b 88 3c
       -0.013226136 0.006688197 0.080980025 0.01662211
000350 cf ae bb 3d 3f 20 2c 3d 6c e9 90 bc 40 c7 ad 3d
       0.091642015 0.04202294 -0.01768943 0.084852695
000360 72 27 a0 3b 80 9c 52 bd 72 ff 6e 3c 3f 4e 46 3d
       0.0048875147 -0.05141878 0.01458727 0.048414465
000370 f6 13 36 bd df d8 3b 3d 94 8f cb 3d 38 92 81 3d
       -0.04445263 0.04586112 0.09939495 0.06326717
000380 fc 2a fa 3c 2b 29 46 3c b3 64 17 bd 00 f5 8b 3a
       0.030538075 0.012094776 -0.03696127 0.0010677874
000390 8a 27 8b 3d 66 e9 f1 3c 8b 30 84 bd ee a2 cd 3c
       0.06794651 0.029530238 -0.06454571 0.025102105
0003a0 68 17 06 bb a0 1c 8f bd 95 06 a5 3c 11 cb a7 bd
       -0.0020460729 -0.06987882 0.02014474 -0.08193029
0003b0 ec 05 9d 3d aa 91 b2 3d 35 b6 77 3d a0 8d 59 bb
       0.07667145 0.087191895 0.0604765 -0.0033195987
0003c0 c8 9e 54 3d c0 65 b2 3d 8c 0e 17 bd f8 e4 c5 3d
       0.051909238 0.087108135 -0.036879107 0.09662813
0003d0 c0 42 84 3d 76 80 9d bd 9f ac 3b bc 7a b9 c3 bd
       0.06458044 -0.076905176 -0.01145473 -0.09556861
0003e0 69 35 9f 3c 05 c0 4f bd ff d1 8a bd e5 04 fe 3c
       0.019434648 -0.050720233 -0.06778335 0.031008193
0003f0 5c 8b a9 3d 60 c7 0e 3d 08 fe 20 bd 81 86 46 bd
       0.08278534 0.034858108 -0.039304763 -0.048468117

sequential_14/batch_normalization_43/batchnorm/sub f4 [128]
000000 f9 93 05 bf 05 eb 19 bf ff 7b 36 bf e6 3a 5b bf
       -0.52178913 -0.60124236 -0.71282953 -0.85636747
000010 11 83 0c bf ea dd 1c bf 86 f2 43 bf 20 03 1d bf
       -0.5488749 -0.61276114 -0.76541936 -0.61332893
000020 72 98 0d bf 08 75 31 bf 9f 72 39 bf fe 24 27 bf
       -0.5531074 -0.693192 -0.7244052 -0.6529082
000030 2d 78 42 bf ef 49 4f bf 2e 6c 21 bf 6c 50 07 bf
       -0.75964624 -0.8097219 -0.63055694 -0.5285709
000040 b9 2c 3e bf 49 c1 27 bf 4b 97 3a bf 4a cb 6c bf
       -0.7428699 -0.65529305 -0.72887105 -0.92497694
000050 2a 54 37 bf af ff 24 bf d5 e6 48 bf ab 00 1a bf
       -0.716128 -0.6445264 -0.7847722 -0.6015727
000060 eb cc 6c bf f9 36 19 bf 95 57 24 bf 21 82 0c bf
       -0.9250018 -0.59849507 -0.6419614 -0.5488606
000070 32 cf 39 bf 85 28 18 bf 33 fc 11 bf fb 33 21 bf
       -0.7258178 -0.5943683 -0.5702545 -0.6296994
000080 9e d1 4b bf 9e 8a 66 bf ed 66 30 bf 62 26 0e bf
       -0.79616725 -0.90055263 -0.6890705 -0.5552732
000090 85 b8 5e bf 81 fd 31 bf 2f ea 06 bf 03 4f 43 bf
       -0.87000304 -0.6952744 -0.52701086 -0.7629244
0000a0 3e b2 05 bf 34 c8 61 bf 85 94 0a bf a0 96 44 bf
       -0.522251 -0.8819611 -0.5413287 -0.76792336
0000b0 b4 f8 2c bf fc a7 0d bf ef 45 3f bf 36 b6 41 bf
       -0.6756699 -0.5533445 -0.74716085 -0.75668657
0000c0 9f f7 1e bf ba 64 06 bf f8 ca 1e bf e0 72 12 bf
       -0.6209659 -0.52497447 -0.62028456 -0.57206535
0000d0 38 a7 60 bf f6 8b 51 bf e4 b4 3c bf 30 83 17 bf
       -0.87755156 -0.8185419 -0.7371352 -0.5918455
0000e0 97 64 5f bf 8f 0e 3c bf d0 59 1b bf 05 a0 2e bf
       -0.8726286 -0.73459715 -0.6068392 -0.6821292
0000f0 37 93 28 bf a4 1a 29 bf 94 16 11 bf 7c 33 19 bf
       -0.6584963 -0.66056275 -0.56675076 -0.59844184
000100 ec 5c 20 bf e6 b5 26 bf 9b c0 08 bf 69 78 3a bf
       -0.6264179 -0.65121305 -0.5341889 -0.7283998
000110 8f 6d 4b bf 8c ad 57 bf 6f 48 08 bf ad 2f 0a bf
       -0.7946405 -0.84249187 -0.53235525 -0.53979
000120 63 46 13 bf d1 03 3d bf 3a 7e 38 bf 8b 9e 13 bf
       -0.57529277 -0.7383395 -0.72067606 -0.5766379
000130 52 a4 31 bf bf 32 06 bf 77 c1 1c bf 7a b8 36 bf
       -0.6939136 -0.5242118 -0.61232704 -0.7137524
000140 a4 12 5e bf fc 3b 64 bf 9f 9a 14 bf 44 7f 1f bf
       -0.86747193 -0.8915403 -0.58048433 -0.62303567
000150 6a a3 19 bf b0 fd 1f bf 74 2c 13 bf bd ef 2c bf
       -0.60014975 -0.6249647 -0.57489705 -0.6755331
000160 66 06 f8 be 39 40 35 bf 77 4e 45 bf 3a 3d 43 bf
       -0.48442382 -0.7080112 -0.7707285 -0.762653
000170 62 55 37 bf 0d 1e 4e bf 7b d4 60 bf ac 45 49 bf
       -0.7161466 -0.80514604 -0.8782422 -0.78621936
000180 91 d6 41 bf 41 34 10 bf b6 6a 25 bf 15 c8 1d bf
       -0.7571803 -0.56329733 -0.6461595 -0.61633426
000190 3c 93 39 bf 38 73 40 bf b8 c3 07 bf ea 09 29 bf
       -0.72490287 -0.7517581 -0.5303302 -0.6603075
0001a0 61 84 25 bf 26 69 15 bf bf 8e 24 bf 64 2a 76 bf
       -0.6465512 -0.5836357 -0.64280313 -0.9615843
0001b0 db d4 0b bf d7 c8 15 bf 80 a4 44 bf 62 9e 1e bf
       -0.54621667 -0.5850958 -0.7681351 -0.61960423
0001c0 a0 54 45 bf 61 96 02 bf da 46 42 bf 11 cb 15 bf
       -0.7708225 -0.5101071 -0.7588936 -0.5851298
0001d0 d9 a9 6e bf 27 4d 48 bf 39 85 4d bf 5d 7b 2c bf
       -0.93227917 -0.78242725 -0.80281407 -0.6737574
0001e0 be 59 6e bf 3e 38 1b bf f7 13 21 bf 2b 01 2a bf
       -0.93105686 -0.60632694 -0.6292109 -0.6640803
0001f0 ed 21 47 bf 9d f6 4f bf 53 20 1b bf 76 da f5 be
       -0.7778614 -0.81235677 -0.605962 -0.48018235

sequential_14/batch_normalization_43/batchnorm/mul f4 [128]
000000 6a 60 2f 40 3b 5a 0f 40 98 a6 38 40 6c f3 55 40
       2.7402596 2.2398822 2.885168 3.3429823
000010 13 1d 87 40 b9 63 27 40 1a 9f 85 40 5b 13 f1 3f
       4.222299 2.6154616 4.1756716 1.8834032
000020 4c 83 4f 40 d1 67 3a 40 79 bd 6e 40 76 c9 0a 40
       3.2423887 2.9125865 3.7303145 2.1685462
000030 e0 c4 44 40 18 d8 81 40 7a 61 34 40 bf 2f c8 3f
       3.0745163 4.0576286 2.8184495 1.5639571
000040 e3 8d c7 3f c1 1e 34 40 70 dd 1d 40 05 23 89 40
       1.5590175 2.814377 2.4666405 4.285525
000050 f1 28 85 40 cf 34 00 40 95 3f f6 3f 98 f0 08 40
       4.1612477 2.0032232 1.9238154 2.1396847
000060 f9 54 33 40 3a ec f3 3f 9f 4e 1f 40 24 f0 37 40
       2.8020613 1.9056466 2.4891737 2.874032
000070 30 25 fb 3f 2e bc 06 40 c4 6b b6 40 fc c7 1c 40
       1.9620724 2.1052356 5.700655 2.449706
000080 07 9f 89 40 b7 3d ce 3f 98 52 38 40 c1 c6 14 40
       4.3006625 1.6112584 2.8800411 2.324631
000090 1f 14 16 40 db 54 39 40 52 58 42 40 94 d8 62 40
       2.344978 2.8958042 3.0366406 3.5444689
0000a0 bc 6c 0a 40 40 33 6f 40 29 07 26 40 5a 9f f4 3f
       2.1628866 3.737503 2.594187 1.911113
0000b0 0a ad a5 3f 14 23 d3 3f 0c 98 18 40 bc 07 07 40
       1.2943432 1.649508 2.3842802 2.109847
0000c0 23 17 8e 40 60 d5 38 40 e1 f3 27 40 d8 4f 04 40
       4.4403243 2.8880234 2.6242602 2.0673733
0000d0 2b 18 4e 40 3f 94 5a 40 7d 60 5b 40 50 44 da 3f
       3.220225 3.4152982 3.4277642 1.7052097
0000e0 a9 26 15 40 a8 d7 97 40 58 72 4a 40 06 ca f3 40
       2.3304846 4.745075 3.163229 7.618411
0000f0 e7 97 dd 3f 33 58 8a 40 38 d6 02 40 19 aa 32 40
       1.7311982 4.3232665 2.0443249 2.791632
000100 39 bb c2 3f 52 3a 12 40 19 9e 3a 40 81 a7 0b 40
       1.5213386 2.2848096 2.9158995 2.1820986
000110 f0 bd 1c 40 7a 3b cc 3f 2b cc 34 40 6d 6b 04 40
       2.4490929 1.5955651 2.8249614 2.0690567
000120 9e 20 9a 3f cc b7 83 40 8b 57 e1 3f a3 7c 04 40
       1.2041204 4.116186 1.7604841 2.0701072
000130 e8 cb 33 40 dd b4 4f 40 57 8e 19 40 d8 fe 57 40
       2.8093204 3.245414 2.3993127 3.3749294
000140 1d 77 0a 40 84 7f d6 3f 6d c6 d7 3f 9f 40 2d 40
       2.16352 1.6757665 1.685743 2.7070692
000150 c5 33 5b 40 87 10 18 40 5f 25 4b 40 d3 95 1b 40
       3.4250348 2.3760087 3.174156 2.4310195
000160 de f0 1d 40 22 cd 10 40 2c cb 7c 40 69 ca a8 3f
       2.4678264 2.2625203 3.9499006 1.3186771
000170 09 19 70 40 33 2e b4 3f 06 39 40 40 3d f3 0e 40
       3.751528 1.4076599 3.0034804 2.233596
000180 f5 34 e3 3f eb 97 45 40 b5 71 24 40 b4 3a 43 40
       1.7750536 3.0873973 2.5694401 3.050458
000190 59 b5 ca 3f 34 02 48 40 5e 54 81 40 53 9d 82 40
       1.5836593 3.1251345 4.0415487 4.0817046
0001a0 ca cb 16 40 a8 99 0f 40 3a 39 16 40 8f 89 23 40
       2.3561883 2.2437534 2.3472428 2.555271
0001b0 10 5f ac 40 1f 27 53 40 4b 0a 17 40 af 81 42 40
       5.3866043 3.2992628 2.3600032 3.0391653
0001c0 bd cc 56 40 fd 59 55 40 29 3d 12 40 08 ad 37 40
       3.3562462 3.3336174 2.284983 2.869936
0001d0 eb 27 20 40 a9 58 a6 40 bc e3 fd 3f 06 ee 43 40
       2.5024364 5.198323 1.9835124 3.0614028
0001e0 55 10 51 40 8a 9e a8 3f c5 70 e2 3f aa 05 05 40
       3.2666218 1.3173382 1.7690665 2.0784707
0001f0 52 71 fd 3f ee 55 32 40 7c 0f 4a 40 78 d7 1f 40
       1.9800208 2.7864947 3.157195 2.4975262

sequential_14/batch_normalization_42/batchnorm/sub f4 [64]
000000 83 2d 0b bf 34 ec 10 bf 9d d6 2e bf fb 45 6d bf
       -0.5436632 -0.5661042 -0.68296224 -0.92684907
000010 1b 91 57 bf 6c 0a 0a bf 6e ce 1e bf de 2b 77 bf
       -0.8420579 -0.5392215 -0.62033737 -0.9655131
000020 10 33 87 bf d4 b9 dc be 56 59 f2 be ca 31 25 bf
       -1.0562458 -0.43110526 -0.47333783 -0.645291
000030 17 8c 14 bf 55 3c 71 bf 0c 40 1a bf 74 21 cd be
       -0.5802626 -0.94232684 -0.6025398 -0.40064585
000040 74 b4 69 bf 7e 56 98 bf ba f5 72 bf f2 92 23 bf
       -0.91290975 -1.1901395 -0.949062 -0.63896096
000050 33 30 b8 be d0 79 7b bf 7c 99 95 be 55 2b 21 bf
       -0.35974273 -0.98232746 -0.29218662 -0.62956744
000060 6a 3c 21 bf 58 73 04 bf 9c 10 1a bf 7e 1f 25 bf
       -0.6298281 -0.517385 -0.60181594 -0.6450118
000070 24 6c 67 bf a3 19 06 bf 70 4e e6 be de 67 5a bf
       -0.90399384 -0.5238287 -0.44981718 -0.8531474
000080 4a 3e b5 be e4 e3 4c bf d9 59 2c bf 8e e4 61 bf
       -0.35399085 -0.80035233 -0.67324597 -0.8823937
000090 21 d0 10 bf d6 83 6b bf 58 04 6f bf 9c b2 8b bf
       -0.5656758 -0.9199804 -0.93366003 -1.0913882
0000a0 47 18 22 bf c8 f6 79 bf a4 06 7f bf 46 0d 81 bf
       -0.63318294 -0.97642183 -0.9961951 -1.0082176
0000b0 23 64 56 bf b1 cc 06 bf b5 8d 7e bf 06 8c ce be
       -0.83746547 -0.52656084 -0.9943498 -0.40341204
0000c0 3d 71 1d bf 82 17 c3 be c9 7a a1 bf 21 91 23 bf
       -0.6150091 -0.38103873 -1.2615596 -0.63893324
0000d0 3b 17 3d bf 6d 5c 37 bf ce 69 3e bf 7a f7 1e bf
       -0.7386357 -0.71625406 -0.74380195 -0.6209637
0000e0 06 9f 22 bf ba ff a7 bf 4a bf ff be 5a 09 45 bf
       -0.635239 -1.3124917 -0.4995063 -0.76967394
0000f0 6d 82 7d bf 31 c3 6b bf be 00 c0 be 84 fa 8f bf
       -0.9902714 -0.92094713 -0.37500566 -1.1248326

sequential_14/batch_normalization_42/batchnorm/mul f4 [64]
000000 31 9c 6b 41 af bd 2a 41 bc f2 38 41 e4 d7 d9 40
       14.725633 10.671309 11.559261 6.807604
000010 b8 27 35 41 1a 2c 96 41 12 9e 45 41 68 7e 2b 41
       11.322197 18.771534 12.351091 10.718361
000020 5c 4b d3 40 b2 cb d2 41 ac ac 90 41 29 4c 3f 41
       6.602949 26.34946 18.084312 11.956094
000030 e1 67 46 41 bd 6b cd 40 16 96 04 41 60 a8 4d 41
       12.400361 6.4194016 8.286642 12.853607
000040 b1 f0 1a 41 1e b0 02 41 bb 62 15 41 50 31 26 41
       9.683763 8.167997 9.336604 10.387039
000050 09 9f 8b 41 cd 60 5c 41 77 e9 d1 41 f9 2b 06 41
       17.452654 13.773633 26.238997 8.3857355
000060 6f 27 2c 41 2b 0c 3e 41 02 44 59 41 d4 a4 83 41
       10.759627 11.877971 13.579103 16.455482
000070 e0 28 24 41 90 65 56 41 3f e3 ac 41 8a 58 fc 40
       10.259979 13.399796 21.61096 7.885808
000080 3e ab 93 41 71 e8 c0 40 ed 3b 5b 41 4e 52 2f 41
       18.458614 6.028374 13.70213 10.957594
000090 c9 88 47 41 e7 96 33 41 3a fe f0 40 ac 52 45 41
       12.470895 11.224341 7.5310335 12.332684
0000a0 05 05 5e 41 10 54 0c 41 44 92 4a 41 fc 71 14 41
       13.876225 8.770523 12.660709 9.277828
0000b0 a9 8d 71 41 1b 00 8d 41 8c 71 dc 40 ed 81 65 41
       15.097085 17.625051 6.8888607 14.34422
0000c0 5f 35 f6 40 0e 61 7d 41 29 06 f3 40 79 28 52 41
       7.694015 15.836195 7.594502 13.134881
0000d0 d9 33 d9 40 a4 9e 6f 41 cb 90 11 41 96 99 80 41
       6.787579 14.976231 9.09785 16.074993
0000e0 e7 c7 29 41 0a a6 05 41 b2 72 70 41 31 04 7b 41
       10.611304 8.353037 15.028002 15.688523
0000f0 79 f0 54 41 0b 49 22 41 5d f9 86 41 94 f8 14 41
       13.308709 10.142833 16.87176 9.310688

sequential_14/dense_28/BiasAdd/ReadVariableOp f4 [128]
000000 65 d2 f1 39 06 a6 02 bb a7 9d a7 ba 38 ff 87 bb
       0.00046123858 -0.0019935383 -0.0012788073 -0.0041502975
000010 bb 70 30 3a e0 85 dc 3b 64 72 2b ba 27 83 09 bb
       0.00067306653 0.0067298263 -0.0006540178 -0.0020982714
000020 23 6a 90 3b 6c 75 45 bb e7 ad b8 b9 10 69 55 3b
       0.0044071837 -0.0030129803 -0.00035224782 0.0032563843
000030 f2 05 7c bb 0d 8a de 3b 0c 79 a5 bb 14 cf e4 bb
       -0.0038455692 0.0067913593 -0.0050498303 -0.0069826934
000040 48 0f b3 39 71 17 e2 3a f6 ea f4 bb 92 2c d1 bb
       0.00034152926 0.0017249418 -0.0074742986 -0.006383487
000050 61 2e e9 bb 7c 0a b4 bb d4 5a 8a ba 76 d3 81 3b
       -0.0071161245 -0.005494414 -0.0010555633 0.0039619757
000060 9d c6 d4 bb 3c 9a 9e 3b 6c 93 ac bb 50 48 3a 3b
       -0.006493403 0.0048401635 -0.0052665975 0.002842445
000070 8f 73 f9 ba 68 dc aa bb fb dc e8 bb 04 92 c4 bb
       -0.0019031632 -0.0052142628 -0.007106421 -0.0059988517
000080 36 5f 2d bb 07 85 77 3b 6f 72 df bb fb 23 f2 ba
       -0.0026454455 0.00377685 -0.0068190615 -0.0018473858
000090 42 c6 09 ba 9e 17 b6 3a 10 29 37 3a da e7 2b 3b
       -0.0005255678 0.0013892537 0.0006987015 0.0026230724
0000a0 45 8a a7 bb 36 1b ea bb 41 34 70 bb 0c 93 86 3b
       -0.0051129186 -0.007144357 -0.003665224 0.004106885
0000b0 19 c3 58 bb 1b fc dc bb 42 ac a3 bb 07 da d6 3b
       -0.0033075272 -0.0067439205 -0.0049949 0.0065567526
0000c0 15 4d 9c 3b fa d5 fa bb 61 33 89 3a f1 b9 64 bc
       0.004769931 -0.0076549025 0.0010467583 -0.0139603475
0000d0 c3 8c 2d ba f9 f3 94 bb f9 dc ba bb 11 b8 35 ba
       -0.00066204014 -0.0045456854 -0.0057026115 -0.000693203
0000e0 85 cc a3 bb 85 c7 40 3b 35 fc c4 bb 0a 2f 1e bc
       -0.004998746 0.0029415798 -0.0060115107 -0.00965477
0000f0 21 51 3e 3b ba 2e c6 bb 4e bf 84 ba 21 a6 7f 3a
       0.0029040056 -0.0060480507 -0.0010127814 0.0009752233
000100 ea 08 99 bb 94 7d 29 3b fb d1 b2 bb 1d 5d bf bb
       -0.004670252 0.0025862204 -0.0054571605 -0.0058399574
000110 c6 82 29 bb 1c a7 28 3b 0a c0 4a bb 3a 9d c6 ba
       -0.00258653 0.002573437 -0.0030937218 -0.0015153058
000120 91 a9 6f bb d1 2b 41 3a a2 0c 1e 3c f4 d5 0d bb
       -0.0036569575 0.0007368895 0.009646567 -0.0021642419
000130 09 47 00 bc 25 f6 2d 3a 80 fa f2 3b 87 b6 41 bc
       -0.007829436 0.00066361047 0.007415116 -0.011823303
000140 ef 1b fd bb d0 7f 2c b9 21 7f 39 3b 4b d6 96 3a
       -0.007724277 -0.00016450812 0.0028304534 0.0011507956
000150 92 68 d1 bb b8 81 ec 3a aa 78 94 3b de 77 d9 ba
       -0.0063906396 0.001804403 0.004530986 -0.0016591509
000160 e5 fd a6 bb 9f aa 07 bc df ea 38 38 3c ec 4d 3b
       -0.0050961846 -0.008280425 4.408776e-05 0.0031421324
000170 f0 39 d6 3a 8b 69 02 3c 4c f2 9c bb 3e e0 97 b9
       0.0016344171 0.007959734 -0.004789626 -0.00028968038
000180 71 ba ab 3b aa 18 20 bb 04 82 ec bb 88 e9 02 bb
       0.0052407314 -0.0024428763 -0.0072176475 -0.0019975621
000190 77 65 92 bb b3 ef 93 bb 5d 4f 3f 3a ff 1d 1e bc
       -0.004467662 -0.0045146584 0.0007297898 -0.009650706
0001a0 2e c7 4a bc 1e d8 e6 38 69 3a 2d ba 4f 5e 0b bc
       -0.01237659 0.000110075096 -0.000660813 -0.008506372
0001b0 8f 27 7f bb 08 2e 28 3b dc e1 38 3b 15 c2 83 ba
       -0.003893349 0.0025662202 0.0028210795 -0.0010052348
0001c0 be db 18 3b e1 7d 5f 3b 38 d7 4c 3b 6d 9d 7a 3a
       0.0023324336 0.003410213 0.003125621 0.00095602014
0001d0 2c 55 66 3b e3 99 0b 3a 1b 98 aa bb 90 b8 cf 3b
       0.0035145981 0.000532536 -0.0052061207 0.0063391402
0001e0 a4 81 99 bb 83 74 08 3b 08 32 8c 3b 73 f0 a1 3b
       -0.004684644 0.00208214 0.004278425 0.004941994
0001f0 9c 56 db 3b 24 90 a4 bb 6f ae 11 3b b1 f5 8a bb
       0.0066936743 -0.0050220657 0.0022229215 -0.0042407145

sequential_14/dense_28/MatMul f4 [128, 1408]
000000 20 2e f1 3c e5 5c b5 bc b8 4b ce 3c f9 f1 83 bc
       0.02944094 -0.022139022 0.02518259 -0.016106592
000010 ef 2c be bc 36 96 93 bc 51 16 e1 3b 38 05 29 3d
       -0.023214785 -0.018015962 0.0068691154 0.041264743
000020 2b c5 67 bd 44 96 47 3b b9 36 c6 3c 95 5a 28 bd
       -0.05658452 0.0030454556 0.024196016 -0.04110201
000030 2a 70 4e 39 19 1b 21 3d 69 e0 fe 3c 86 2d 43 bc
       0.00019687475 0.039332483 0.031112866 -0.011912709
000040 a7 eb 3e 3c 74 e1 e3 bb f3 48 4a 3d 91 a1 3a 3c
       0.011652864 -0.0069543663 0.049385976 0.0113910595
000050 a9 34 60 bc 79 f6 49 bd 78 79 7b bd 3a 85 31 bd
       -0.01368443 -0.04930732 -0.06139514 -0.043339945
000060 9b ba eb bc 73 11 60 bd c0 5f 0b 3d c5 00 19 3d
       -0.028775504 -0.05470414 0.03402686 0.03735425
000070 67 95 2c 3d 26 f7 27 3d 47 f0 05 bd 08 76 a1 bc
       0.04213467 0.041007183 -0.03269985 -0.019709602
000080 cd 08 1f bb 97 7c 68 bd f1 a9 76 3c d1 25 43 3d
       -0.002426672 -0.056759443 0.015055166 0.047643486
000090 63 84 e3 3c c4 89 86 bc d2 94 ce bc ed f0 28 3d
       0.027773088 -0.016423114 -0.025217447 0.04124539
0000a0 02 37 4e 3d 98 ce 13 bd df 6d 49 3c ad 8f 10 3c
       0.05034543 -0.036085695 0.012294262 0.0088233175
0000b0 16 30 bb ba 00 fa d7 bc 88 67 d2 bc f3 06 4e bc
       -0.0014281298 -0.026364326 -0.025684133 -0.012574899
0000c0 8d 2c 21 3d 60 86 07 3d 54 51 bc 3c de 9f 48 bb
       0.039349128 0.033087134 0.022987999 -0.0030612866
0000d0 35 3f 15 3d aa c1 bb b9 8b 20 18 bd f4 40 4d bd
       0.036437232 -0.0003581171 -0.03714041 -0.050110772
0000e0 7a 09 19 3d f4 bc b3 3b 4b 64 fe 3c 86 5e ed bc
       0.037362553 0.0054851715 0.031053683 -0.028975736
0000f0 2a 0c 70 bc ad e7 00 bd e1 05 91 bb f1 da e6 bc
       -0.014651338 -0.031470943 -0.0044257496 -0.028180571
000100 5c 1f 5b bc 2d 36 c9 3c 4a 68 c6 3c ac 87 d1 3c
       -0.013374176 0.024561966 0.02421965 0.025577389
000110 92 27 c3 bc 37 b9 29 3d a4 d5 62 bd c1 d9 87 bc
       -0.02382258 0.0414364 -0.055379525 -0.016583325
000120 3c 26 ec bc 63 4c 28 3b ef 3c 38 3c 5d 1f 57 3c
       -0.028826825 0.0025680296 0.011244996 0.013130036
000130 e5 e4 b2 bc f7 d6 6d bd 64 20 eb bc a1 23 aa 3c
       -0.021837661 -0.058066335 -0.028701968 0.020768942
000140 a2 47 f4 3c 7d 4e 4e bc 2e ab ef bc 4a 27 0f bc
       0.029819313 -0.012591955 -0.02925643 -0.008737395
000150 e9 9d 5d bd c2 3a 11 bd b5 fd 66 3d 54 41 b9 3c
       -0.054105673 -0.035456426 0.056394298 0.022614159
000160 ec bf 04 3b 3f 2e 3e bd f8 f7 19 bc 7b a0 41 bd
       0.0020255996 -0.046430822 -0.009397499 -0.047272187
000170 84 11 08 3b 08 66 3d bc 5b 2b 2d bb 94 27 a0 bc
       0.0020762393 -0.011559971 -0.0026423547 -0.019550122
000180 94 b8 2a bd 10 1e 43 3d 91 15 a7 3c 15 91 dc bb
       -0.041679934 0.04763609 0.020396026 -0.0067311623
000190 3f bf 00 bd b5 21 0e bd 87 e7 6d 3d 23 17 2a 3d
       -0.031432386 -0.034700114 0.05808213 0.04152597
0001a0 b0 74 27 3c e6 d2 05 bd a2 43 5f bc 00 ce a9 b9
       0.010220692 -0.03267183 -0.013626965 -0.00032387674
0001b0 80 62 ff bc 3c 79 21 bb 52 59 8d ba fd d6 e3 39
       -0.031174898 -0.0024638912 -0.0010784066 0.00043456993
0001c0 07 4c 0c 3d ce ff 20 bd bd 14 cf 3c 98 d9 b6 bc
       0.034252193 -0.039306454 0.025278443 -0.022320554
0001d0 26 c9 16 bd 10 b7 9b bc 73 6f be 3c 8a b7 32 bd
       -0.036812924 -0.01900819 0.023246503 -0.043632068
0001e0 2d d3 71 3d b5 da d0 3c 13 66 75 bd 17 57 cd bc
       0.059039284 0.025494913 -0.0599118 -0.025065942
0001f0 1e ba 3b bc c7 65 0b bd 18 e6 3d 3c c0 86 6a bd
       -0.011457948 -0.03403261 0.011590503 -0.057257414
000200 a6 49 ea bc 25 fb fa 3a ee fe fc 3c 89 cb 05 3d
       -0.028599571 0.0019148333 0.030883279 0.03266481
000210 bf ca ce bb 81 d9 60 3c 52 f6 02 3d 8d 53 63 3c
       -0.0063107903 0.013723732 0.03197319 0.0138749005
000220 7f 63 13 bd e9 1b 2b bd 32 b7 b8 3b 15 90 ca 3c
       -0.03598356 -0.041774664 0.005637073 0.024726907
000230 90 fd 02 3d 42 47 f0 3c 6f 13 05 bd 13 54 cb bc
       0.031980097 0.029330853 -0.032489236 -0.024820363
000240 56 3e 73 bc 93 fb 17 bc 52 a3 59 bd 4b ac 7d 3c
       -0.014846405 -0.009276289 -0.05313427 0.015482972
000250 15 7f 5d bb 5d ac 10 3b 45 b8 87 bb e4 6a 2a bd
       -0.003379767 0.0022075393 -0.0041418397 -0.041605845
000260 3b 70 3c 3c 62 ac 27 3b 23 d6 b7 bc 26 09 4a 3d
       0.011501367 0.0025584926 -0.022440976 0.04932513
000270 4d 2c 09 bd 13 99 2d bd 61 66 00 bd 16 52 57 3b
       -0.033489514 -0.04238231 -0.031347636 0.0032855324
000280 9a c8 5c bd 28 67 11 b9 40 68 8e 3c 97 74 47 bd
       -0.053902246 -0.00013866706 0.017383695 -0.048695173
000290 3c a0 aa bc fb 20 9e 3c 8a ba 77 bc 3f 09 f0 bc
       -0.020828359 0.019302836 -0.015120158 -0.029301284
0002a0 d0 90 9c 3c 6a bf 8a bb 5c 01 94 bc 93 7b b4 3c
       0.01911202 -0.004234244 -0.018067054 0.022031581
0002b0 99 e4 3c 3d 2a 5e 8a 3c ef 7e 5f 3d ae af ed 3c
       0.046116445 0.016890604 0.054564413 0.029014435
0002c0 38 57 24 bd bb a1 15 bd ed a4 59 3c 77 d8 4a bd
       -0.04012224 -0.03653119 0.01328395 -0.049522843
0002d0 c2 d9 2a 3c de 28 ea 3c d8 56 0f 3d 4d 13 f4 bc
       0.010427894 0.02858394 0.03499493 -0.02979436
0002e0 1a f6 b7 3c 6c 0d a6 bb d1 b2 85 bd 68 e8 46 bc
       0.022456218 -0.005067518 -0.06528247 -0.012140371
0002f0 b3 e2 0f 3d 80 16 81 ba b4 55 66 bd a1 0c de 3c
       0.035128307 -0.0009848624 -0.056234077 0.027105631
000300 d5 7d 0e 3d 21 18 09 bb 53 0d 8c bc b2 8c e2 3b
       0.03478797 -0.0020918923 -0.017096197 0.006913745
000310 95 8f 81 3d 28 b6 0f bb b5 84 df bc eb 87 36 3d
       0.06326214 -0.0021928642 -0.02728496 0.044563215
000320 5b 71 c5 3b 9b ad 89 bd d9 5b 65 bd 70 5a c5 3b
       0.006025476 -0.06722566 -0.055995796 0.006022744
000330 74 34 02 bd 29 12 85 bc ea e2 6d 3a fa f1 24 bd
       -0.031788304 -0.016244011 0.00090746453 -0.04026983
000340 47 fa ce bb 29 93 4e 39 52 fa 8d bc 28 2a 5c 3d
       -0.0063164565 0.00019700512 -0.017331276 0.05375114
000350 a7 a2 32 bd 8d d0 03 3d 75 f3 d2 bc 99 96 e7 bb
       -0.04361215 0.03218131 -0.025750855 -0.007067513
000360 21 15 86 3a bb da f0 bc c0 a7 d9 3c 99 d1 83 bd
       0.0010229686 -0.029401174 0.026569247 -0.06436462
000370 a3 9b 7e bd a7 65 10 bd 73 80 c0 bb 2e cc 42 3d
       -0.062160145 -0.035253193 -0.0058746873 0.047558002
000380 51 7f 25 bd 07 89 f8 bc 11 f8 0d bb b1 3e e2 bc
       -0.04040462 -0.030338777 -0.0021662752 -0.027617784
000390 c8 6d 90 bc 26 c5 29 bd be 5e 30 3d b4 ca 88 bd
       -0.017630473 -0.04144778 0.043059103 -0.066792876
0003a0 23 cb c9 bc 34 0c 54 bd 89 ce e2 bc 47 b4 02 3d
       -0.024632996 -0.05176945 -0.027686374 0.031910207
0003b0 9d c6 db 3c 4b 88 39 bc a3 b2 19 3d 7b be 34 3c
       0.026828105 -0.011323999 0.037523877 0.011031742
0003c0 c5 e8 03 bc 29 cc 31 bd 01 d5 fd 3b 0d 95 fc bc
       -0.008051102 -0.043407593 0.0077463393 -0.030832792
0003d0 5f f9 dd bc f5 bd 33 3d 75 e4 65 3d c6 f4 61 bd
       -0.027096448 0.04388233 0.056126077 -0.055165075
0003e0 76 78 2b 3d 05 a8 f2 3c e7 00 10 3d de f7 91 ba
       0.041862927 0.029621134 0.03515711 -0.0011136492
0003f0 82 81 46 3c 9c 8e 59 bd a1 a1 2f 3d 61 d6 af bc
       0.012115838 -0.05311452 0.04287875 -0.021464529
