app/src/main/assets/respeck_1_staticDynamic_50epochs_50-45windowsize_1layers_3ks.tflite (tflite, 796420 bytes, 8 tensors)

sequential_6/conv1d_6/BiasAdd/ReadVariableOp f4 [64]
0	0xbce7f6e8	-0.028315976
1	0x3baf0eb3	0.0053423285
2	0x3c369c8f	0.011145725
3	0xbaee0d2b	-0.0018161883
4	0x3c890453	0.016725695
5	0xbc6f91c6	-0.014622157
6	0xbbb93d8a	-0.005653088
7	0xbc811948	-0.015759125
8	0xbc1d4264	-0.009598348
9	0x3ad8e036	0.0016546312
10	0xbcc357e1	-0.023845615
11	0xbbc5cdc8	-0.006036494
12	0xbd144c4c	-0.036205575
13	0x3c2a3592	0.010388749
14	0xbbe38396	-0.0069431765
15	0xbbf931b0	-0.0076048
16	0x395de8cb	0.00021162925
17	0xbd36de48	-0.044645578
18	0xbc8d420c	-0.017243408
19	0xbb5b17ad	-0.003343086
20	0xbcd63016	-0.026145976
21	0xb9dbc5ed	-0.000419184
22	0xbc6c4ca0	-0.014422566
23	0xbc442d90	-0.011973754
24	0xba80f99c	-0.0009840014
25	0xba0ee2f1	-0.0005450687
26	0xbb569f92	-0.003274892
27	0xbbc5ec50	-0.0060401335
28	0x3ba2cc41	0.0049681966
29	0x3c9215f5	0.017832736
30	0xbc5ee053	-0.013603288
31	0xbcc22862	-0.023700897
32	0x3c265751	0.010152654
33	0xbc18093d	-0.009279546
34	0x3bc9833e	0.0061496785
35	0x3cbe9bd9	0.023267673
36	0x3b194300	0.0023385882
37	0x3b65f3e6	0.0035088002
38	0x3bd84575	0.006600077
39	0x3b02413c	0.0019875308
40	0x3ba0f6df	0.004912242
41	0x3bb2324f	0.005438126
42	0xbbbdb73e	-0.0057896664
43	0xbc969bc3	-0.01838482
44	0x3aef4e15	0.0018257523
45	0xbbc97205	-0.0061476254
46	0xbc973b89	-0.018461006
47	0x3d00b8ca	0.03142623
48	0xbc8b8ed1	-0.017035874
49	0xbaaf984a	-0.0013396826
50	0xbcbd09b1	-0.02307591
51	0x3c166f19	0.009181761
52	0x3c4f43f2	0.012650477
53	0xbc69f1c1	-0.01427883
54	0xbc059f39	-0.008155637
55	0xbbeabfaa	-0.0071639614
56	0xbc84d9c9	-0.01621713
57	0x3be4cc69	0.0069823754
58	0xbb9d4d1b	-0.0048004515
59	0xbcea5a26	-0.02860744
60	0xbcad6724	-0.021167345
61	0x3c12c0ba	0.008957082
62	0xbca686c3	-0.020327931
63	0xbc8079fb	-0.015683165

sequential_6/dense_13/MatMul;sequential_6/dense_13/BiasAdd f4 [2]
0	0x40122b17	2.28388
1	0xbeae422e	-0.34034866

sequential_6/batch_normalization_13/batchnorm/mul_1;sequential_6/batch_normalization_13/batchnorm/add_1;sequential_6/dense_13/MatMul;sequential_6/dense_13/BiasAdd f4 [2, 128]
0	0xbddc5551	-0.1075846
1	0x3e8c683f	0.27423283
2	0x3dd931ae	0.10605179
3	0xbec47337	-0.38369152
4	0x3ded1ab0	0.11577356
5	0x3e0f6ed0	0.14007115
6	0x3e1a80a2	0.15088132
7	0x3d65a5a4	0.05606617
8	0xbd569fdc	-0.052398548
9	0x3e42b1ec	0.19013184
10	0xbe9e7622	-0.30949503
11	0xbe22644d	-0.15858574
12	0xbe136ff3	-0.14398174
13	0xbc9db378	-0.019250616
14	0xbe1846c5	-0.14870746
15	0xbe1719c9	-0.1475593
16	0xbdf80b23	-0.12111499
17	0xbd6d972a	-0.05800549
18	0x3de5e5d2	0.11225475
19	0x3e1e65bb	0.15468495
20	0xbe8a7c1c	-0.27047813
21	0x3e0d172a	0.13778368
22	0xbd9f7b19	-0.07787151
23	0xbf1124f0	-0.5669699
24	0xbe0ed2ee	-0.13947651
25	0xbe4d1ef1	-0.20031334
26	0x3e0695d3	0.13143091
27	0x3e14b4b5	0.1452206
28	0xbe2f90b0	-0.17145038
29	0xbea59130	-0.32337332
30	0x3da49f99	0.08038253
31	0xbefec3d9	-0.49758795
32	0xbeb1bd14	-0.34714568
33	0xbe93104e	-0.28723377
34	0x3c7561d0	0.014976934
35	0xbd3bf635	-0.0458891
36	0x3e8eade6	0.2786705
37	0xbe5e1637	-0.21688162
38	0x3e5b0f5a	0.21392575
39	0xbe3be22d	-0.18347998
40	0xbe97e41e	-0.29666227
41	0x3de59dad	0.11211715
42	0xbd9069d0	-0.07051432
43	0x3e204ad5	0.15653546
44	0x3e1e8c13	0.15483122
45	0x3e4890e0	0.19586515
46	0xbe3ff84f	-0.18747066
47	0x3ddfbe09	0.10924918
48	0xbde72f43	-0.11288311
49	0xbe197483	-0.14985852
50	0xbe8df09c	-0.27722633
51	0xbdc678f2	-0.09691037
52	0x3d8a10de	0.067414984
53	0xbe46562c	-0.1936881
54	0xbdec333b	-0.11533209
55	0xbe46fbe7	-0.1943203
56	0xbd091f10	-0.03347689
57	0xbe928b05	-0.28621688
58	0xbd9f7fe8	-0.07788068
59	0xbe002464	-0.12513882
60	0xbd9c9f06	-0.07647519
61	0xbe320e06	-0.17388162
62	0xbe6b76c9	-0.22994532
63	0xbe2ff9d5	-0.17185147
64	0x3de443e6	0.11145763
65	0xbddf2759	-0.10896177
66	0xbddac6f3	-0.10682478
67	0xbd707a9f	-0.05871069
68	0xbe32de04	-0.17467505
69	0xbd72a210	-0.059236586
70	0x3dfd3739	0.123640485
71	0xbde77f85	-0.11303619
72	0x3d9ffaa8	0.07811481
73	0x3e8a7422	0.27041727
74	0x3e6ba476	0.23011956
75	0x3e050fc8	0.12994301
76	0x3d614c8f	0.055004653
77	0xbe1acc1e	-0.15116927
78	0x3d995e50	0.07488692
79	0xbe0353ed	-0.12824984
80	0x3d4d2420	0.05008328
81	0x3e5d2e16	0.21599612
82	0x3ebcea65	0.3689758
83	0xbe1c0bf2	-0.15238932
84	0xbda7ad8f	-0.081874005
85	0xbdc82217	-0.09772127
86	0x3d50890c	0.050911948
87	0xbe0bb02c	-0.13641423
88	0xbe894681	-0.26811603
89	0xbe928577	-0.2861745
90	0xbe4bc778	-0.1990031
91	0x3d89dac5	0.0673118
92	0x3f4da37a	0.8032757
93	0xbeb94738	-0.36187148
94	0x3dc6428c	0.096806616
95	0xbe5c6d7f	-0.21526144
96	0xbe2cfc46	-0.1689311
97	0xbdc2e033	-0.09515419
98	0xbec1d49e	-0.37857527
99	0x3deb0de0	0.11477256
100	0xbe27aded	-0.16374941
101	0x3e19ad41	0.15007497
102	0xbcbe2e8f	-0.02321556
103	0x3c342f9a	0.010997677
104	0xbe2bd130	-0.16779017
105	0x3e00ba9d	0.12571187
106	0xbdd960de	-0.10614179
107	0xbe3608fd	-0.17776866
108	0x3d054680	0.032537937
109	0x3cdb7537	0.02678929
110	0x3d8b087d	0.067887284
111	0xbde5a7c8	-0.11213642
112	0x3e765c44	0.24058634
113	0x3d97b3b3	0.07407322
114	0xbe9293fa	-0.28628522
115	0x3da61484	0.08109382
116	0x3d3e2633	0.04642315
117	0x3e0b63b2	0.1361225
118	0xbbcaa09c	-0.006183697
119	0xbe9b1e47	-0.30296537
120	0xbdc78ffb	-0.09744259
121	0x3d77efb7	0.060531344
122	0x3e1111be	0.14166924
123	0xbc99d00e	-0.018775966
124	0xbf15f6a4	-0.5857947
125	0xbc122f50	-0.008922413
126	0x3e4c13f5	0.19929488
127	0x3d9517c5	0.07279924
128	0x3e1c1e94	0.1524604
129	0x3ecf3663	0.4047118
130	0xbda02a35	-0.0782055
131	0xbda10bbf	-0.078635685
132	0x3c4eaeb4	0.012614895
133	0xbd9bd9f2	-0.07609929
134	0xbcb368d5	-0.021900574
135	0x3e55caf6	0.20878205
136	0x3d711914	0.058861807
137	0x3d83b6e0	0.06431365
138	0x3e061259	0.13092937
139	0xbd118452	-0.03552658
140	0x3e15409c	0.14575428
141	0x3e787cb4	0.2426632
142	0x3dc8a364	0.09796789
143	0x3d51fd5a	0.051267006
144	0x3e2e3870	0.17013717
145	0xbe485f73	-0.19567661
146	0xbdaa853e	-0.08326195
147	0x3c53615e	0.012901632
148	0x3e4363b9	0.1908101
149	0x3d04e3df	0.032443877
150	0x3e35bf73	0.17748813
151	0xbebff072	-0.37488133
152	0x3d8220a2	0.063538805
153	0xbe983b7e	-0.2973289
154	0xbe203d01	-0.15648271
155	0xbde89c10	-0.113578916
156	0xbebd8f40	-0.37023354
157	0x3e0770ba	0.13226596
158	0xbe1ac45f	-0.15113972
159	0xbe908338	-0.28225112
160	0xbddde5ea	-0.10834868
161	0xbe23aa08	-0.1598283
162	0xbe226d56	-0.15862021
163	0xbdaf6afd	-0.08565328
164	0x3eff53f5	0.49868742
165	0x3e493d72	0.19652346
166	0x3e0db90d	0.13840123
167	0x3d8d4b7b	0.068991624
168	0xbe083e5a	-0.13305035
169	0x3ed94246	0.42433375
170	0xbe188385	-0.1489392
171	0x3d0e5c8d	0.034756232
172	0xbcb88c49	-0.02252783
173	0x3d4491f9	0.047990773
174	0x3da9ca04	0.082904845
175	0xbdcc93d7	-0.09989136
176	0x3e3900bf	0.18066691
177	0xbd12c553	-0.035832714
178	0xbeb17b6b	-0.34664473
179	0x3e026b9a	0.12736359
180	0xbe0a2a62	-0.1349273
181	0xbed2446a	-0.4106782
182	0x3e61541d	0.22004743
183	0x3e8bb288	0.27284646
184	0xbe3de6ce	-0.18545076
185	0xbcb7c060	-0.022430599
186	0xbe288da3	-0.1646028
187	0x3c728a8e	0.014803542
188	0xbe829c36	-0.25509804
189	0x3b4f44ac	0.0031626625
190	0xbd8cd558	-0.068766296
191	0x3d93eed9	0.07223291
192	0xbd812bb3	-0.06307163
193	0x3d0c4aef	0.03425115
194	0xbe4faa5a	-0.20279828
195	0x3cd2b7fb	0.025722494
196	0xbcdcf0e8	-0.026970342
197	0xbe70a160	-0.2349906
198	0xbd7cd12f	-0.06172293
199	0x3d1729c9	0.036905084
200	0xbd82ddce	-0.06389962
201	0x3e51b2cc	0.20478362
202	0x3d6bd8db	0.057579856
203	0xbdb1ab0e	-0.08675204
204	0xbe085c84	-0.13316542
205	0x3e67ab07	0.22623836
206	0xbd93e89f	-0.07222103
207	0x3e604cbc	0.21904272
208	0xbdb0c63d	-0.08631561
209	0x3d93ba11	0.07213224
210	0x3f158acd	0.5841492
211	0x3e9cc64b	0.30620036
212	0xbe36647c	-0.17811769
213	0x3e135fc8	0.14392006
214	0xbd1d8e85	-0.038465995
215	0x3d84a569	0.06476862
216	0xbe1199af	-0.14218782
217	0xbeade812	-0.33966118
218	0xbd91cf97	-0.07119673
219	0xbe3abcf3	-0.18236141
220	0x3f1aea0d	0.60513383
221	0x3d6e09f8	0.058114976
222	0xbd46cc61	-0.048534755
223	0x3de1e806	0.11030583
224	0x3d6af339	0.05736086
225	0xbe4f8247	-0.2026454
226	0xbe7b4a66	-0.245401
227	0x3d8a5bfb	0.06755825
228	0x3d4dda6a	0.050257124
229	0xbd1d0b9b	-0.038341146
230	0x3db82b4a	0.08992632
231	0x3e9294d2	0.28629166
232	0x3d05683f	0.03257012
233	0xbdc18151	-0.09448493
234	0x3e6a2fc1	0.22869779
235	0xbe83f35b	-0.25771603
236	0x3e4a2a33	0.1974266
237	0x3e72613f	0.23669909
238	0xbe14d5a0	-0.14534616
239	0x3d03edb0	0.0322091
240	0x3e14a94e	0.1451771
241	0x3e8a4eb7	0.2701318
242	0xbd879a0c	-0.06621179
243	0xbe2179cc	-0.15769118
244	0x3e3230f7	0.17401491
245	0x3ecbdb52	0.39815766
246	0x3e967b61	0.29391006
247	0x3dd96b50	0.10616171
248	0x3e42bfdf	0.19018506
249	0xbe3439a5	-0.17600115
250	0xbdd3619c	-0.10321352
251	0xbda68f73	-0.081328295
252	0xbec8f7a0	-0.39251423
253	0xbddf199b	-0.10893556
254	0x3d41f7c3	0.047355425
255	0xbde2b269	-0.11069185

sequential_6/conv1d_6/Conv1D f4 [64, 1, 3, 3]
0	0x3e127441	0.1430216
1	0x3e071ba8	0.13194144
2	0xbe0a3edd	-0.13500543
3	0x3de9ba74	0.11412516
4	0x3cb8b802	0.02254868
5	0xbd5277b9	-0.051383708
6	0xbe14c945	-0.14529903
7	0xbd6fce8f	-0.0585466
8	0x3d94ff59	0.07275266
9	0x3dccaccf	0.09993898
10	0xbdd6645c	-0.10468361
11	0x3dcc3663	0.09971311
12	0x3df614c8	0.120156825
13	0xbdb1fcf9	-0.08690829
14	0x3d9d8117	0.076906376
15	0xbcfe0e24	-0.031012602
16	0x3e24caa3	0.16092925
17	0xbe2287a7	-0.1587206
18	0xbdda888f	-0.10670578
19	0xbdd0571e	-0.10172866
20	0xbe16871d	-0.14699979
21	0x3d054444	0.032535806
22	0xbe15fa70	-0.14646316
23	0x3e2aa538	0.16664588
24	0x3d9690f6	0.07351868
25	0xbd83b595	-0.064311184
26	0x3dc99d7f	0.09844493
27	0x3c829109	0.015938299
28	0xbde3cf37	-0.111235075
29	0x3e317180	0.17328453
30	0x3d2e1b95	0.042506773
31	0xbd08ed7f	-0.03342962
32	0xbe11ca10	-0.14237237
33	0x3d797c8f	0.060909804
34	0x3e1518da	0.14560261
35	0xbdf3e7ed	-0.11909471
36	0xbdf0330f	-0.11728489
37	0x3e1e4b81	0.1545849
38	0xbdff7ced	-0.124749996
39	0x3d2d84ff	0.042363163
40	0xbd8c9b75	-0.068655886
41	0x3d7ffa17	0.062494364
42	0x3d99a963	0.07503011
43	0xbd89fbc1	-0.06737471
44	0x3d8438f2	0.06456174
45	0xbd752339	-0.059848044
46	0x3de67fe7	0.11254864
47	0x3d0fe380	0.03512907
48	0x3dd3210a	0.10309036
49	0x3de4a5ea	0.11164458
50	0xbae1dcc2	-0.0017231929
51	0x3a886c28	0.001040821
52	0x3e1f015d	0.15527864
53	0x3e17e092	0.1483176
54	0xbdc637a3	-0.096785806
55	0x3d0201eb	0.03174011
56	0x3d969713	0.07353034
57	0x3c5e4486	0.013566142
58	0xbd5122dc	-0.051058635
59	0xbe128903	-0.14310078
60	0x3e0ce031	0.13757397
61	0x3e1a353e	0.15059373
62	0xbdc05ef2	-0.093931094
63	0x3ae0b486	0.0017143644
64	0x3d5dd8f8	0.054161996
65	0x3d2efa86	0.042719387
66	0x3e0efba9	0.13963188
67	0xbc686053	-0.014183122
68	0x3d501bdd	0.050807822
69	0xbca7dc22	-0.02049071
70	0xbe0289df	-0.12747906
71	0x3d14db27	0.036341812
72	0x3e02d864	0.12777859
73	0x3bad3264	0.005285548
74	0xbde8253d	-0.11335228
75	0xbe330fe5	-0.17486532
76	0xbd852208	-0.065006316
77	0x3ba555e5	0.00504564
78	0x3d54dd7d	0.05196904
79	0xbd6363ed	-0.05551522
80	0x3c9b4e8b	0.01895835
81	0x3e2d4860	0.1692214
82	0x3cbc8e65	0.023017118
83	0x3da615ea	0.081096485
84	0xbdca3ab6	-0.098744795
85	0x3d17d2dc	0.037066326
86	0x3dfb31b0	0.122653365
87	0xbd8ffa72	-0.070301905
88	0xbdf252f1	-0.11832226
89	0xbc902ca4	-0.017599411
90	0x3dacc825	0.08436612
91	0x3da3b276	0.07993023
92	0xbd9ddd75	-0.07708255
93	0xbc431dc2	-0.01190895
94	0x3d8ca5ce	0.06867562
95	0xbbb35925	-0.0054732733
96	0xbd06961d	-0.032858003
97	0x3d601056	0.05470308
98	0x3da30f85	0.079619445
99	0xbd6047f1	-0.05475611
100	0xbdfb78c9	-0.12278897
101	0xbe22b110	-0.15887856
102	0x3de2feee	0.1108378
103	0x3cd380da	0.025818277
104	0x3e0b3748	0.13595307
105	0xbd8394db	-0.06424876
106	0xbcf78e92	-0.03021935
107	0x3c811f24	0.01576192
108	0xbd9ede95	-0.07757298
109	0x3e08300a	0.13299575
110	0x3dd3c871	0.103409655
111	0x3cf5929a	0.029977132
112	0x3d89111a	0.06692715
113	0xbe24ff35	-0.16112979
114	0x3e235c08	0.15953076
115	0xbc83ac25	-0.016073296
116	0xbe1b8784	-0.15188414
117	0xbdf07712	-0.11741461
118	0x3de36cef	0.11104762
119	0xbe27fe94	-0.16405708
120	0x3d78fbfe	0.060787193
121	0xbe15572c	-0.14584035
122	0xbda984b1	-0.08277262
123	0xbbd9fc72	-0.0066524083
124	0xbe03213c	-0.12805647
125	0x3e2a29cb	0.16617505
126	0x3d87cd59	0.06630964
127	0x3dd4e0f2	0.103944674
128	0xbd9bb244	-0.07602361
129	0xbdde6090	-0.108582616
130	0x3da38e75	0.07986156
131	0xbdce0bd5	-0.100608505
132	0xbe01848a	-0.12648216
133	0xbbcdd642	-0.006281645
134	0x3e01a9a6	0.12662372
135	0xbe02aadd	-0.12760492
136	0xbd9b568e	-0.07584868
137	0xbbc1d70a	-0.005915527
138	0x3e1d8536	0.15382847
139	0xbdf94129	-0.121706314
140	0xbe233983	-0.15939908
141	0x3de55fd7	0.111999206
142	0x3d52c621	0.05145848
143	0xbd7fd3a2	-0.06245769
144	0x3e0082df	0.12549923
145	0xbe089fab	-0.13342158
146	0xbdfa031a	-0.12207623
147	0x3d1d5c56	0.038418137
148	0xbb639123	-0.003472396
149	0xbd96d2ca	-0.073644236
150	0xbe0ae74d	-0.13564797
151	0x3db2b7db	0.08726474
152	0xbe037049	-0.12835802
153	0x3d9b9786	0.0759726
154	0x3dd0a78b	0.10188206
155	0xbd673b09	-0.056452785
156	0xbc154456	-0.009110531
157	0xbd6d63e9	-0.05795661
158	0x3e26e781	0.16299249
159	0x3b87162b	0.0041225157
160	0x3e076648	0.13222611
161	0xbe056496	-0.13026652
162	0xbdffa8dc	-0.12483379
163	0xbd138428	-0.036014706
164	0xbdbab2c2	-0.091161266
165	0xbdea87a7	-0.11451655
166	0x3dc44ea0	0.09585309
167	0x3c115afd	0.008871791
168	0x3e350ffc	0.17681879
169	0x3c8e3ba7	0.017362429
170	0xbd9f4620	-0.07777047
171	0xbc944a09	-0.018101709
172	0x3cb8251b	0.02247863
173	0x3dee622e	0.1163982
174	0xbe106ddc	-0.14104408
175	0x3e2dde2c	0.16979283
176	0x3db781f9	0.08960337
177	0xbddaaff5	-0.106780924
178	0xbd434d2a	-0.04768101
179	0xbcc8a210	-0.02449134
180	0x3c23a479	0.009987944
181	0x3e0cadeb	0.1373822
182	0xbe1a9f29	-0.15099777
183	0x3d9a3df1	0.07531346
184	0x3de1b419	0.11020679
185	0xbd315cd6	-0.043301426
186	0x3dfba216	0.12286775
187	0xbce6d45d	-0.028177435
188	0xbe2b1cc9	-0.167102
189	0xbdb7f862	-0.08982922
190	0xbcd8c373	-0.026460385
191	0xbd443c26	-0.047908925
192	0x3d8fadac	0.07015547
193	0x3d91d555	0.07120768
194	0x3cbdb997	0.023159785
195	0x3df6eea0	0.12057233
196	0x3df16a7f	0.11787891
197	0x3dee5f78	0.11639303
198	0xbd84deb7	-0.06487792
199	0x3bc46a5d	0.005994125
200	0x3d4557f3	0.048179578
201	0x3b8caa65	0.0042927735
202	0x3d3c6d44	0.04600264
203	0x3d4318c5	0.047631044
204	0x3dacbea3	0.084347986
205	0x3c867c5e	0.016416725
206	0xbdebc1fe	-0.115116104
207	0xbdb339be	-0.08751248
208	0x3b22cf81	0.002484292
209	0x3d8e2c01	0.06941987
210	0x3e104abc	0.14091009
211	0x3de2560a	0.11051567
212	0xbd33eb46	-0.043925546
213	0xbe009ca1	-0.12559749
214	0xbc035e13	-0.0080180345
215	0xbce398f6	-0.027782898
216	0xbd687103	-0.0567484
217	0x3e113b3d	0.14182754
218	0x3c780a2a	0.015139142
219	0x3d1dc0f6	0.0385141
220	0xbc10f559	-0.008847558
221	0xbd883b3e	-0.066519246
222	0xbc146349	-0.009056875
223	0xbd9587e1	-0.073013075
224	0x3e090d9b	0.13384096
225	0x3dd18a83	0.10231497
226	0x3d7c77cc	0.061637685
227	0xbe156ab8	-0.14591491
228	0xbdf7921a	-0.120884135
229	0x3d551de9	0.052030478
230	0x3dea7dc4	0.11449769
231	0xbcb9fef0	-0.022704571
232	0xbdfadc88	-0.12249094
233	0xbc52351c	-0.012830045
234	0x3db57a1f	0.088611834
235	0xbd9d98e5	-0.07695178
236	0xbe205f21	-0.15661289
237	0xbd420d47	-0.047375944
238	0x3dd87430	0.10569036
239	0x3d6cbd83	0.05779792
240	0xbe12adb4	-0.14324075
241	0xbdcbf88e	-0.099595174
242	0xbda3f6f2	-0.080060855
243	0x3d217473	0.039417695
244	0xbdbe78c5	-0.09300379
245	0x3c7e9180	0.01553762
246	0xbe165eb5	-0.14684565
247	0xbe0f4ad9	-0.13993396
248	0xbe176d4d	-0.14787789
249	0x3e0673b4	0.13130075
250	0xbd7c6522	-0.061619885
251	0xbdc2eee3	-0.0951822
252	0xbded6e71	-0.11593331
253	0x3c9c43b5	0.019075254
254	0xbde9257c	-0.11384103
255	0x3d257a7f	0.040400025

sequential_6/batch_normalization_12/batchnorm/sub f4 [64]
0	0xbe90ece9	-0.28305748
1	0xbf0ecec8	-0.55784273
2	0xbfa65e97	-1.2997617
3	0xbee72b64	-0.45150292
4	0xbeb95f3f	-0.3620548
5	0xbead4920	-0.33844852
6	0xbeb27b09	-0.34859493
7	0xbf68092b	-0.9063899
8	0xbf7dadcc	-0.9909332
9	0xbf70f732	-0.9412719
10	0xbe08caae	-0.13358566
11	0xbf7b886a	-0.98255026
12	0xbead4cf6	-0.3384778
13	0xbf8f1e05	-1.1181036
14	0xbebee582	-0.37284476
15	0xbf6d599c	-0.9271486
16	0xbf232468	-0.63727427
17	0xbde92127	-0.113832764
18	0xbec42c2c	-0.3831495
19	0xbee85bd8	-0.4538257
20	0xbebeb87a	-0.3725012
21	0xbe931828	-0.28729367
22	0xbd9de11d	-0.077089526
23	0xbe6ba879	-0.23013486
24	0xbe9e1f7d	-0.308834
25	0xbee2f86c	-0.44330156
26	0xbf5fa8c1	-0.87366873
27	0xbfa43f6f	-1.2831858
28	0xbf82801b	-1.0195345
29	0xbf5f7f00	-0.8730316
30	0xbeea9e80	-0.4582405
31	0xbe9c5052	-0.3053003
32	0xbf8fb5d2	-1.1227362
33	0xbe7ceece	-0.24700472
34	0xbef860db	-0.48511395
35	0xbf3e23e4	-0.74273515
36	0xbede54d0	-0.43424082
37	0xbf3947a4	-0.7237494
38	0xbfa9bd1e	-1.3260839
39	0xbec8219a	-0.39088136
40	0xbfadd921	-1.3581887
41	0xbf01a724	-0.5064566
42	0xbf2f7128	-0.6853204
43	0xbea7c9e7	-0.32771227
44	0xbfa4e9db	-1.2883867
45	0xbf857dcd	-1.0429016
46	0xbeae39cd	-0.34028473
47	0xbf5ab7b1	-0.8543654
48	0xbe7b7d5f	-0.24559544
49	0xbf47e38a	-0.7808157
50	0xbf1eb49f	-0.61994356
51	0xbf15dee8	-0.5854325
52	0xbf279ed0	-0.65476704
53	0xbe1d2889	-0.15347494
54	0xbf3c26d9	-0.73496777
55	0xbf7cf48e	-0.9881066
56	0xbf9881a3	-1.1914562
57	0xbf488978	-0.7833476
58	0xbeea1653	-0.45720157
59	0xbe9f26a0	-0.31084156
60	0xbeb9bee0	-0.3627844
61	0xbf8f3299	-1.1187316
62	0xbed028ac	-0.4065603
63	0xbf51edfd	-0.82003766

sequential_6/batch_normalization_12/batchnorm/mul f4 [64]
0	0x419d6374	19.673561
1	0x415d05b4	13.813892
2	0x40c67cad	6.202719
3	0x418a6436	17.298931
4	0x41a99ea0	21.202454
5	0x413e47ec	11.892559
6	0x4182c662	16.346867
7	0x416d1a77	14.818961
8	0x416cc52a	14.798136
9	0x415848e6	13.517797
10	0x41b1b671	22.214083
11	0x41552194	13.320698
12	0x41688a6f	14.533797
13	0x411a4e72	9.644152
14	0x4171bdf3	15.108874
15	0x411ff897	9.998191
16	0x4112c2ef	9.172591
17	0x41c61c00	24.763672
18	0x41848ff3	16.570288
19	0x41197053	9.589923
20	0x410e81b4	8.906666
21	0x41922284	18.266853
22	0x41ed0d4b	29.63149
23	0x41c68194	24.81327
24	0x41a70b26	20.880444
25	0x41aae13a	21.359974
26	0x4153ed69	13.245461
27	0x40e37556	7.108073
28	0x40df276d	6.9735627
29	0x4165fc55	14.3741045
30	0x41100494	9.001118
31	0x41594a2e	13.58061
32	0x41469f9c	12.413967
33	0x417cde60	15.804291
34	0x41825f02	16.29639
35	0x412cdb81	10.80359
36	0x415027e0	13.009735
37	0x4194210a	18.516132
38	0x40c35fdb	6.105451
39	0x41911dfb	18.139639
40	0x41189144	9.535465
41	0x41b3f56d	22.494837
42	0x412b7dec	10.718243
43	0x4191ef46	18.241833
44	0x411539ef	9.326644
45	0x41548b0b	13.283946
46	0x4188c44a	17.095844
47	0x4165d135	14.363576
48	0x41b6b28c	22.837181
49	0x411fb141	9.980775
50	0x41866a82	16.802006
51	0x4187d150	16.977203
52	0x419026e8	18.018997
53	0x41be3578	23.776108
54	0x41a13ac6	20.153698
55	0x416cebe7	14.807593
56	0x40af6703	5.4813247
57	0x41488f48	12.534981
58	0x413967db	11.587855
59	0x413f14f5	11.942616
60	0x414ae2af	12.680343
61	0x412a83a7	10.657142
62	0x4150fd65	13.061864
63	0x41290289	10.563119

sequential_6/dense_12/BiasAdd/ReadVariableOp f4 [128]
0	0xbbb09311	-0.0053886254
1	0xbc53701c	-0.012905147
2	0xbc219918	-0.009863161
3	0xbd84965b	-0.064739905
4	0xbc82eb17	-0.01598124
5	0x3b828c1f	0.003983989
6	0xbc00d780	-0.007863879
7	0xbc2dd6ca	-0.010610292
8	0xbcaf9727	-0.02143438
9	0xbb7a9265	-0.003823423
10	0xbc4f2b65	-0.012644623
11	0xbcbacf84	-0.02280403
12	0xbc746dca	-0.014918754
13	0xbb333841	-0.0027346762
14	0x3b2e92c6	0.0026637777
15	0xbbfe0964	-0.0077525843
16	0xbc035105	-0.008014922
17	0xbc9b9725	-0.01899297
18	0xbb2bd5e6	-0.0026220023
19	0xbc5e86da	-0.013581956
20	0xbc091760	-0.008367389
21	0xb8361d59	-4.3419514e-05
22	0xbc8f3d2b	-0.017485222
23	0xbca867a0	-0.020557225
24	0xbbc302cc	-0.005951261
25	0x3a9a1f9f	0.0011758691
26	0xbc83edf1	-0.01610467
27	0xbbffd116	-0.0078069074
28	0xbc42478d	-0.011857879
29	0xbac68790	-0.0015146602
30	0x3c276f57	0.010219417
31	0xbc65afc8	-0.01401896
32	0xbcdba122	-0.026810233
33	0xbbfd86ea	-0.0077370303
34	0xbc792757	-0.015207133
35	0xb932da3d	-0.00017056703
36	0xbd1e79da	-0.038690425
37	0xbc921675	-0.017832974
38	0xba826dbd	-0.0009950917
39	0xbcb95bf8	-0.022626862
40	0xbceab337	-0.02864991
41	0x3b93305d	0.0044918493
42	0x3bc994f6	0.0061517907
43	0xbc3fc69a	-0.011705065
44	0xbb0951ec	-0.002095337
45	0xbc044a77	-0.008074394
46	0xbcd8fe3f	-0.026488421
47	0xbbcacefe	-0.006189226
48	0xba724961	-0.00092425017
49	0xbba9512a	-0.005167146
50	0xbc3b46ef	-0.011430486
51	0xbcca8170	-0.024719924
52	0xbc3ca302	-0.0115134735
53	0xbca2e16d	-0.019882882
54	0xbc3b5f03	-0.011436227
55	0xbc0ca1e6	-0.0085835215
56	0x37cdd0c0	2.4535111e-05
57	0xbcb9a724	-0.022662707
58	0x3b9daf3f	0.0048121507
59	0xbc95e9eb	-0.018300017
60	0xba0ee5d5	-0.0005451118
61	0xbcc54267	-0.024079515
62	0xbc9c72d6	-0.019097727
63	0xbc836bd0	-0.01604262
64	0xbad22b49	-0.0016034628
65	0xbc8bc5fb	-0.017062178
66	0xbb7402d5	-0.0037233133
67	0xbbccff30	-0.0062560067
68	0xbcdba1c6	-0.026810538
69	0xbca769b9	-0.020436155
70	0xbb02bcad	-0.0019948885
71	0xbcbc1934	-0.022961237
72	0xbb8d3ab9	-0.004309979
73	0xbb0face4	-0.002192312
74	0xbcac9fec	-0.02107235
75	0xbba82907	-0.005131844
76	0x3a12188b	0.0005573115
77	0xbc324fe4	-0.010883305
78	0xbc680b1e	-0.014162807
79	0xbc3cf1c7	-0.011532254
80	0xbbcca584	-0.006245317
81	0xbbaf1272	-0.005342775
82	0xbd2be71c	-0.04196845
83	0xba6be1a6	-0.0008998163
84	0xbba919cd	-0.0051605464
85	0xbc6efb6b	-0.01458631
86	0xbc4f51f7	-0.012653819
87	0xbc46cfac	-0.012134474
88	0xbca4cfed	-0.020118678
89	0xb91c1baa	-0.00014887625
90	0xbca07bf0	-0.019590348
91	0xb6a89196	-5.0237386e-06
92	0xbd6791fe	-0.056535713
93	0xbbeca057	-0.0072212624
94	0x3bcade5b	0.0061910576
95	0xbb2a48ba	-0.002598329
96	0xbcacc4a4	-0.02108986
97	0x3bb4f37a	0.0055221887
98	0xbbe71bb9	-0.0070528653
99	0xbb614635	-0.0034374122
100	0xbb79f788	-0.0038141925
101	0xbc17f252	-0.009274082
102	0xbbde613d	-0.006786494
103	0xbc7ef685	-0.0155617045
104	0xbabaf7f8	-0.0014264574
105	0x3b102682	0.0021995609
106	0x3bafb1eb	0.0053617856
107	0x3b00f9db	0.0019680175
108	0xbc0d4f24	-0.008624826
109	0xbc3bea72	-0.01146947
110	0xbba67cb8	-0.0050807856
111	0xbc6a85f0	-0.01431416
112	0x3b13dcc1	0.0022562
113	0xbc5f0b72	-0.013613569
114	0xbcc36f3c	-0.023856752
115	0x3a57dcd2	0.0008234504
116	0xbc965c88	-0.01835467
117	0xbd12c19a	-0.035829164
118	0xbc101c50	-0.008795813
119	0x3b71392e	0.0036807763
120	0xbc6a35ba	-0.014295036
121	0xbc03511d	-0.008014944
122	0x3bd7c842	0.006585152
123	0x3b016cce	0.001974869
124	0xbcf9dbb6	-0.030500274
125	0xbc4eda5a	-0.012625301
126	0xbc563006	-0.013072973
127	0x3b737844	0.0037150541

sequential_6/dense_12/MatMul f4 [128, 1536]
0	0x3c9899d4	0.018628038
1	0xbd0c4d53	-0.03425343
2	0x3c9659c3	0.018353349
3	0x3c2ab6e1	0.010419578
4	0x3ccaa297	0.024735732
5	0x3bb94548	0.005654011
6	0x3cc42781	0.023944618
7	0xbd30f4de	-0.043202274
8	0x3cabb661	0.020960988
9	0x3d30ceb8	0.043165892
10	0x3cd72350	0.026261955
11	0x3d2b66a8	0.041845948
12	0x3d1fe9a9	0.039041195
13	0x3c9485f1	0.018130274
14	0xbc8ecfad	-0.017433012
15	0x3c3b752d	0.011441511
16	0x3d160ccc	0.036633298
17	0x3d163ddf	0.0366801
18	0x3ca97433	0.02068529
19	0xbb37f1be	-0.0028067674
20	0x3cf417c3	0.029796487
21	0x3b594ddd	0.0033157982
22	0x3c219041	0.009861053
23	0x3bd91ff2	0.0066261226
24	0xbc0f4d2f	-0.008746429
25	0xbd3a034c	-0.0454133
26	0xbbed172d	-0.007235429
27	0x3cd94b12	0.026525054
28	0xbc825b96	-0.015912812
29	0x3ce7892a	0.028263647
30	0xbd59aab3	-0.053141307
31	0xbc90e135	-0.017685512
32	0x3c101f52	0.00879653
33	0xbc80e3a1	-0.015733542
34	0x3d2514a8	0.040302902
35	0x3c6a1cc3	0.014289084
36	0x3ccd5cc6	0.025068652
37	0x3d1d8e47	0.038465764
38	0xbbb12cec	-0.0054069664
39	0x3d187541	0.037221197
40	0x3c530adc	0.012881007
41	0xbd7d9113	-0.06190593
42	0xbca7a6f4	-0.020465352
43	0x3d4e10e6	0.050309084
44	0x3c96f45e	0.01842707
45	0xbc0f6ec1	-0.008754433
46	0x3cb35d79	0.021895157
47	0x3c0cfa5e	0.008604614
48	0x3d32ba65	0.04363479
49	0x3be97b8b	0.007125323
50	0xbd54eafb	-0.051981907
51	0x3cf2a906	0.029621612
52	0xbcd0f590	-0.025507718
53	0x3c98d550	0.018656403
54	0x3d002f52	0.03129513
55	0x3b1628bd	0.0022912466
56	0x3cdb205c	0.026748829
57	0xbc5fd3dd	-0.013661352
58	0xbcda408c	-0.026642106
59	0xbaa43abc	-0.0012529711
60	0x3bafca6a	0.005364706
61	0x3bfb3c54	0.007667104
62	0x3cbc0d4e	0.022955563
63	0x3a84c4fb	0.0010129506
64	0xbc4ae5b7	-0.01238387
65	0xbd05fb91	-0.032710616
66	0xbccbb7b5	-0.024867872
67	0x3d4a7d81	0.049436096
68	0x3c38ccf0	0.01127933
69	0xbcbeca99	-0.023289965
70	0xbccdad8a	-0.025107164
71	0xbd3e07ad	-0.04639404
72	0xbd55f38d	-0.05223422
73	0xbcbc3dc0	-0.022978663
74	0xbd3e057f	-0.04639196
75	0x3d172746	0.03690269
76	0xbcba9634	-0.0227767
77	0xbd0047a9	-0.03131834
78	0xbc6778e4	-0.014127944
79	0xbc95871a	-0.018252898
80	0xbce02051	-0.02735916
81	0xbc80aea8	-0.015708283
82	0xbc953d0f	-0.018217592
83	0xbd33787d	-0.04381608
84	0xbce89fcd	-0.028396511
85	0xbc2d96f6	-0.010595074
86	0xbc87f539	-0.016596423
87	0xbd23bab0	-0.03997296
88	0x3c4685e1	0.01211688
89	0xbce31b7a	-0.027723063
90	0xbd2a6be7	-0.04160681
91	0x3d18770f	0.037222918
92	0xbc19f2b5	-0.009396245
93	0xbd06d074	-0.03291364
94	0xbd5b0677	-0.053472962
95	0x3c04b8b6	0.008100679
96	0xbcdb1f07	-0.026748193
97	0xbd1bbbe3	-0.03802098
98	0xbbde8989	-0.006791298
99	0x3cabc4ac	0.020967804
100	0xbd18eebf	-0.03733706
101	0x3c9845db	0.018587997
102	0xbcde9269	-0.027169423
103	0xbc27351f	-0.010205536
104	0x3cb86dec	0.022513352
105	0x3c8f576b	0.017497739
106	0xbcb5762a	-0.022151072
107	0xbcbcfe38	-0.02307044
108	0x3bffa7da	0.007801992
109	0x3c79e5c2	0.015252532
110	0x3b340c75	0.0027473245
111	0x3ca4885b	0.02008455
112	0xbc4541c7	-0.012039608
113	0x3c31adfd	0.010844705
114	0xbd1eb04e	-0.038742356
115	0xbd58666d	-0.052832056
116	0xbd040125	-0.032227654
117	0xbccbff18	-0.024901912
118	0xbcfe928d	-0.03107574
119	0x3cf40bec	0.029790841
120	0xbccf66f7	-0.025317652
121	0xbd16723c	-0.036730036
122	0x3cb1347a	0.021631468
123	0xbc292632	-0.010324048
124	0x3c99ad4f	0.018759398
125	0xbca8f6b8	-0.020625457
126	0x3d20bee0	0.039244533
127	0x3cd8d4db	0.026468685
128	0x3d37e891	0.044899527
129	0xbd3c8630	-0.04602641
130	0x3c90b573	0.017664647
131	0x3caac5e5	0.020846317
132	0xbd854723	-0.06507709
133	0xbd4a8162	-0.049439795
134	0x3c99b96d	0.018765176
135	0xbd251121	-0.04029954
136	0x3cdce08d	0.026962543
137	0xbc721173	-0.014774668
138	0xbd09fa86	-0.033686183
139	0xbc9cd344	-0.019143708
140	0xbb9127c3	-0.004429789
141	0xbd72d56c	-0.059285566
142	0x3d14834b	0.036258023
143	0x3c9c1179	0.0190513
144	0x3d03ebee	0.032207422
145	0xbc3191b4	-0.010837961
146	0xbbb891ab	-0.0056325994
147	0x3c260889	0.010133871
148	0x3ceb2e8f	0.028708724
149	0xbcf3ab8e	-0.02974489
150	0xbc6a8437	-0.014313749
151	0xbc215695	-0.009847303
152	0x3cfd29c3	0.030903703
153	0x374005c2	1.1445432e-05
154	0xbcf60d89	-0.030035751
155	0xbcc810cc	-0.024422072
156	0xbd143be3	-0.036189925
157	0xbad2a92d	-0.0016072147
158	0x3cea2688	0.028582826
159	0xb990adbc	-0.00027595263
160	0x3bc6811e	0.0060578724
161	0xbc889347	-0.01667179
162	0x3d1d44ab	0.038395565
163	0xbd0bbadd	-0.034113754
164	0xbd02e999	-0.031961057
165	0xbc66f8fc	-0.014097448
166	0xbc71cd98	-0.01475849
167	0xbd2d4433	-0.042301368
168	0xbb46e156	-0.0030346713
169	0x3c8de7a6	0.017322373
170	0x3c93c987	0.018040432
171	0xbcb3c1cf	-0.021943001
172	0xbd5a0448	-0.05322674
173	0x3d1f31b4	0.03886576
174	0xbc5b8dd0	-0.01340051
175	0xbd24d103	-0.04023839
176	0x3bc23bf4	0.005927557
177	0xbd3d3443	-0.04619242
178	0xbca05561	-0.019571962
179	0xbc82e55d	-0.01597851
180	0x3aa6e4e6	0.0012733012
181	0xbd2d1a22	-0.04226125
182	0xbd4c7c8c	-0.049923465
183	0xbc9fea96	-0.019521039
184	0x3c5287b4	0.012849737
185	0xbcc843bf	-0.024446366
186	0x3ce21573	0.027598118
187	0xbc0cddca	-0.0085978005
188	0x3d362953	0.044473004
189	0xbd37bea1	-0.044859532
190	0xbd1497b3	-0.036277484
191	0xbd175315	-0.036944468
192	0x3cbab807	0.02279283
193	0x3c999d0d	0.018751645
194	0xbc90d2b0	-0.017678589
195	0x3c115c64	0.008872125
196	0x3cae17b8	0.021251544
197	0xbcfd279d	-0.030902678
198	0x3cf5a62d	0.029986465
199	0x3d41edcd	0.047345925
200	0xbcfe97c5	-0.031078229
201	0x3d3dc460	0.046329856
202	0xbd1b4187	-0.03790429
203	0x3c946595	0.018114844
204	0xbc69f79f	-0.014280229
205	0x3c9dae5e	0.019248184
206	0xbca37032	-0.01995096
207	0xbd3e4a02	-0.046457298
208	0xbd3e255f	-0.04642236
209	0xbd5fe696	-0.054663263
210	0xbc73a06f	-0.014869793
211	0xbc078e0f	-0.0082736155
212	0xbb002973	-0.0019555956
213	0x3c8e4b53	0.017369902
214	0x3c5a78f8	0.013334505
215	0x3b9ce9be	0.0047886064
216	0xbc5f4c66	-0.013629055
217	0xbd371f07	-0.044707324
218	0xbcaf6991	-0.021412643
219	0x3cbe2c77	0.023214562
220	0xbce9a602	-0.028521542
221	0xbc71f54e	-0.014767958
222	0x3b10150c	0.0021985201
223	0xbd5e2336	-0.0542328
224	0x3c23d43a	0.009999329
225	0x3cd09202	0.025460247
226	0x3cf6b6c3	0.030116444
227	0xbd0e543b	-0.034748297
228	0x3ca6678f	0.020313052
229	0xbd3c79f5	-0.046014745
230	0x3d04ac5b	0.032390933
231	0xbd45e989	-0.04831842
232	0xba77f602	-0.000945896
233	0x3ca3a151	0.019974383
234	0xbb66837e	-0.003517359
235	0xbbd9935b	-0.0066398806
236	0xb9d4e47a	-0.0004060602
237	0xbd294ef5	-0.041335065
238	0xbd274660	-0.0408386
239	0xbc1cf3cb	-0.009579609
240	0xbd355511	-0.04427058
241	0xbcab7da3	-0.020933932
242	0xbc6a487a	-0.014299506
243	0xbc54feef	-0.013000234
244	0x3d01724e	0.03160315
245	0xbd3b0b24	-0.04566492
246	0x3baa7982	0.005202473
247	0x3c5fe6d6	0.013665875
248	0xbb7485c6	-0.003731118
249	0xbc9cd176	-0.019142848
250	0x3d6877ea	0.056754984
251	0x3d2f420c	0.042787597
252	0xbd44f1d3	-0.048082184
253	0xbd0ec703	-0.03485776
254	0x3d4f7d52	0.050656624
255	0x3c3b7bbd	0.011443076
