app/src/main/assets/respeck_1_static_50epochs_50windowsize_1layers.tflite (tflite, 835292 bytes, 12 tensors)

sequential_4/conv1d_8/BiasAdd/ReadVariableOp f4 [64]
000000 8e 21 20 bd 12 4e 2e bd b5 96 8f bc 33 6d 11 bd
       -0.0390945 -0.042554922 -0.017527917 -0.03550453
000010 ad 4a 42 bd 4b f4 f3 bc 1c fb c0 bd 3d 2f 05 bd
       -0.047434498 -0.029779574 -0.09422895 -0.032515753
000020 4b 6f 34 bc 15 5f b8 3b 00 24 c2 bb be 6d 3c bd
       -0.011012862 0.005626569 -0.0059247017 -0.046003096
000030 53 ae 65 bc 28 26 55 bd a1 26 0c bd af 77 09 bb
       -0.014018613 -0.05203834 -0.034216527 -0.0020975878
000040 f4 79 d0 bc a5 b9 35 bd bd 64 05 bd 99 bf 43 bc
       -0.025448777 -0.044366498 -0.032566775 -0.011947536
000050 09 2b b9 bb 39 2d df bc a9 52 83 bc 9b 75 76 bc
       -0.005650882 -0.027243244 -0.016030626 -0.015042688
000060 48 be 1e bc 0f d6 7e bc dc bf 04 bd 90 1a 41 bd
       -0.009688921 -0.015553965 -0.032409534 -0.047144473
000070 58 93 26 bd d1 cf c0 ba fb a1 7f bc 21 f1 cb bc
       -0.04066786 -0.0014710372 -0.015602584 -0.024895253
000080 51 47 9e bc 23 a4 17 bd ac eb bc bc ce d2 b0 bc
       -0.019321116 -0.037021767 -0.023061596 -0.021584895
000090 52 e7 02 bd 94 17 40 bc e4 1f d9 3b c5 70 b7 bc
       -0.031958885 -0.011724371 0.006626116 -0.02239264
0000a0 28 5f b4 bc f5 2e 50 bd 5b 47 08 bd 32 70 96 bc
       -0.02201803 -0.05082603 -0.033271175 -0.018364046
0000b0 5f 13 ac bc 89 f0 97 bc cc b5 e7 bc 5a 7c 02 bc
       -0.02100533 -0.018547313 -0.02828493 -0.007964218
0000c0 91 00 42 bd 2d 7d e6 bc b3 40 a1 bc 08 95 3f bd
       -0.04736382 -0.02813586 -0.019684171 -0.046772987
0000d0 87 23 2a bd 6c 1e 9d bd 54 6e dc bc 45 94 f3 bb
       -0.041537788 -0.07671818 -0.026908077 -0.0074334466
0000e0 28 d2 43 bc 11 44 70 bd ce 1f 6a bc a9 d6 05 bd
       -0.011951961 -0.058658663 -0.014289809 -0.03267542
0000f0 03 09 f9 bb de 95 a7 bc 9f a7 c8 bc 35 67 34 bb
       -0.0075999512 -0.020457204 -0.02449399 -0.0027527336

sequential_4/conv1d_9/BiasAdd/ReadVariableOp f4 [128]
000000 8a 42 75 bc 8d ab ec 3b 38 72 6c bd df 36 24 bc
       -0.014969477 0.007222599 -0.057726115 -0.010022848
000010 40 ee 22 3c aa 5e a3 bd c6 aa aa 3a 2a 18 db bb
       0.009944499 -0.0797704 0.0013020865 -0.00668623
000020 02 bc a1 bc 25 06 20 bd 87 54 5c bd 78 3b 33 bd
       -0.01974297 -0.03906836 -0.05379155 -0.043757886
000030 31 ed 3e bd f0 6b fd bc db 3a e0 3a cf 82 96 bd
       -0.046612922 -0.030935258 0.0017107384 -0.073491685
000040 5d 1b a4 bc c9 71 6c ba 03 57 eb bc 6b 0a a0 3b
       -0.02003258 -0.0009019641 -0.028728014 0.0048840544
000050 21 a9 29 bb fb 0a a8 bc b1 db f4 bb e7 e4 b5 bb
       -0.0025888162 -0.020513048 -0.0074724783 -0.005550969
000060 3a e8 59 bd af e4 37 bc d4 21 89 b9 ae 70 f1 bc
       -0.053199984 -0.011223956 -0.0002615588 -0.029472675
000070 42 6e 46 bd 41 d4 35 ba e4 fb 02 bd b2 40 2c bd
       -0.048444994 -0.00069362303 -0.031978503 -0.042053886
000080 bc d1 aa 3b a7 30 e8 bb 84 53 f4 bb 65 d9 15 bc
       0.0052129906 -0.007085878 -0.007456245 -0.009146069
000090 4e 69 b2 bb 4d d1 7a bb 64 5b 17 bc b5 0c e2 3b
       -0.005444682 -0.0038271726 -0.009238098 0.0068984875
0000a0 b0 66 5b b7 ae dd cb 3b 40 a4 b1 bc f4 a4 dc bc
       -1.3077326e-05 0.0062214946 -0.021684766 -0.026934125
0000b0 92 01 4f bd 88 40 6c bc c8 3c 07 bd 7e e2 96 bc
       -0.050538607 -0.014419682 -0.03301695 -0.018418547
0000c0 b6 a3 1d bd ed 7b ac bc c9 fb 85 3b 5b eb 11 bd
       -0.038486205 -0.021055186 0.004088853 -0.035624843
0000d0 04 87 d3 bc c2 7c d9 bc b6 1c 15 bd 40 34 f6 bb
       -0.025821216 -0.026548747 -0.036404334 -0.007513553
0000e0 9b d4 96 bc eb 91 13 3c 25 64 03 bd ea d5 6b ba
       -0.018411925 0.0090069575 -0.032077927 -0.0008996414
0000f0 51 37 68 bc 6c 13 25 bc c1 fb 15 3b 3e 9b 90 bd
       -0.014173345 -0.010075431 0.0022885653 -0.0706086
000100 b1 03 d1 37 cb 54 75 bb 59 63 87 bc da 61 8a bc
       2.491646e-05 -0.0037434574 -0.016526865 -0.016892362
000110 de 55 d2 bc 42 ca dd ba b1 7d a1 bc 8e 9c da bb
       -0.02567571 -0.001692124 -0.019713255 -0.006671495
000120 13 8b 53 bc 4d f1 37 bc 5c 95 33 ba 82 19 8b bb
       -0.012911576 -0.011226964 -0.00068505644 -0.004244984
000130 08 ac 20 bb 2b b6 71 bd fd f8 79 3c 0f f8 57 bc
       -0.00245166 -0.05901162 0.015257117 -0.0131817
000140 45 b1 ad 3a af ae 12 bc fb 85 03 3c 86 4d 76 bb
       0.0013251683 -0.008952781 0.008027549 -0.0037582829
000150 a3 d3 55 bd 40 54 52 3c 8e 49 05 3c 19 6f 68 bc
       -0.052203786 0.01283747 0.008135213 -0.014186644
000160 ab 9e 2d bd 58 cf d2 3c 4c 30 e3 bc 08 46 dd 3a
       -0.042387646 0.025733635 -0.02773299 0.0016881833
000170 a9 47 8c bd ea c3 5e 3c 3c cc 09 bd 61 e8 97 bd
       -0.068496056 0.013596514 -0.03364204 -0.0741737
000180 4e e3 0c bd 66 21 1e bd 37 99 3b 3b 9d 50 db bc
       -0.034396462 -0.03860607 0.0028625259 -0.026771838
000190 4d c7 8c bc e9 98 10 bd 69 f9 18 3c e2 1d 5a bd
       -0.017184878 -0.035302076 0.009336808 -0.053251155
0001a0 63 8f 2d bc ee bf 43 bb 0d 23 23 bc b0 02 9f bd
       -0.010593268 -0.0029869038 -0.009957087 -0.077641845
0001b0 90 df 54 bd a1 9e 1d bd 92 00 6f 3b b3 c5 e2 b9
       -0.05197102 -0.03848136 0.0036468846 -0.00043253376
0001c0 f9 1e d9 3b 5a c2 06 3c f6 9f 23 bc 27 b0 84 bc
       0.0066260067 0.008225048 -0.009986868 -0.016197277
0001d0 9e 31 f9 bb b5 cf ed bb 00 56 72 bb d4 68 f1 bd
       -0.007604792 -0.0072574266 -0.003697753 -0.117875725
0001e0 32 2e 8a bc 79 fe 89 3b 5f f6 a2 3b af d7 03 bc
       -0.01686773 0.0042112437 0.0049732174 -0.008047028
0001f0 c2 a6 d3 bb 72 f0 71 bd 62 a7 b8 bc a1 a0 f9 3b
       -0.006459088 -0.059067197 -0.022540752 0.0076180254

sequential_4/dense_9/MatMul;sequential_4/dense_9/BiasAdd f4 [5]
000000 a6 9d 31 3f 75 10 78 be 41 6f c2 3f 2c b0 b9 bf
       0.6938118 -0.24225028 1.5190202 -1.4506888
000010 d5 a5 e4 bf
       -1.7863108

sequential_4/batch_normalization_14/batchnorm/mul_1;sequential_4/batch_normalization_14/batchnorm/add_1;sequential_4/dense_9/MatMul;sequential_4/dense_9/BiasAdd f4 [5, 128]
000000 3a c6 33 be 2c da a5 be de 17 0f be 6f 06 ef bc
       -0.17556086 -0.32393014 -0.13973948 -0.029177872
000010 24 49 9f 3e e9 25 64 be 30 38 90 3d 08 27 be 3e
       0.3111049 -0.22280087 0.07041967 0.37139153
000020 17 b9 32 be cc c1 fe bb 03 46 43 3e 38 0c a0 be
       -0.17453419 -0.007774567 0.19069676 -0.31259322
000030 f0 fe d1 bd c9 dd 21 be b9 2e 5d 3d 85 d6 2d bd
       -0.102537036 -0.1580726 0.053999636 -0.04244091
000040 b8 a2 d3 3d de 8b 4f 3e 6a fe 73 3e c1 2c 67 3e
       0.103337705 0.20268199 0.2382752 0.22575666
000050 86 d9 a1 bc 8e 2e 1a 3e 3f ff ae 3e 7a 60 85 bd
       -0.019757044 0.15056822 0.34179112 -0.06512542
000060 75 43 31 be 6d a2 8d 3c 9a 94 b6 bc 64 01 bf 3d
       -0.17310889 0.017289365 -0.022287656 0.09326437
000070 5a 47 63 bd cb 0f 6f bd 6c 09 b1 3e 74 ee 91 be
       -0.055487968 -0.05836467 0.345775 -0.28502238
000080 93 c5 9c 3e 2f ab 4e 3e 91 c4 3e be 71 02 74 3e
       0.30619487 0.20182489 -0.18629672 0.23829056
000090 9a 3f b9 3e 5c 4d 23 3e 87 e9 c9 bd 1a de 10 3e
       0.36181337 0.15947479 -0.09858995 0.14147225
0000a0 25 6d 96 be 14 26 5d bd 11 d7 12 be 07 c0 94 3d
       -0.29380146 -0.053991392 -0.14339854 0.07263189
0000b0 9a 50 02 be c7 3e 21 3e 67 00 0d bd 83 46 51 be
       -0.1272606 0.15746604 -0.03442421 -0.20437054
0000c0 36 21 b9 3e 4c 24 77 be d8 a1 47 be be 99 a8 3c
       0.3615815 -0.2413494 -0.19495332 0.020581122
0000d0 5b c6 5d be a6 20 d8 3c 68 f4 80 be 8a 1c df bd
       -0.21657698 0.026382755 -0.25186467 -0.10894115
0000e0 90 19 87 be 5d 59 c0 bd f1 1b c6 bd 1f 43 a6 3d
       -0.2638669 -0.09392045 -0.09673298 0.08118271
0000f0 8b 1b 2f 3e ba cc 3c bd 7d e6 38 3c bf 4c 31 be
       0.1710035 -0.04609368 0.011285421 -0.17314433
000100 46 42 43 3e a6 49 de bd 92 88 37 be 6f 62 da 3c
       0.1906825 -0.10853891 -0.17923191 0.026658265
000110 6f 57 5f be 16 47 2e be 92 db 0e 3e 27 5b 69 3c
       -0.21810697 -0.17019305 0.13950947 0.014242924
000120 99 85 a8 3d 1c d7 2d be fa 30 a5 be ce 6a cb be
       0.08228607 -0.16976589 -0.3226393 -0.39729923
000130 d6 3d 2a be 32 03 a3 3d c0 78 28 3e 49 1e 11 be
       -0.16625151 0.07959594 0.16452312 -0.14171709
000140 89 b3 2c be 66 0c e8 3d f5 5d 85 be b3 97 8e 3e
       -0.16865362 0.1133049 -0.26048246 0.27850112
000150 b2 48 c7 be 57 ff 1e 3e f4 5d 16 3e 3b 6f da 3e
       -0.3892265 0.15527092 0.14684278 0.42662987
000160 41 76 53 be c6 eb 2f 3e f5 4f 4b be 5d 25 12 3e
       -0.20650579 0.17179784 -0.1985472 0.14272065
000170 46 db 66 be e7 1b 45 3e a0 76 3b be 3c a0 b9 3e
       -0.22544584 0.19248925 -0.1830697 0.36255062
000180 bb d7 a2 bd 1f 40 9b 3d e3 45 fd bd bc dd 70 be
       -0.079513036 0.075805895 -0.123668455 -0.23522085
000190 00 2a 98 be 51 ef 8f 3e 5a 61 87 3e 8b 64 03 3e
       -0.29719543 0.2811227 0.2644146 0.12831323
0001a0 e2 29 31 3e e9 7c 7d be 56 6f 94 3d ed a5 48 bd
       0.17301133 -0.2475468 0.07247798 -0.048986364
0001b0 5c 85 26 be 68 52 90 bd 33 94 8c 3e 47 44 22 be
       -0.1626181 -0.07046968 0.27456817 -0.15846358
0001c0 ac 48 63 3e 52 e0 a5 3d 1e 6c a0 be 28 7c 3c be
       0.22195691 0.08099426 -0.31332487 -0.18406737
0001d0 b9 fb b4 bd 2b 2c b1 3e 49 8a 93 be 47 5a 1f 3e
       -0.08837075 0.3460401 -0.2881644 0.15561782
0001e0 3b 72 3c 3e 81 05 26 3d d9 a8 8c 3d d8 d2 2f 3e
       0.1840295 0.040532593 0.06868143 0.17170274
0001f0 02 72 57 be 2c a5 8e be b7 b6 92 3e b1 09 81 bd
       -0.21039584 -0.2786039 0.28655025 -0.063006766
000200 ed 89 03 be fe 3b 52 be 6b 14 02 3e 44 ca bb 3d
       -0.12845583 -0.20530698 0.12703101 0.091694385
000210 41 0f 4c be 09 8e e4 3d 2d fc 4b 3e 2f 56 21 3e
       -0.19927694 0.111599036 0.19920416 0.15755533
000220 7f 40 46 be 6c d6 a1 3e 2a 52 fb bc 7d 12 8e 3e
       -0.19360541 0.31608903 -0.030678827 0.2774848
000230 6e 22 b6 be 1f 34 31 be 08 a9 81 be ec af 4f be
       -0.35573143 -0.17305039 -0.25324273 -0.20281953
000240 12 c5 10 be e8 f0 08 be 26 e8 0d bd dd 0b 72 3e
       -0.14137676 -0.13373148 -0.034645222 0.23637338
000250 7a 4b 9e bc 33 7d 26 be 10 85 0a 3e 83 c5 30 bd
       -0.0193231 -0.16258697 0.13527322 -0.04315711
000260 4b ef 6f be d2 af 54 be 4f 6f 6b 3e 8d a5 44 3e
       -0.23431127 -0.20770195 0.2299168 0.19203778
000270 ca 17 9a bd 42 aa be bd da 22 95 3e 27 67 ee bd
       -0.07524069 -0.09309818 0.29128152 -0.116407685
000280 f8 e4 ef bd f7 a8 ea 3d 47 1a d8 bc 9e c9 c2 3d
       -0.11713594 0.11458009 -0.026379718 0.09511112
000290 bf 1f 91 be 64 2a 76 3d b3 96 a2 3d e9 16 f4 3d
       -0.28344533 0.06009902 0.079389 0.11918432
0002a0 28 4f 76 3e dd 88 43 be 8b 58 74 be 1c f8 84 3e
       0.24053633 -0.19095178 -0.23861901 0.25970542
0002b0 20 7e 81 3e 3a 9b af bd bf 93 1e be d9 61 2d 3e
       0.25291538 -0.08574529 -0.15486048 0.16931857
0002c0 31 4e 78 bd 2b 85 6b 3e f3 a2 15 3d b7 1f 55 3e
       -0.060621444 0.23000018 0.036532354 0.2081288
0002d0 25 a2 4f 3d 13 46 55 3e 4b ce dd bd 8a 04 8f be
       0.050691742 0.20827512 -0.10830363 -0.2793315
0002e0 d4 28 3f 3e 15 17 84 bd 39 2a 7b 3e 88 c2 83 be
       0.18667918 -0.06449715 0.24527825 -0.25734353
0002f0 69 42 7c 3e 8b 9f 83 bd 7e de bd 3d 22 42 29 3b
       0.24634708 -0.06426915 0.09270953 0.0025826772
000300 68 8a 94 3e 09 51 06 be 2a 6b 08 3c 15 c9 7c 3e
       0.29011846 -0.1311685 0.008326331 0.24686082
000310 0e 25 26 3e 8a dc 2c be e9 8a 88 bd 53 48 8a 3e
       0.16225073 -0.16881004 -0.0666712 0.27008304
000320 ec aa 4f 3e e8 ce 2a 3e ae 7d eb 3d 71 14 46 3e
       0.20280045 0.16680491 0.11498581 0.19343735
000330 af fd 7e bb 42 cf e8 bd bf a6 c0 bc 8b be 64 3e
       -0.0038908531 -0.11367656 -0.02351701 0.22338311
000340 e6 2c 15 be 00 6e 94 bd 23 bd 6b be d6 e6 63 be
       -0.14567909 -0.07247543 -0.23021369 -0.22256026
000350 c5 37 b6 bd ae 46 10 be e5 5d 58 3e fb 9f a6 3e
       -0.08897356 -0.14089462 0.21129568 0.3254393
000360 c3 c4 1e 3e 0e 72 4e 3e f4 cb 6d 3e 06 98 cc bd
       0.15504746 0.20160696 0.23222333 -0.09989934
000370 60 2a f8 3d 4f 1c 50 3e 40 4d 26 3e b6 36 aa be
       0.121174574 0.20323299 0.16240406 -0.33244866
000380 76 c0 de 3c c0 39 e3 bd b1 48 16 3e c4 f5 1b be
       0.027191382 -0.11094999 0.14676167 -0.15230471
000390 79 b3 31 bd 07 3a 84 bd 57 97 a1 bd 01 34 46 be
       -0.04338405 -0.0645638 -0.07890194 -0.19355775
0003a0 98 94 99 3d 3e 91 e5 bc 68 06 8d 3e f7 1c 66 be
       0.07499045 -0.028023358 0.2754395 -0.22471987
0003b0 d7 4d 5e 3d a4 3c 9a be 0d f6 8e 3e e8 fb bb 3e
       0.054273453 -0.3012439 0.27922097 0.36715627
0003c0 7f a5 eb bd a7 c5 b0 3c 44 f2 d3 bd 6b 73 22 be
       -0.11506175 0.021578623 -0.10348943 -0.15864341
0003d0 64 3f 73 3e 80 af 4f be f7 03 4e 3e 62 73 aa 3c
       0.2375465 -0.20281792 0.201187 0.020806972
0003e0 71 fb 13 3d 31 10 e0 3c ac c0 97 bd 38 df 4c be
       0.036128465 0.02735147 -0.07409796 -0.20007026
0003f0 d2 72 c1 3d a7 f7 7c be ed 20 c4 3d 73 1d 33 be
       0.09445728 -0.24703847 0.095765926 -0.17491703

sequential_4/conv1d_8/Conv1D f4 [64, 1, 3, 3]
000000 b9 9c b7 bd d9 52 cc bd 06 71 e5 3b 8d 01 9b bd
       -0.08965439 -0.099767394 0.007001999 -0.07568655
000010 be 54 21 bc fb 1b 05 be 8f a7 0f 3e 54 9f dd 3d
       -0.009846864 -0.12998955 0.14028762 0.10821405
000020 8a 34 bf 3c c0 ce 01 be 3c 87 8d 3d c1 47 07 3e
       0.023340482 -0.12676525 0.069105595 0.13210966
000030 83 f0 86 3d d7 73 d1 bd 69 8b 90 bb 5c be be bd
       0.06588843 -0.10227173 -0.0044111502 -0.09313652
000040 6c 5d cd bd 0b 81 da bd 73 06 c5 bd c1 9b 5b bd
       -0.100275844 -0.10669144 -0.09620371 -0.053615335
000050 34 85 bc bb 0a b4 cd 3d c8 52 79 bd 63 35 00 3e
       -0.0057531837 0.10044105 -0.060869962 0.12520365
000060 e1 ad e9 bd b2 e6 82 3a 85 ba ed bd 49 63 66 3c
       -0.11410118 0.0009986965 -0.116078414 0.014061757
000070 6b ce 7a 3c 69 e6 17 3e f5 a4 3a 3d 42 1b e0 bd
       0.015308003 0.14833988 0.04556747 -0.10942699
000080 8a 10 a3 ba f4 0b e3 3d a9 69 ef bd 54 1d af bb
       -0.0012440842 0.11086264 -0.11690075 -0.0053440724
000090 a0 67 92 3b df 5e e6 bd fe ef 16 be e3 d4 2c bd
       0.0044679195 -0.11248564 -0.14739987 -0.042195212
0000a0 1e 27 b6 bd e1 e9 40 3b bd 0c b5 bd f6 84 8a bd
       -0.0889418 0.0029436278 -0.0884032 -0.067636415
0000b0 c3 49 ea 3d 77 a7 10 bd 8b 99 b5 3d 8e 87 2d be
       0.1143985 -0.035315957 0.088671766 -0.16946241
0000c0 bc e4 14 be ce 49 d3 3d cc a5 bc 3d cb 44 80 bb
       -0.1454038 0.103168115 0.09211311 -0.0039144508
0000d0 c2 99 fe 3d 18 5a 30 be 9c 3c 12 be 8e c9 5c 3d
       0.12431671 -0.17221868 -0.14280933 0.053903155
0000e0 89 8d f2 3d 16 bc eb bd 14 34 7f bd 3b d0 cb bc
       0.11843402 -0.11510484 -0.062305525 -0.024879565
0000f0 48 0e e3 bd 74 a6 8c 3d 9a db 79 3d 7b c6 d7 3d
       -0.11086708 0.06867686 0.061000444 0.10535904
000100 14 22 0a bd b8 67 26 3d b3 a2 a0 bd 64 bc eb bd
       -0.033723906 0.040626258 -0.078435324 -0.11510542
000110 a9 19 4a bd ef be 04 be fd f6 a3 3d be 29 d9 3c
       -0.049340878 -0.1296346 0.08006094 0.026509162
000120 51 2d 20 3e ac b9 e4 3d 63 e0 e1 3c dd a8 8f bd
       0.15642287 0.111682266 0.027572816 -0.0701463
000130 44 28 b0 3d e5 cd e3 bd 30 7e b1 3d 79 5c 28 3e
       0.0860143 -0.11123256 0.086666465 0.16441526
000140 e8 c7 bd bd 72 94 0c bd 92 6a 26 3e 8a 74 0d be
       -0.09266645 -0.034321256 0.16251591 -0.13813987
000150 bd bf 25 3e 6d df 17 bd 7b 9a 54 bc 9c b0 d9 3d
       0.16186424 -0.03707831 -0.012976284 0.10629389
000160 18 b2 9c 3d 77 28 21 be 96 c8 b9 3d a3 6d b2 3d
       0.07651156 -0.15738092 0.09071462 0.08712318
000170 74 2d b5 3d 67 9b 53 3d 99 ac 6d 3d c7 f6 0a 3e
       0.0884656 0.051661875 0.05802593 0.135707
000180 59 1a 50 3d 7a af 91 3d c3 c1 c9 3d 7b ab 19 bd
       0.050806377 0.071135476 0.0985141 -0.037517052
000190 3f 15 eb bd 34 69 00 be cd 90 18 3e 10 d0 af bb
       -0.11478662 -0.12540132 0.14898987 -0.005365379
0001a0 d7 a8 fc 3d 4b d9 f0 3c 61 3b a9 bd a2 24 25 3d
       0.12336891 0.029400488 -0.08263279 0.04031814
0001b0 4f d6 1e 3d fd fe 13 3e 80 b1 bd bd df f9 a0 3d
       0.0387786 0.14452739 -0.09262371 0.07860159
0001c0 6e 91 d9 bd bb bf b9 bc 4d 64 6d 3d da 30 0e be
       -0.10623442 -0.022674432 0.057956982 -0.13885823
0001d0 e9 8e 38 3d f7 d5 21 be c2 c1 06 3e 6d 73 1d bd
       0.045058165 -0.15804277 0.1315985 -0.038440157
0001e0 23 cb 93 3c 2b 1f 17 bc 46 15 22 bd 86 38 a6 3d
       0.0180412 -0.00922374 -0.03957107 0.0811625
0001f0 bd 9b 17 3e d1 9b c7 3c d2 75 07 be 13 06 aa 3d
       0.14805503 0.024366291 -0.13228539 0.0830194
000200 16 c3 f3 3d 77 c7 5d bd db e0 86 3d de a7 92 bd
       0.11902444 -0.054145303 0.065858565 -0.071609244
000210 a3 5d 9b 3d f7 c6 11 be b2 bb fc bd 30 48 fe bd
       0.07586219 -0.14236055 -0.123404875 -0.124161124
000220 5c c3 e4 bd 81 13 18 bc 67 19 db bd 2f 07 88 3d
       -0.11170074 -0.009281994 -0.106982045 0.06641995
000230 22 9e d2 bd 1f d8 1c 3e b5 80 0a be 53 9e dd 3d
       -0.10284068 0.15316819 -0.1352566 0.108212136
000240 2c 91 50 3d b9 cf d9 3c c8 84 b8 3d 8f 9b e6 3c
       0.050919697 0.026588308 0.09009701 0.028150348
000250 93 47 e4 3d 9e ef 69 3c 36 aa 91 3d 00 e7 0f 3e
       0.11146464 0.014278321 0.07112543 0.14052963
000260 74 fb 90 bd ef 9e 08 bd 7d a0 08 3e a3 0e bb bd
       -0.07079211 -0.033354696 0.13342471 -0.09133651
000270 de b6 fe bd 39 54 2b 3c 34 4e ad 3d d8 75 16 3e
       -0.12437223 0.010457092 0.08462182 0.14693391
000280 66 80 1a be 06 4a e8 bd 70 d4 8d 3c b0 3b c8 3d
       -0.15088043 -0.11342244 0.017313212 0.097770095
000290 a7 96 d9 bd 29 2e c0 bd 14 02 37 3d 30 5e 7e 3c
       -0.10624438 -0.09383804 0.044679716 0.015525386
0002a0 21 e3 8a 3d 6c 3f 1d be 45 88 f7 bd 72 68 28 3e
       0.06781603 -0.15356225 -0.12086538 0.16446093
0002b0 04 02 8d bd 9a 03 a4 3d ed 2b 21 bd b0 b9 79 3d
       -0.0688515 0.080084994 -0.03934853 0.0609681
0002c0 86 3a 2b be d7 2e ce bd 12 87 df bd d1 da 93 3d
       -0.16721544 -0.10067528 -0.109144345 0.0721947
0002d0 b6 0d 9a bc 1d 9b f0 bd c8 41 0f be 6c 5f e9 3d
       -0.018805366 -0.117483355 -0.13989937 0.113951534
0002e0 c5 31 11 3e b1 ba 6d 3d b2 8b e5 3c 93 96 bc 3d
       0.14179142 0.05803937 0.028020713 0.09208407
0002f0 58 79 b3 3d 0a 93 07 3e 53 33 d3 bd 26 9e 50 3d
       0.08763379 0.13239685 -0.10312524 0.050932072
000300 4d 58 22 3e 37 56 09 bb f4 e0 00 bc 75 17 e4 bd
       0.15853997 -0.002095593 -0.007866133 -0.111372866
000310 19 4e 19 3e 7f 0f 13 3d cb 47 23 3d 35 83 10 3e
       0.14971198 0.03590345 0.03986339 0.14112552
000320 73 3a b3 3d 5d 8e a6 3d 3f c0 c7 bc 6d d1 04 3e
       0.08751383 0.081326224 -0.024383662 0.12970515
000330 a6 bb 08 3e ae 61 c7 bd f1 04 06 3d b1 6d d0 bc
       0.13352832 -0.09735428 0.032719556 -0.02544293
000340 1c 17 28 3e 75 31 1b 3e c6 07 3f bc 37 3a 3b 3e
       0.16415066 0.15155585 -0.011659568 0.18283926
000350 77 f7 10 be ec a7 cc bc 18 8c 98 bd e3 ff a1 bc
       -0.141569 -0.024982415 -0.07448596 -0.019775337
000360 fa 96 07 3d 90 58 8b 3d 3b ed 32 be e4 e3 0b 3e
       0.033102967 0.06804001 -0.17473309 0.13661152
000370 bd 30 c4 3d dd 3e 19 3d 93 84 ab bd f1 7d d2 3c
       0.095796086 0.037413467 -0.08374896 0.02569482
000380 84 3b 84 3d 68 17 9a bb e5 e2 20 be 86 27 17 be
       0.06456664 -0.0047024973 -0.15711553 -0.1476117
000390 33 5e 37 3c f6 d8 ef bd 22 39 8b 3d 4b 07 d7 3d
       0.011191892 -0.11711304 0.067980066 0.10499438
0003a0 b9 14 48 3d f3 e2 20 3d 2c ee 8f 3d ef 28 db 3d
       0.048847888 0.039278936 0.070278496 0.10701167
0003b0 e9 dd c5 bb a3 c0 62 bd a2 9a cc 3b 4a 2f 4e 3d
       -0.0060384166 -0.055359494 0.0062440196 0.050338067
0003c0 aa 8c 85 bd b9 7b 21 3e 31 64 20 be d1 6e 51 3d
       -0.0652097 0.15769853 -0.1566322 0.051131073
0003d0 30 8d 10 be 03 58 bd 3d 78 87 8c 3d 0e 66 e1 bd
       -0.14116359 0.092453025 0.06861776 -0.110057935
0003e0 cf 21 6c bd fe 20 f2 3d 46 9a 37 bd 5e 14 63 3d
       -0.05764943 0.11822699 -0.04482486 0.055439346
0003f0 f8 36 f4 bd e7 07 bf 3d 9a aa a4 bd 71 84 1d 3d
       -0.11924547 0.09327679 -0.08040352 0.038456384

sequential_4/conv1d_9/Conv1D f4 [128, 1, 15, 64]
000000 ef 38 10 3c c0 b7 8f bb 08 3e c8 3a e3 d7 54 3b
       0.0088026365 -0.0043859184 0.0015277276 0.0032477311
000010 cb 45 b4 bb d0 42 b4 3b 0b f3 44 ba 40 ce b7 bb
       -0.005501484 0.0055011287 -0.0007513023 -0.0056093037
000020 c5 73 0f bb b9 ec a1 3b d4 1e ad bb 68 59 ce ba
       -0.0021889072 0.0049415496 -0.005283216 -0.0015743198
000030 ae fd 4b bc 23 52 a2 ba 3a 73 ea bb 76 08 f8 bb
       -0.012450619 -0.0012384098 -0.0071548494 -0.007569368
000040 38 21 00 bb bd fe a7 3b 90 5d 10 39 d6 f8 35 bb
       -0.001955105 0.0051268027 0.00013767765 -0.0027766726
000050 d2 96 c1 bb 5e 4c b1 bb 98 8c 9c ba 78 ee b3 bb
       -0.0059078718 -0.005410715 -0.0011943756 -0.005491074
000060 ef 4b 0d bb 2f 7b 5c 3b a3 5f 0f bc 27 17 07 3b
       -0.0021560153 0.003364276 -0.008750829 0.0020613165
000070 08 9e 02 bc 56 6d f7 ba 24 3a 13 bb 8e 70 af 3a
       -0.007972248 -0.0018877189 -0.0022465074 0.0013384984
000080 a1 67 76 ba 2c 3f 56 3b 06 1e c5 bb 52 ce 4a 3c
       -0.0009399597 0.0032691462 -0.006015542 0.012378292
000090 9d fe 9b bb 9b 0e 07 bc b8 51 61 bc 37 25 54 bb
       -0.004760577 -0.008243228 -0.013752393 -0.0032370815
0000a0 ca a0 e9 3b 89 fe 1c bb 66 56 71 bb 07 f1 4b 3b
       0.0071297633 -0.0023955426 -0.003682518 0.0031119005
0000b0 fd cb 80 bb 48 2b a5 3a 23 5d 18 ba 05 db 59 3b
       -0.0039305673 0.00126014 -0.00058122183 0.0033242118
0000c0 7f f2 6b 3b 19 03 94 ba 29 2b 82 bb 0f 62 a1 3b
       0.0036002693 -0.0011292427 -0.0039724302 0.0049250196
0000d0 b2 af f0 3b a8 fc 4e 3c f9 c5 78 3b df 78 a0 ba
       0.0073451633 0.01263348 0.0037959798 -0.0012243054
0000e0 e9 23 58 3a 7a 24 91 bb 69 9c 1c bb ae 8b b1 bb
       0.0008245097 -0.004429397 -0.0023896939 -0.0054182624
0000f0 76 76 84 bb a0 1c 21 bc a9 e6 a7 bb 3c 77 1e 3c
       -0.004042442 -0.009833485 -0.0051239324 0.009671982
000100 bc 84 08 3b 0c 17 30 bb db 30 19 bb 87 00 97 ba
       0.002083107 -0.0026869206 -0.0023375067 -0.0011520543
000110 03 56 24 bb 24 8e 01 3c 9a 91 d8 39 8b 12 ca bb
       -0.002507568 0.007907424 0.00041307212 -0.0061667613
000120 ec 87 5e 3c 1c dd e8 3b ce 54 e1 ba 22 d4 94 bb
       0.013582211 0.0071064364 -0.0017191411 -0.0045418898
000130 e0 28 3a 3c 0b 42 c9 3a 65 43 6a 3b 52 04 cd bb
       0.011362284 0.0015354765 0.0035745737 -0.0062566185
000140 57 f3 ee bb 8e 13 bf 3b 68 c0 cc 3b f9 51 bd 39
       -0.007292192 0.0058311885 0.0062485225 0.00036109964
000150 4c c8 01 bc cb 7c 3a bb c9 1e bc bb 8c 66 cc 3b
       -0.00792129 -0.002845573 -0.0057409746 0.0062378105
000160 62 a6 35 3c 18 24 6a 3b 5e 5f 29 bc b6 28 20 bc
       0.011087032 0.003572708 -0.010337679 -0.009775331
000170 4d 1b 87 3a d9 4a 1f ba fe 73 95 ba 1c 18 74 bb
       0.0010307819 -0.0006076522 -0.0011402366 -0.0037245816
000180 98 78 ff 3b 3b 62 ab bb 2f 27 89 3b b6 7c 86 3b
       0.0077963583 -0.005230216 0.0041855793 0.004104222
000190 58 1d 8e bb 0b 33 f5 3a 6d 14 99 37 db 14 8d bb
       -0.004336994 0.0018707229 1.8248533e-05 -0.0043054647
0001a0 38 25 24 3c 15 e0 79 bb 71 7f 17 bb 32 97 2e 3b
       0.010018639 -0.0038127948 -0.0023116732 0.0026640412
0001b0 ab d6 3b bb 19 63 c0 3b 4a 79 17 bb 20 87 74 3b
       -0.0028661888 0.0058711884 -0.0023113065 0.0037311986
0001c0 8f a2 dc 3b a1 cb dc ba 5c c0 81 bb 95 9d 4c 3b
       0.0067332457 -0.0016845354 -0.0039596986 0.0031221856
0001d0 88 8b c2 3b 83 30 2b bc aa e0 e2 bb 63 d7 9d bb
       0.0059370436 -0.010448578 -0.0069237547 -0.004816936
0001e0 f1 86 d2 b9 74 19 a8 ba 73 62 1a bb 7f f3 15 bb
       -0.0004015486 -0.0012824968 -0.0023557215 -0.002288073
0001f0 f6 27 d9 bb 20 8a 67 3b 8f 83 13 3a 21 40 48 3b
       -0.006627078 0.0035330132 0.0005627209 0.0030555802
000200 65 de c7 3b 47 0f b4 39 87 72 0a bb 40 2a 6c 38
       0.0060995095 0.00034343658 -0.0021125393 5.6306133e-05
000210 03 56 dd ba bd 94 18 3c bb ea e1 3a fa 9f 88 bb
       -0.0016886595 0.009312806 0.0017236093 -0.0041694613
000220 57 c8 73 b9 e3 67 2b 3c 39 e0 92 bb 07 49 37 bb
       -0.00023248918 0.01046178 -0.004482296 -0.0027967112
000230 7a be eb bb c4 1e fb ba 72 f1 3e b9 c1 51 d1 bb
       -0.0071943374 -0.0019158949 -0.00018209757 -0.0063879197
000240 fa 20 7e bc b3 5a 58 bb f2 88 1f 3c 83 46 70 bb
       -0.015510792 -0.0033013045 0.00973724 -0.0036663122
000250 07 9a 0b bc b1 cf 3f 3b f0 ba e2 bb c1 44 95 3b
       -0.00852061 0.002926808 -0.0069192573 0.0045553152
000260 04 b6 58 3b ad f2 c7 3b 41 3a 89 ba 78 be 76 bb
       0.0033067474 0.0061019273 -0.0010469632 -0.003765015
000270 cd ec 42 bc 35 e7 64 3a b3 94 3a bb 09 f3 ae 39
       -0.011897278 0.00087319623 -0.002846998 0.00033368942
000280 7f 2f 41 bb 4a c4 43 bb d9 21 de bb 02 5d 0b bc
       -0.0029477773 -0.0029871636 -0.0067789373 -0.0085060615
000290 59 7a da ba 15 30 16 bc dc ac 5e bb 7c 04 ef bb
       -0.0016668543 -0.009166737 -0.0033977544 -0.0072942358
0002a0 00 7e 4c 3c 98 61 2b 3c 37 36 1a 3b e0 65 af bb
       0.012481213 0.01046028 0.002353085 -0.0053527206
0002b0 1b cc bc bb 85 cd 8e 3b 2a 1d ee 3b 15 15 24 bb
       -0.005761636 0.004357996 0.00726666 -0.002503698
0002c0 0c d4 e3 39 0c 4c 4d bb 09 6e 52 bb b2 06 2b 3c
       0.000434548 -0.0031325845 -0.0032109043 0.010438608
0002d0 06 20 b8 3a 8a 75 c9 3b d5 89 c2 3a 4c 04 bd bb
       0.001404763 0.006148045 0.0014842103 -0.0057683345
0002e0 77 1a 87 bb ee a4 11 bb 53 d9 7b bb ac f3 3e bb
       -0.004123028 -0.002222355 -0.0038429096 -0.002913694
0002f0 fd 59 21 bc 8a de 81 bb aa e8 86 bb dd 9b 74 3c
       -0.009848115 -0.0039632963 -0.004117091 0.014929739
000300 91 58 53 bb 5c a8 a8 b8 c3 9f 95 bb fd d8 c3 bb
       -0.0032248835 -8.0422236e-05 -0.004566164 -0.0059767948
000310 e2 46 21 bc 6d d3 ee bb f9 03 94 ba cb 9b 16 bb
       -0.00984356 -0.0072883875 -0.0011292688 -0.0022981043
000320 ac 16 16 bb a2 1f 5f 3b 23 08 b5 ba 51 b9 96 bb
       -0.0022901697 0.0034045954 -0.0013811629 -0.004599728
000330 0a c9 31 ba 87 24 40 3b 1a 65 c0 3b bb 6b c9 ba
       -0.00067819713 0.0029318647 0.0058714272 -0.0015367189
000340 e0 a8 af bb 0b b3 f1 3b 13 ec 37 ba 5f fe a1 b9
       -0.0053607076 0.00737608 -0.0007016074 -0.00030897834
000350 59 50 cb bb 95 54 ee b9 45 3f 0c 3b 44 93 ae 3a
       -0.0062046465 -0.00045457916 0.0021400016 0.0013319035
000360 f8 d0 64 37 96 9a db bb 48 d1 a8 3b 4c 42 2f bb
       1.3638513e-05 -0.0067017777 0.0051519014 -0.0026742397
000370 20 08 38 bc f6 6b c6 bb b2 24 fe ba 2f 3d e5 ba
       -0.011232406 -0.0060553504 -0.0019389598 -0.0017489548
000380 41 9a 20 bc da e3 86 3b 7f f5 05 bb 32 19 3b 3c
       -0.009802402 0.0041165175 -0.0020440517 0.011419581
000390 ac e4 3c bb 1c 61 ab bb ec 83 0e 3a e9 15 0e ba
       -0.0028822822 -0.005230082 0.0005436528 -0.0005420135
0003a0 be fa 76 bb 29 01 4c 3c 3f 43 cf ba 90 7d 2c 3b
       -0.0037686075 0.0124514485 -0.0015812888 0.0026319958
0003b0 d2 cf 8b bb 0d 03 25 3c e2 1b 2e b9 a1 b2 af bb
       -0.0042667175 0.010071528 -0.0001660432 -0.0053618704
0003c0 92 8d 0c bb 52 c2 61 bb 97 81 a7 ba 5c b7 05 bc
       -0.0021446687 -0.00344481 -0.001277971 -0.008161392
0003d0 18 f5 45 3b 4c 00 76 bb d3 f9 67 3b f0 29 47 3c
       0.0030205902 -0.0037536798 0.003539671 0.012155995
0003e0 c0 8c 09 38 f4 16 d6 b9 00 85 fb ba fd 54 9f 3a
       3.279443e-05 -0.00040834362 -0.0019189417 0.0012156066
0003f0 41 07 09 bc 28 89 cf b9 7b 5d 84 3b 14 75 2e bb
       -0.008363546 -0.00039584306 0.004039464 -0.0026620077

sequential_4/batch_normalization_13/batchnorm/sub f4 [128]
000000 50 1b 23 bf fc 78 1d bf a9 90 36 bf d0 1d 35 bf
       -0.6371355 -0.6151273 -0.71314484 -0.70748615
000010 1e ff 27 bf 0d 0f 49 bf 7e ad 61 bf 6b 7c 3e bf
       -0.6562365 -0.7853859 -0.88155353 -0.74408597
000020 2f 91 20 bf a4 d0 37 bf 2b a3 38 bf 8b c5 31 bf
       -0.6272153 -0.71802735 -0.72123975 -0.6944205
000030 88 31 35 bf d2 0b 39 bf 80 58 40 bf 70 5c 4c bf
       -0.70778704 -0.7228366 -0.7513504 -0.7982855
000040 76 2c 3d bf 08 2a 56 bf 58 ec 30 bf 75 8d 11 bf
       -0.73895967 -0.83657885 -0.6911063 -0.5685647
000050 50 d9 37 bf 79 d0 34 bf aa 1f 44 bf a4 51 1e bf
       -0.7181597 -0.70630604 -0.76610816 -0.61843324
000060 8c 46 65 bf 46 36 63 bf 81 a9 2e bf 24 cd 5c bf
       -0.8956077 -0.8875469 -0.6822739 -0.8625052
000070 7a 61 33 bf cd 3d 2c bf 14 61 3a bf 06 a0 6b bf
       -0.7007061 -0.672818 -0.7280438 -0.9204105
000080 1e d2 67 bf a9 d9 44 bf c5 7a 53 bf 63 9b 48 bf
       -0.9055499 -0.76894623 -0.82609206 -0.783621
000090 52 11 4c bf 37 fe 43 bf 0b ec 14 bf 48 ff 4b bf
       -0.7971393 -0.76559776 -0.58172673 -0.79686403
0000a0 c8 68 42 bf 0f 50 32 bf f1 bc 3a bf 18 50 18 bf
       -0.75941133 -0.6965341 -0.7294455 -0.59497213
0000b0 ac 18 33 bf 7b 2a 75 bf 28 b3 3b bf f7 5c 2f bf
       -0.6995952 -0.95767945 -0.73320246 -0.6850123
0000c0 12 74 20 bf 32 16 56 bf 56 14 14 bf 4e 76 eb be
       -0.6267711 -0.8362762 -0.5784353 -0.45988697
0000d0 b5 88 4f bf da 0e 13 bf 70 67 38 bf 8e a7 20 bf
       -0.81067973 -0.57444537 -0.72032833 -0.6275567
0000e0 bb 81 20 bf 1c d3 4d bf f2 7c 35 bf 4d b6 27 bf
       -0.62697953 -0.8040025 -0.70893776 -0.65512544
0000f0 bc 1f 55 bf 2b 30 35 bf b3 cf 43 bf f2 18 50 bf
       -0.8325155 -0.70776623 -0.764888 -0.81288064
000100 e3 d8 2f bf b9 e0 00 bf 0f 26 26 bf e2 b8 2a bf
       -0.6869032 -0.503429 -0.6490182 -0.6668836
000110 93 2c 63 bf af 62 60 bf ef 3b 36 bf 24 3f 03 bf
       -0.8873989 -0.8765058 -0.711852 -0.5126822
000120 9d cf 4c bf 2e 7d 03 bf bb 6f 39 bf ce f6 29 bf
       -0.8000429 -0.51362884 -0.7243611 -0.6639222
000130 80 0f 1c bf b8 33 17 bf ac 1e 3a bf c0 ca 6b bf
       -0.6096115 -0.5906329 -0.7270305 -0.92106247
000140 72 4c 26 bf 5c fc 59 bf ee 6f 20 bf ff 49 2d bf
       -0.64960396 -0.85150695 -0.6267079 -0.67691034
000150 fc 99 09 bf ae 18 70 bf 29 71 45 bf b9 8c 2a bf
       -0.53750587 -0.9378766 -0.77125794 -0.66620976
000160 3a bd 3a bf 8c 26 32 bf fd 49 33 bf 7d d1 76 bf
       -0.72944987 -0.6959007 -0.7003477 -0.96413404
000170 b3 ef 42 bf 2e 06 3e bf bf 6d 44 bf 62 ad 4e bf
       -0.76147 -0.7422818 -0.7672996 -0.8073331
000180 23 a3 80 bf f2 a1 35 bf 1b 39 4b bf cb 99 40 bf
       -1.0049785 -0.70950234 -0.7938401 -0.7523467
000190 b6 8d 48 bf 56 fb 82 bf e0 ce 27 bf 2d cd 42 bf
       -0.78341234 -1.0232952 -0.6555004 -0.76094323
0001a0 d2 86 29 bf 58 51 48 bf 1b 55 14 bf c2 63 43 bf
       -0.66221344 -0.7824912 -0.5794236 -0.76324093
0001b0 02 81 3b bf aa cd 4f bf 89 a5 21 bf db 9c 55 bf
       -0.73243725 -0.81173193 -0.6314321 -0.8344247
0001c0 34 dd 78 bf bd 8f 50 bf 02 bf 2d bf 56 cb 52 bf
       -0.9721253 -0.8146933 -0.6786958 -0.82341516
0001d0 a1 d3 4d bf 2a c0 75 bf 33 b7 0e bf 12 f7 32 bf
       -0.80401045 -0.95996344 -0.5574829 -0.6990825
0001e0 b0 48 6a bf 3a fb 22 bf 52 cc 6a bf a9 5a 38 bf
       -0.9151716 -0.6366459 -0.9171802 -0.72013336
0001f0 96 8d 28 bf fb 14 02 bf 1a 01 0f bf e5 d2 37 bf
       -0.65841043 -0.50813264 -0.55861056 -0.71806175

sequential_4/batch_normalization_13/batchnorm/mul f4 [128]
000000 73 b2 ca 3f 5a ac b9 3f 68 47 3b 40 6f c3 e3 3f
       1.5835708 1.4505723 2.9262333 1.7794017
000010 96 3a eb 3f 8c dc 15 40 5a 85 03 40 b7 95 f2 3f
       1.8377254 2.341586 2.0550141 1.8951939
000020 f1 b5 a6 3f 3c f1 1b 40 74 8c 08 40 a8 07 d8 3f
       1.3024274 2.4365988 2.1335726 1.6877337
000030 8e da 3e 40 6e 0f f3 3f 2c 08 0c 40 55 3e 0e 40
       2.9820895 1.8989084 2.1879988 2.2225544
000040 89 50 e6 3f 47 b5 b4 3f 12 24 f8 3f f0 4f d3 3f
       1.7993327 1.4117821 1.9386008 1.650877
000050 68 28 c0 3f 15 f5 bc 3f 0e 3e ce 3f ed 99 d5 3f
       1.5012331 1.4762293 1.6112688 1.66876
000060 08 b8 3e 40 62 dd e9 3f 35 cd b4 3f f6 e0 18 40
       2.9799824 1.8270686 1.4125124 2.3887305
000070 9b c0 2a 40 5a 71 dd 3f d1 4e c9 3f 36 2a 1e 40
       2.6680057 1.7300217 1.5727178 2.4713264
000080 19 92 00 40 db 46 c3 3f cb cf 17 40 69 ba 1a 40
       2.008917 1.5255998 2.3720577 2.4176276
000090 f8 3b 02 40 08 82 1d 40 b8 8c ac 3f d8 8e cc 3f
       2.0349102 2.4610615 1.3480444 1.5981092
0000a0 53 25 d3 3f 08 cd a3 3f 4d 4d 16 40 35 d0 23 40
       1.6495765 1.2796946 2.348468 2.559583
0000b0 8d d8 bb 3f b1 10 cd 3f 26 3b 18 40 4c 67 b6 3f
       1.4675461 1.6020719 2.3786101 1.4250274
0000c0 f9 47 0a 40 c5 73 d0 3f ff a2 0e 40 b9 f7 ee 3f
       2.1606429 1.628533 2.2286985 1.8669349
0000d0 07 76 fe 3f 2a be 26 40 b4 d1 0a 40 34 bb c0 3f
       1.9879769 2.6053567 2.1690493 1.505713
0000e0 94 ca de 3f 16 8c ca 3f 77 82 08 40 1c e0 e1 3f
       1.7405572 1.5824001 2.132963 1.7646518
0000f0 f7 1c f9 3f 52 a4 d5 3f 83 52 cd 3f 73 a2 17 40
       1.9461964 1.6690772 1.6040806 2.36929
000100 ed b9 ac 3f 9c 0b cf 3f 96 4a c3 3f e1 23 b7 3f
       1.349424 1.6175418 1.5257137 1.4307824
000110 ef 8d 0b 40 25 93 d2 3f c8 d0 f0 3f 22 e9 eb 3f
       2.180538 1.6451155 1.8813715 1.8430521
000120 34 7c ea 3f 66 20 c8 3f a1 65 18 40 96 43 bc 3f
       1.8319154 1.5634887 2.381203 1.4708126
000130 89 80 d2 3f 9a 12 39 40 60 9d ad 3f b4 ff d0 3f
       1.6445476 2.8917603 1.3563652 1.6328034
000140 78 e2 a7 3f 87 ef e7 3f 64 cd a4 3f c6 58 fe 3f
       1.3115988 1.8119973 1.287518 1.9870842
000150 d4 25 46 40 bd cb db 3f e2 29 d5 3f 08 04 e4 3f
       3.0960588 1.7171551 1.6653407 1.781373
000160 b3 7d 17 40 31 a9 a9 3f 4a fe 1e 40 e2 ac 11 40
       2.367047 1.3254758 2.4842706 2.276177
000170 cc c4 31 40 84 c9 f6 3f 42 90 10 40 0c d8 22 40
       2.7776365 1.9280248 2.2588048 2.5444365
000180 d2 b0 d5 3f 17 af f6 3f 96 96 11 40 34 0d cc 3f
       1.6694586 1.9272183 2.274816 1.5941529
000190 11 e6 d2 3f 2f e9 0e 40 ef b6 c5 3f 70 86 13 40
       1.6476461 2.2329824 1.5446452 2.3050804
0001a0 e6 e9 f1 3f 49 45 ff 3f fc 2c c5 3f c0 b4 0b 40
       1.8899505 1.9943019 1.5404353 2.182907
0001b0 15 58 4d 40 ec a0 2b 40 0e 17 de 3f 38 1f cf 3f
       3.208501 2.681697 1.7350786 1.6181402
0001c0 b4 a6 f1 3f 59 93 e8 3f 15 68 da 3f bd e6 f5 3f
       1.8878999 1.8169967 1.7063013 1.9211041
0001d0 71 3a cd 3f 52 71 11 40 ba 1f dd 3f 10 24 89 40
       1.603346 2.2725415 1.7275307 4.285652
0001e0 26 99 ff 3f 7f b7 ff 3f e7 90 cb 3f 69 4a dc 3f
       1.9968612 1.9977874 1.5903596 1.7210208
0001f0 c1 a3 b5 3f 75 fd 38 40 ab a0 e4 3f 02 b5 ba 3f
       1.4190599 2.8904698 1.7861532 1.4586489

sequential_4/batch_normalization_12/batchnorm/sub f4 [64]
000000 8a fc d6 be 66 15 5e bf a2 88 5c bf 26 bc 61 bf
       -0.41989547 -0.867514 -0.86145985 -0.88177717
000010 58 c4 40 bf bb d5 1c bf 74 50 2f bf 0f a5 2d bf
       -0.75299597 -0.61263627 -0.68482137 -0.67829984
000020 4c 4c 06 bf 4e 09 20 bf 84 48 39 bf 91 ce 40 bf
       -0.5246017 -0.625142 -0.72376275 -0.75315195
000030 98 b4 36 bf 12 9a c1 bd d4 7d d7 be 46 e2 62 bf
       -0.71369314 -0.09453215 -0.42088187 -0.88626516
000040 42 ca c0 be 49 6c dd be 71 0b 27 bf 39 78 18 bf
       -0.3765431 -0.43246678 -0.65251833 -0.59558445
000050 bd dd e4 be a2 99 c7 be 41 5e 3a bf b8 51 7e be
       -0.44700423 -0.389844 -0.7280007 -0.2483586
000060 76 91 e0 be ca 87 5a bf 0b 20 b0 be df 57 57 bf
       -0.43860978 -0.8536345 -0.34399447 -0.84118456
000070 4f 00 4f bf 5e 69 e9 be 3f a2 e6 be 0c ee 04 bf
       -0.80859846 -0.455882 -0.4504566 -0.5192573
000080 dc 8f 1f bf 01 3b a7 be 6e b7 33 bf 92 ca 12 bf
       -0.62328887 -0.32662204 -0.70201766 -0.5734035
000090 03 72 1f bf 02 35 65 bf a0 43 42 bf c1 32 34 bf
       -0.62283343 -0.8953401 -0.7588444 -0.70389944
0000a0 bd 12 1b bf cf d6 87 be 50 76 b5 be ee 79 82 bf
       -0.6057547 -0.26531073 -0.35441828 -1.019346
0000b0 40 b4 fb be 28 3a eb be f5 af 25 bf 9e 58 89 bf
       -0.49160957 -0.45942807 -0.64721614 -1.0730169
0000c0 03 4e 20 bf 22 be 1a bf b9 bc 9d be 6a 42 14 bf
       -0.62619036 -0.6044637 -0.30808046 -0.5791384
0000d0 88 24 6c bf e8 22 2c bf 59 18 39 bf c6 94 71 bf
       -0.9224324 -0.6724076 -0.72302777 -0.94367635
0000e0 4c 7e 76 bf 12 0b 14 bf be f3 d7 be 9e fb 5c bf
       -0.96286464 -0.5782939 -0.42178148 -0.8632144
0000f0 e2 bd 0d bf 11 e1 0d bf 87 06 1f bf 46 54 df be
       -0.55367863 -0.5542155 -0.62119335 -0.43618983

sequential_4/batch_normalization_12/batchnorm/mul f4 [64]
000000 7b 52 ca 41 8e 07 8c 41 4c 1e 93 41 66 2c 23 41
       25.290274 17.503689 18.389793 10.198339
000010 dc 33 2a 41 30 a6 10 41 f5 06 20 41 4f bb c9 41
       10.637661 9.040573 10.0016985 25.21646
000020 df ea 39 41 af 91 df 40 cd 53 f6 40 64 fd 5f 41
       11.619842 6.9865336 7.6977296 13.999363
000030 a7 e5 7f 41 d7 f9 c6 41 f5 0b ab 41 e6 3f 52 41
       15.993567 24.871992 21.380838 13.1406
000040 4d 6d 9d 41 4d f9 bf 41 5f b3 56 41 19 e7 a1 41
       19.67837 23.996729 13.418792 20.23784
000050 63 d3 ac 41 67 63 81 41 73 68 01 41 60 9a b0 41
       21.603216 16.173536 8.088 22.075378
000060 65 da b2 41 7d 1e 48 41 79 80 97 41 47 5a 0a 41
       22.356638 12.507443 18.93773 8.64704
000070 ac a9 71 41 9e 81 08 41 bb 82 c8 41 ee 10 bf 41
       15.103924 8.531645 25.063833 23.883266
000080 17 c3 2d 41 46 ec 9f 41 4b e8 31 41 ef 85 32 41
       10.860129 19.990368 11.119212 11.157699
000090 c7 6d 8b 41 6d 01 21 41 16 f5 21 41 3a 79 a3 40
       17.428602 10.062848 10.122335 5.108548
0000a0 f4 85 25 41 22 42 bb 41 8b 6f ce 41 77 24 b6 40
       10.345203 23.407291 25.804464 5.6919513
0000b0 59 38 1f 41 91 20 a7 41 c8 e4 a9 40 64 02 db 40
       9.951257 20.890902 5.3091774 6.844042
0000c0 8f db 7d 41 99 d3 4e 41 db e3 d2 41 f9 43 a6 41
       15.866103 12.92666 26.361258 20.78319
0000d0 8b e5 2c 41 c2 a7 11 41 5a 99 95 41 59 3f ab 40
       10.806041 9.1034565 18.699879 5.351483
0000e0 c3 4c 12 41 31 a4 5f 41 fd 82 cb 41 d2 2a 87 41
       9.143741 13.977586 25.43896 16.895908
0000f0 5f 4b 67 41 b2 32 7e 41 1a 5e 90 41 f1 b0 92 41
       14.455901 15.887377 18.045948 18.336397

sequential_4/dense_8/BiasAdd/ReadVariableOp f4 [128]
000000 ab d9 f0 bc 4d b1 3a bd c5 b2 2d bc 34 f9 94 bc
       -0.029400667 -0.045579243 -0.010601704 -0.018185236
000010 fb b4 90 bd cf 68 22 bb 5b c2 d2 bb 4c 4b 32 bd
       -0.07065769 -0.002478171 -0.0064318604 -0.04352884
000020 f3 6f 04 bd 71 44 bf bc 2c ac c1 bc 3d 2b 9a bc
       -0.032333326 -0.023348065 -0.023641668 -0.018819446
000030 06 62 83 bc 0d 6e c6 bc cd 70 20 bd cf 96 59 bd
       -0.016037952 -0.024222398 -0.039170075 -0.053122338
000040 a4 05 1e 3b 90 e0 5b bc 17 0a 88 bb a6 a4 10 bd
       0.0024112249 -0.013420239 -0.0041515934 -0.03531327
000050 94 81 73 bc 22 16 ca 3c 24 bd 53 bd b2 73 ed bc
       -0.014862437 0.024668757 -0.05169405 -0.028985832
000060 10 1a 21 bc 6e 15 5b bc 2b c5 53 3c 52 22 54 bd
       -0.009832874 -0.013371808 0.0129254265 -0.051790543
000070 06 27 d1 bc df ff 3c bc 60 a0 56 bc ee e0 8c bc
       -0.025531303 -0.011535614 -0.01309976 -0.017197099
000080 96 d6 0d bd 08 5e cc bc 16 d0 20 bc 40 5e fb bc
       -0.034628473 -0.024947181 -0.009815237 -0.03068459
000090 13 cf d6 bc 94 d7 08 bd 5d 81 8e ba 7f a6 44 bc
       -0.026221788 -0.033408716 -0.0010872293 -0.012002586
0000a0 ec 05 14 bd 33 77 13 bd 9e 50 7f bb 8e ef 6c bc
       -0.03613846 -0.03600235 -0.0038957964 -0.014461411
0000b0 ed e1 05 bc 37 ce 3b bc b5 66 06 bc 8d cf 1a bc
       -0.008171541 -0.01146274 -0.008203198 -0.009448898
0000c0 cb 1e 97 bc eb 9a 0b bc c6 e8 b3 bb 16 78 66 bc
       -0.0184473 -0.008520822 -0.0054903952 -0.014066717
0000d0 65 ee 03 3c b2 c3 ed bc d6 79 02 ba b7 18 ff 3b
       0.008052443 -0.029023979 -0.00049772614 0.0077849287
0000e0 5a 3a 28 3a f3 23 a4 bc 6d cd 0b bd 6b 0e 52 bc
       0.00064173865 -0.020036673 -0.034131456 -0.01282082
0000f0 12 3e 53 bd 2d 6a c7 bb 5e 5d ce 3b ef 96 ab 3b
       -0.051572867 -0.006085655 0.0062977513 0.0052364985
000100 ce c5 13 bd 53 2e 4d bd 1a 24 9a bc c1 6b 5c bc
       -0.036077313 -0.050093006 -0.018816043 -0.013453425
000110 d1 8e 1f bd 6b 4c 9a 3b b0 f0 8a bc b1 85 a2 3c
       -0.03895456 0.0047088168 -0.016960472 0.01983914
000120 93 2f 8b bc dc 99 44 bc 57 f1 32 bd a1 11 d9 bc
       -0.016990459 -0.011999574 -0.04368719 -0.026497664
000130 df 77 98 bc 10 4e 50 bd ec 85 2a bc 1d 2b 0b bc
       -0.018611846 -0.050855696 -0.010407906 -0.008494166
000140 5a 5a ad bc 60 3c cb 3c 0a ae 4b bc 6f 27 21 bb
       -0.021161247 0.024809062 -0.012431631 -0.0024590155
000150 d6 d8 f2 bc 3e 58 00 bd af 8a 5e bc 19 e2 f6 bb
       -0.029644411 -0.031334154 -0.013582869 -0.007534277
000160 48 78 32 3c 75 56 66 bd e2 9f 7a bb 37 93 f8 bc
       0.010892935 -0.056234796 -0.003824227 -0.030343635
000170 60 01 d0 bc fa 82 ad bc 58 2a 4c bc b9 25 93 bc
       -0.02539128 -0.021180619 -0.012461267 -0.017962324
000180 8a cd 20 bd 31 d6 90 bb cd 24 10 3b 70 79 05 bd
       -0.039258517 -0.004420065 0.0021994591 -0.032586515
000190 c6 04 66 bc 2e c8 45 bc e1 44 38 bd 90 97 c6 bc
       -0.014039224 -0.012071652 -0.044987563 -0.024242193
0001a0 23 a2 dc 3a 9e ce c9 bc 2c ae 5d bc 0a 80 2c 3a
       0.0016832988 -0.024634656 -0.013530295 0.00065803586
0001b0 4f e3 09 3c d0 84 77 bc e3 22 61 bd 34 a6 98 bc
       0.008416011 -0.015107349 -0.05496491 -0.01863394
0001c0 97 9a 78 bc 88 9b 72 bc 2b a9 38 bb d0 2a 18 bd
       -0.015173576 -0.014807589 -0.0028177004 -0.037150204
0001d0 81 0b 8d bc 73 d5 af bc aa 91 cc bc cc b0 4e bc
       -0.0172174 -0.021464085 -0.024971802 -0.012615394
0001e0 00 8c 0d bb 5f b4 ad 3b ee 82 28 3c a8 26 20 bd
       -0.002159834 0.005301043 0.010285122 -0.039099365
0001f0 ab 36 70 bc 01 f3 6c 3b 27 8b 50 bc a1 f4 36 bd
       -0.014661471 0.0036155584 -0.012728489 -0.04466689

sequential_4/dense_8/MatMul f4 [128, 640]
000000 87 9f 13 3d 7d 9a 00 bd c7 36 67 bd 56 a0 15 3d
       0.03604081 -0.03139733 -0.056448724 0.03652986
000010 2c 9e 2a bd db 96 0b 3c 31 ba 39 bd b6 de de 3c
       -0.04165475 0.008519853 -0.04534358 0.027205806
000020 19 8e 87 3b c7 55 b2 bb 3b 51 d4 bc 8c 81 6b 3c
       0.0041368124 -0.0054423544 -0.02591764 0.014374148
000030 42 e0 a6 bc 69 89 ec 3c 61 50 7e 3c e7 f7 ca bc
       -0.020370606 0.028874116 0.0155220935 -0.024776412
000040 d8 50 a2 3c 60 42 3a 3d 25 ad 69 3d f6 c0 3a 3c
       0.01981394 0.045473456 0.05704989 0.011398545
000050 27 4e 50 bd 5f 34 66 3c 5a 9f 14 3d eb 47 04 3d
       -0.050855782 0.014050572 0.036284782 0.03229515
000060 bc 56 43 bd d9 71 61 bd 18 f0 1a bd b1 35 a7 3c
       -0.04769014 -0.055040214 -0.037826627 0.020411344
000070 8a b4 40 bd ca 1d 95 bc 3b 6a 62 3c c6 65 0f bd
       -0.047047175 -0.018202681 0.013819273 -0.035009168
000080 e0 83 03 3d 1f a2 ee bc 3d 6e 20 bc 23 81 d0 bc
       0.032108188 -0.02913004 -0.009791908 -0.025452202
000090 e9 51 0a bd ec 0c 5b 3c 1c 74 8e 3d 31 d4 91 3c
       -0.03376952 0.01336978 0.0695574 0.017801376
0000a0 4b dc 3f 3d fa b9 13 bc 4c e8 b1 3c 39 22 f5 bc
       0.046840947 -0.009016508 0.021717213 -0.029923545
0000b0 6e 80 ed bb ab a8 3b 3d b3 d5 87 bd b4 92 fb 3c
       -0.007247976 0.04581515 -0.06632557 0.030709602
0000c0 8b 17 32 3d 5d 12 84 bd ff 9c 3d bd 02 86 06 3d
       0.043479484 -0.06448815 -0.0462923 0.032842644
0000d0 cb f6 2a 3d 1b 69 71 3d fe cc 5b bc 39 3f 15 bd
       0.041739266 0.058938127 -0.013415573 -0.036437247
0000e0 44 0e 64 bd 4d ca 3c bd 93 9e 89 bc 2a c4 c6 bc
       -0.055677667 -0.046091367 -0.016799247 -0.02426346
0000f0 69 37 c3 3c a4 ed 13 ba 0b e8 df 3c 4a fe cb 3c
       0.023830133 -0.0005643016 0.027332326 0.024901528
000100 6f ef eb bc 8b f3 d8 bc d5 de 26 3d 38 1e 50 3c
       -0.028800694 -0.026483318 0.040739853 0.012702517
000110 2b 7e 4b 3d 26 80 77 3d b0 4e e5 3c af 54 ef 3c
       0.04968087 0.060424946 0.027991623 0.029215185
000120 64 6d bc bc 33 4b 15 3c 6b 3f 90 bc 99 e5 4c 3d
       -0.02300138 0.009112167 -0.017608365 0.05002365
000130 57 3d 77 3d 8b 1b c6 3c 8a f3 42 3b ae a8 31 bd
       0.060361233 0.024183055 0.0029747211 -0.043373756
000140 d6 d6 34 bd 1b bc 2d bd fb a0 49 bc 93 4a b2 bc
       -0.044150196 -0.04241572 -0.012306447 -0.021764075
000150 62 af 5f bd cf 5a 59 3d 48 bf f6 bb a4 a0 6c 3d
       -0.054610617 0.053065117 -0.0075301267 0.057770386
000160 3b 76 5e 3d 1a 6d 89 bd 9c 49 6f 3d f1 6f c6 bc
       0.054311972 -0.067102626 0.05841981 -0.0242233
000170 f0 72 b4 bc a2 c2 59 3c c6 39 bc 3c ce fc 32 bd
       -0.022027463 0.013291033 0.022976767 -0.043698125
000180 4e c3 e8 bc 38 6c e2 3b fc 02 59 3d 18 d7 df bc
       -0.028413441 0.0069098733 0.05298136 -0.027324244
000190 d4 70 57 bd 78 47 71 3d 49 49 2f bd aa 46 34 3d
       -0.052597836 0.05890605 -0.0427945 0.044012703
0001a0 89 12 9a bd 95 7f 9f 3a 09 50 45 3d 05 6c 12 3d
       -0.075230666 0.001216876 0.04817203 0.035747547
0001b0 7f ac 03 bd 06 ea 88 3d 21 c3 12 3c cc ef be 3c
       -0.032146927 0.066852614 0.008957655 0.023307703
0001c0 24 b5 5e bd 2e d4 e4 bc eb ce 52 bb c4 96 a6 bc
       -0.054371968 -0.027933206 -0.003216679 -0.020335563
0001d0 2a c0 a2 3c 9b 98 2f bb 4d 6a 88 3d 63 57 ce 39
       0.019867022 -0.002679384 0.066609 0.0003935649
0001e0 81 5a 86 bd 08 a5 30 bd 77 df 95 bd 21 d8 ed 3b
       -0.06560231 -0.043126136 -0.07318013 0.0072584306
0001f0 10 78 f1 bc c7 9a 15 3d 32 5c 4c 3d d0 a9 e5 bb
       -0.029476196 0.03652456 0.04989261 -0.0070087686
000200 6c db 4e 3c 14 41 d5 b9 7d f9 3a bd 0e de 21 bd
       0.012625556 -0.00040675013 -0.045648087 -0.03951841
000210 81 85 1b 3d 5e e7 a3 3d 2e 3a 16 3d cc e4 40 3c
       0.037969116 0.08003114 0.03667658 0.011773299
000220 eb 54 c2 3c a7 c5 3e 3d 2b f8 40 bd 08 06 8e bd
       0.023722133 0.046575215 -0.04711167 -0.06934744
000230 dd 3b 49 bd fa 2b 1e bd fb e2 f8 3c dc 9d 91 bd
       -0.049129356 -0.038616158 0.03038167 -0.071101874
000240 c7 d7 21 bd a7 71 34 bd 75 82 c7 bc ba 37 92 bc
       -0.039512422 -0.0440537 -0.024354199 -0.017848838
000250 46 26 fa 3c ec af 59 bc b6 09 41 3d 27 3b 31 3d
       0.030535828 -0.013286572 0.0471284 0.043269303
000260 0d a8 c4 3c 53 e9 48 3b 4b c0 55 bd 51 7c 69 bd
       0.024005914 0.003065665 -0.052185338 -0.057003323
000270 ff 20 3e bd 15 82 57 bd 77 db fc bc 9f 51 aa 3c
       -0.046418186 -0.05261429 -0.030866368 0.020790873
000280 b7 71 27 bd 3c b3 93 3c 2b 71 0a 3d 42 64 8e 3c
       -0.04087993 0.018029802 0.03379933 0.017381791
000290 cd 5c 72 bd ab 8e e1 3c 70 e0 9d bc 6f 0c 02 bd
       -0.059170533 0.02753385 -0.01927206 -0.03175014
0002a0 8c ff 93 bc d5 f1 f0 bb 3d d1 cf bc 5b c6 59 bd
       -0.01806619 -0.0073530474 -0.025368327 -0.053167682
0002b0 79 29 91 3d 7d 3d 3a 3d 53 a9 5f bd c0 90 f1 3c
       0.070879884 0.045468796 -0.05460484 0.029487967
0002c0 80 2d 22 3d 78 f8 2d 3c c3 c5 e9 bc cb 34 7a bb
       0.039594173 0.010618322 -0.028536683 -0.003817844
0002d0 ed c3 0f bc a9 fc c3 39 a1 66 62 3d e4 98 66 bd
       -0.00877474 0.00037381545 0.055273656 -0.05629815
0002e0 e0 41 9e bc e7 4b 8a 3a b9 9b a3 bc 71 c0 e3 bc
       -0.019318521 0.0010551185 -0.019971715 -0.027801724
0002f0 81 ec 72 bd a9 f5 82 bd f4 fb e4 3c a8 d0 31 3d
       -0.05930758 -0.06394512 0.027952172 0.04341188
000300 5f f6 4b 3d 96 c6 57 bd c5 3c 25 bc c5 cc 5f bd
       0.049795505 -0.05267962 -0.010085289 -0.054638643
000310 bf 7f f3 3c 86 84 bf 3a 7a c9 3f 3d a5 b2 39 3d
       0.029724 0.0014611639 0.046823002 0.045336384
000320 4f 42 de 3c 15 58 88 bc c0 a6 61 bd a2 e4 65 b9
       0.027131228 -0.016643563 -0.055090666 -0.00021924314
000330 f1 83 c7 bc e3 0f 9d 3a 11 bf 13 3d 01 26 50 3d
       -0.024354907 0.0011982884 0.036070887 0.050817493
000340 31 43 8d 3d 48 5b 64 3c f6 c9 90 bc c1 f4 5f bd
       0.06897581 0.013937779 -0.017674427 -0.054676775
000350 7b fe 27 3d 28 2e fb 3c 4a 01 62 bc 54 fa 58 bd
       0.041014176 0.030661657 -0.013794253 -0.052973107
000360 20 3f 90 3d f3 fd c7 3a c1 f1 b3 3c 10 a9 e5 3c
       0.0704329 0.0015258178 0.021965863 0.028034717
000370 0d c0 08 bc e9 14 6d bd b7 6e c6 bb ee 16 6f bd
       -0.00834657 -0.05788127 -0.0060556787 -0.058371477
000380 fe 7e 32 3c 02 49 32 bd fa 8b 1c bc e4 fa 64 3d
       0.010894535 -0.043526657 -0.009554857 0.05590333
000390 a0 c5 59 bd 15 1d 47 bd 25 66 13 3d fc 06 ae 3c
       -0.053166986 -0.04861172 0.035986084 0.021243565
0003a0 dd 37 14 bd cd 3f d6 bc d3 d4 3a bd 49 4a 9d 3c
       -0.036186088 -0.02615347 -0.04561312 0.019200461
0003b0 9f 7f 7e 3c 0a 8a 6f 3d 8d d2 71 bd 27 8f 54 bd
       0.015533357 0.058481254 -0.059038687 -0.051894333
0003c0 03 c8 65 bd 0d 84 c9 3c af a5 48 3d de aa 8c bc
       -0.05609895 0.0245991 0.048986133 -0.01717132
0003d0 4b 12 b0 bc 7f 8b 84 3b d1 57 bc bc 5a 73 20 bd
       -0.021493098 0.0040449495 -0.022991093 -0.039172508
0003e0 f1 bf 20 bd 6a 0f 84 3d c1 0a 41 3c ed 61 f6 bb
       -0.03924555 0.064482525 0.011782349 -0.007518998
0003f0 d7 47 fb 3c d8 eb 1d 3d e5 73 35 3d 25 0b 44 bd
       0.030673904 0.038554996 0.04429998 -0.04786219
