app/src/main/assets/thingy_3_sittingStanding_100epochs.tflite (tflite, 796500 bytes, 8 tensors)

sequential_15/conv1d_37/BiasAdd/ReadVariableOp f4 [64]
-0.017593669 -0.011044336 -0.015014268 -0.0004894691 0.0011162686 -0.0070742727 -0.011823361 0.0054105376
-0.0065645576 -0.0061744065 -0.0024145832 -0.0019488713 -0.01703386 -0.008768457 -0.021805206 -0.004555021
-0.006084383 -0.018834623 -0.011249227 -0.002650372 -0.026785467 -0.036050286 -0.026198126 -0.012991404
-0.018397901 -0.030975536 -0.009073 -0.017620612 -0.010077262 -0.00848838 -0.008565255 -0.027592873
-0.047857102 -0.028652908 -0.0015017757 -0.00249196 0.007088662 -0.024482947 -0.006022135 0.007284445
-0.00478394 0.00095023727 0.01675393 -0.0069879554 -0.021230279 0.0036642826 0.0019193604 0.007999013
-0.010193544 -0.00872579 -0.031832393 -0.024688404 -0.012707115 -0.009021938 -0.011116666 -0.0078414725
-0.0030577718 -0.0013820189 -0.017463934 -0.0029514597 -0.009315509 -0.01663616 -0.002693281 -0.02838169
00000000: 9920 90bc 4df3 34bc 68fe 75bc b74f 00ba
00000010: c24f 923a 4dcf e7bb c5b6 41bc e14a b13b
00000020: 801b d7bb ad52 cabb fc3d 1ebb 4571 ffba
00000030: 988a 8bbc 93a9 0fbc d5a0 b2bc 4942 95bb
00000040: 815f c7bb 114b 9abc ae4e 38bc ddb1 2dbb
00000050: 326d dbbc 77a9 13bd 749d d6bc e6d9 54bc
00000060: 32b7 96bc 68c0 fdbc eca6 14bc 1a59 90bc
00000070: 1a1b 25bc d912 0bbc 4955 0cbc 730a e2bc
00000080: cf05 44bd 81b9 eabc 3bd7 c4ba 2750 23bb
00000090: 0248 e83b 7690 c8bc 5455 c5bb 5bb2 ee3b
000000a0: 99c2 9cbb 5819 793a 8a3f 893c 38fb e4bb
000000b0: 1feb adbc 7624 703b 0c93 fb3a 4b0e 033c
000000c0: d302 27bc 9ef6 0ebc af62 02bd 563f cabc
000000d0: 8131 50bc c0d0 13bc ad22 36bc 8579 00bc
000000e0: e664 48bb dc24 b5ba 8610 8fbc 476d 41bb
000000f0: 14a0 18bc 8e48 88bc c281 30bb b880 e8bc

sequential_15/dense_31/MatMul;sequential_15/dense_31/BiasAdd f4 [2]
0.46170974 -0.5961811
00000000: 3865 ec3e 539f 18bf

sequential_15/batch_normalization_53/batchnorm/mul_1;sequential_15/batch_normalization_53/batchnorm/add_1;sequential_15/dense_31/MatMul;sequential_15/dense_31/BiasAdd f4 [2, 128]
0.2520298 -0.060558233 -0.6925907 -0.012099013 0.18654054 0.15303667 -0.22381884 -0.38234127
0.036202505 -0.43921664 -0.019671129 0.534494 0.23827653 -0.26310322 -0.000756732 -0.021569967
-0.7088643 0.32402718 -0.1439667 -0.47870392 0.3630794 -0.47846383 -0.049138445 -0.18087557
-0.19165494 0.07898387 -0.03181214 0.20466343 -0.34090063 0.17571385 -0.38205746 -0.13330139
0.27240026 -0.4934362 0.257064 -0.23488091 0.3156921 -0.34231722 0.15683223 0.033925734
0.13159898 -0.24556549 0.21366785 -0.09376193 0.1170538 0.39731616 -0.42239857 0.09677237
0.34695038 -0.5220023 -0.18551278 -0.19795758 0.1594022 0.5882775 0.18938257 -0.19382627
0.21615115 -0.10751993 0.059339788 0.02931632 0.16261122 -0.22516526 -0.28002667 -1.0645027
-0.17531466 -0.18907021 -0.5295318 -0.24994002 -0.24279469 -0.22652988 0.6345687 -0.2573264
0.33672273 -0.10970885 -0.20846 0.17213383 0.31270283 0.29163608 0.20987147 -0.24463387
-0.06906122 -0.019785142 0.43572903 -0.4895741 0.2263946 0.44953308 -0.048468243 0.30384207
0.19664766 0.19213425 -0.3036777 0.48738727 0.73048943 -0.31657454 -0.07484913 -0.45628503
0.17288111 -0.2094159 0.16979298 0.27045703 0.596605 -0.35346222 -0.1849653 -0.374663
0.20859772 0.33072892 0.18841748 0.1570479 0.36598566 -0.19801202 0.054506145 -0.30964652
-0.22165744 0.29384255 0.025429558 -0.48599607 -0.17960365 0.40205103 0.2199431 0.2346328
-0.27188665 0.34102553 -0.02991139 -0.2252357 -0.051685754 -0.37254927 -0.06626307 -0.2747914
-0.11830973 0.06623162 -0.18580945 -0.32492772 0.5193831 0.27632263 0.011232139 0.04686857
0.26792052 0.043212302 0.43591586 0.24846314 -0.19384903 0.12065534 0.45281696 -0.2968031
-0.44030258 0.5054282 -0.05025746 -0.34536552 0.6045668 -0.3383302 -0.28779307 -0.37152368
0.20836426 -0.251157 -0.35808972 0.56010175 0.18760371 -0.14894305 0.02156162 -0.36823648
-0.043409906 -0.19129919 0.5002616 0.17609553 0.6080577 -0.046188165 0.2501525 -0.37900972
-0.3235121 0.08310693 -0.23804085 0.5862586 0.23459542 0.01867507 -0.110690236 -0.313739
-0.30200908 -0.2693114 0.17054486 0.07843953 0.42610195 0.35790262 -0.06238212 0.054454874
-0.18919025 0.06954304 -0.36115474 0.19009398 -0.06322801 0.027725283 0.023557596 -0.6774868
-0.45178095 -0.46256623 -0.47370073 0.06892539 -0.66933745 0.06010098 0.2461767 0.02236431
0.4981879 0.19516774 0.021915963 -0.20969343 0.04340953 -0.16461049 0.44205967 0.15858333
-0.34525016 0.47913402 -0.006681722 -0.35927656 -0.1763263 0.2015137 0.353262 -0.14769132
0.3520987 -0.09521236 -0.66205645 0.06884558 0.34544444 0.28013918 0.30013886 -0.074098
-0.31756428 0.25920224 0.5137615 -0.26273426 0.83693373 0.22966239 0.19840525 -0.115863144
-0.20763773 0.5533261 0.630708 0.38576093 -0.08008136 0.29935834 0.42186517 0.13805906
-0.59397066 -0.050896835 -0.24575172 -0.3533777 0.14075401 0.14394055 -0.23700435 -0.17436264
-0.4761492 0.10464926 -0.26857126 0.2814798 0.36650148 -0.15864925 0.2649981 0.10744155
00000000: 0d0a 813e e90b 78bd a04d 31bf f03a 46bc
00000010: 7c04 3f3e a5b5 1c3e c430 65be 3cc2 c3be
00000020: 1449 143d 01e1 e0be 5925 a1bc 99d4 083f
00000030: c3fe 733e 77b5 86be 6d5f 46ba 80b3 b0bc
00000040: 2178 35bf e4e6 a53e 026c 13be ae18 f5be
00000050: 8be5 b93e 36f9 f4be 6545 49bd 7237 39be
00000060: 3141 44be 4cc2 a13d 724d 02bd 4a93 513e
00000070: 878a aebe 55ee 333e 099d c3be 2980 08be
00000080: 0c78 8b3e aba3 fcbe e59d 833e 9f84 70be
00000090: 65a2 a13e 3444 afbe a198 203e b6f5 0a3d
000000a0: e2c1 063e 8575 7bbe bfcb 5a3e 4106 c0bd
000000b0: e7b9 ef3d 066d cb3e a044 d8be 9830 c63d
000000c0: 7ba3 b13e f1a1 05bf 10f7 3dbe 64b5 4abe
000000d0: 553a 233e 5b99 163f 81ed 413e 657a 46be
000000e0: ba56 5d3e 6933 dcbd 470e 733d c728 f03c
000000f0: 8e83 263e b991 66be a85f 8fbe a041 88bf
00000100: b085 33be 9f9b 41be 658f 07bf 47f0 7fbe
00000110: 2c9f 78be 73f7 67be 1873 223f 49c0 83be
00000120: ec66 ac3e 09af e0bd 8a76 55be da43 303e
00000130: 961a a03e 5351 953e 8ce8 563e 4d81 7abe
00000140: f86f 8dbd 7314 a2bc e017 df3e 75a9 fabe
00000150: fcd3 673e 3329 e63e a386 46bd 3091 9b3e
00000160: 015e 493e d7be 443e a57b 9bbe d38a f93e
00000170: 5b01 3b3f 0f16 a2be 804a 99bd 319e e9be
00000180: bf07 313e 1f71 56be 36de 2d3e 5879 8a3e
00000190: 1bbb 183f 00f9 b4be 8b67 3dbe d4d3 bfbe
000001a0: a49a 553e 4d55 a93e 83f0 403e 2ad1 203e
000001b0: 7962 bb3e aac3 4abe d641 5f3d fd89 9ebe
000001c0: 2bfa 62be 8872 963e a651 d03c 7ad4 f8be
000001d0: 05ea 37be a2d9 cd3e c438 613e 9543 703e
000001e0: ba34 8bbe e69a ae3e bb08 f5bc 30a4 66be
000001f0: 71b4 53bd c7be bebe efb4 87bd 75b1 8cbe
00000200: 5f4c f2bd 72a4 873d d544 3ebe ed5c a6be
00000210: 4af6 043f 297a 8d3e 0107 383c 42f9 3f3d
00000220: e12c 893e 62ff 303d 5d30 df3e 1f6d 7e3e
00000230: 5c80 46be 261a f73d a0d7 e73e 93f6 97be
00000240: 576f e1be be63 013f c4da 4dbd c0d3 b0be
00000250: e4c4 1a3f 9e39 adbe 9d59 93be 5a38 bebe
00000260: 715d 553e a697 80be 8957 b7be d462 0f3f
00000270: 301b 403e 8784 18be ffa1 b03c 7e89 bcbe
00000280: 96ce 31bd efe3 43be 2511 003f 6352 343e
00000290: aba9 1b3f cd2f 3dbd fd13 803e 900d c2be
000002a0: 61a3 a5be f733 aa3d fbc0 73be 0b15 163f
000002b0: c839 703e 76fc 983c 90b1 e2bd 66a2 a0be
000002c0: efa0 9abe 2fe3 89be 50a3 2e3e e8a4 a03d
000002d0: 092a da3e 033f b73e 6584 7fbd 130c 5f3d
000002e0: 17bb 41be 956c 8e3d 46e9 b8be ffa7 423e
000002f0: b07d 81bd 2220 e33c dcfb c03c c66f 2dbf
00000300: d54f e7be 7bd5 ecbe e788 f2be c128 8d3d
00000310: b359 2bbf 722c 763d bf15 7c3e 5c35 b73c
00000320: 7c12 ff3e 0dda 473e 1b89 b33c e0b9 56be
00000330: 31ce 313d a78f 28be a555 e23e ab63 223e
00000340: a1c4 b0be 0e51 f53e 59f2 dabb 19f3 b7be
00000350: e28e 34be 9b59 4e3e c2de b43e 653c 17be
00000360: 4846 b43e b3fe c2bd 887c 29bf e9fe 8c3d
00000370: 18de b03e 676e 8f3e cdab 993e b1c0 97bd
00000380: c997 a2be 28b6 843e e085 033f 1b85 86be
00000390: 4a41 563f 9e2c 6b3e bf2a 4b3e a849 edbd
000003a0: fc9e 54be c7a6 0d3f 1476 213f 7582 c53e
000003b0: b201 a4bd 7f45 993e b6fe d73e 5b5f 0d3e
000003c0: 760e 18bf 3379 50bd 57a6 7bbe eced b4be
000003d0: d221 103e 2765 133e 45b1 72be 1f8c 32be
000003e0: d4c9 f3be 5a52 d63d 2c82 89be 1f1e 903e
000003f0: 15a6 bb3e f374 22be d5ad 873e 510a dc3d

sequential_15/conv1d_37/Conv1D f4 [64, 1, 3, 3]
0.07685691 0.08686748 -0.02790183 -0.13244723 -0.119435996 0.053442415 0.02399297 -0.10682494
0.06838779 -0.046302166 0.16462637 0.12742655 0.04425479 0.1444581 0.06225326 0.007753903
-0.044618912 0.054741908 -0.040177133 0.058693804 0.0040903576 0.094602734 0.008428879 -0.07679356
-0.11073537 0.14116381 0.057098266 -0.116724625 -0.13966914 0.11944005 0.056885123 -0.10849455
0.10454914 0.0077873226 -0.07970566 0.06749963 -0.07835356 0.08877677 0.029787097 0.04898551
0.096304975 -0.078992166 0.020100126 -0.024412975 0.051913295 0.07544341 -0.07848129 -0.16017671
0.00086981506 -0.14406793 0.10698237 -0.08028638 -0.016173745 -0.0063421084 -0.16038454 0.05170769
0.082833596 0.15272772 -0.009114679 0.10573617 0.01752139 -0.058106706 -0.030838007 -0.14201188
0.060194332 0.03797722 0.08286102 0.14926644 -0.05637282 0.023108792 0.14680272 -0.047131523
-0.017303444 0.022356348 -0.06520909 0.03162299 -0.13882096 -0.101783045 -0.052276276 0.11453218
-0.09340173 -0.0726709 -0.112114385 -0.15161243 0.022412904 0.07697888 -0.09452292 0.009807937
-0.075287014 0.11024843 0.12226563 0.025743576 0.035422485 -0.05006428 -0.110398516 0.086470164
0.11255493 0.010417634 0.06985447 -0.02496779 0.08047056 -0.10150256 0.07952884 0.1577121
0.028366314 0.17835504 -0.11767702 0.008425511 -0.052803207 0.10237289 -0.11663152 0.11156475
0.088151686 0.14145407 -0.023270449 -0.06004013 -0.067960985 0.11213505 0.07988768 0.0036299254
0.04054939 -0.070697576 -0.017671242 0.12156117 0.061552554 -0.0114633385 -0.14209762 -0.032489914
0.018879944 0.17509162 0.08074767 -0.03640583 0.038670693 0.16290897 -0.081771046 0.08064497
-0.10834843 0.017871734 0.106860794 0.10653878 -0.0093891835 -0.0049112756 -0.10691409 0.04927136
-0.1148148 0.0031231109 0.0699754 -0.04065586 0.1756366 0.11850647 0.16189912 -0.13881694
-0.1090484 0.1313328 0.13917649 0.14793639 -0.0074962424 0.032519814 -0.0912484 -0.035578374
0.056851428 0.104180984 -0.11368057 0.028921902 0.12394766 0.11705543 0.062496018 0.022004561
0.13745481 -0.06447667 0.13915966 -0.14317468 0.042483088 0.10334849 0.15353665 -0.016971365
0.14660123 -0.15339088 -0.058009226 0.09373967 0.038234416 -0.039176054 0.09760267 -0.05160548
-0.045083422 -0.089537956 -0.0673347 -0.09887739 -0.1750025 -0.05354291 -0.08088955 -0.15816426
0.080435805 -0.07967878 0.14763692 -0.16557005 -0.035838664 0.13837554 -0.03757834 0.0358119
0.04727913 0.08611179 0.13454048 -0.13124298 -0.15578419 0.11917418 0.06210841 -0.04138776
0.15992494 -0.14430755 -0.06868183 -0.09689956 0.0062878677 0.030357325 -0.061531246 -0.06785297
0.15737417 -0.12622745 0.09463386 0.122666664 -0.081330694 -0.046710867 0.05834814 0.111333735
-0.11264757 -0.08176203 -0.11732566 -0.06690149 -0.13089032 -0.012705924 -0.13593346 -0.033336118
0.06289842 -0.026433954 -0.09310537 -0.12380206 -0.052139007 0.033072315 0.041443657 -0.16111082
0.10482506 0.12544729 0.0453045 -0.040071253 -0.04885202 0.10012784 -0.07802411 -0.15113921
0.073715664 -0.042707503 0.14003976 -0.16125111 0.07235459 -0.027535615 0.015147353 0.11022175
00000000: 2867 9d3d 94e7 b13d 6192 e4bc 3fa0 07be
00000010: dc9a f4bd 6fe6 5a3d e88c c43c 09c7 dabd
00000020: e60e 8c3d 57a7 3dbd d193 283e 1b7c 023e
00000030: 8344 353d d3ec 133e 46fd 7e3d 7414 fe3b
00000040: 52c2 36bd 0d39 603d c790 24bd ea68 703d
00000050: 6808 863b 14bf c13d 4819 0a3c f145 9dbd
00000060: 3ac9 e2bd 3f8d 103e dfdf 693d 520d efbd
00000070: 6d05 0fbe fc9c f43d 6000 693d 6432 debd
00000080: dc1d d63d cc2c ff3b b93c a3bd 3f3d 8a3d
00000090: d577 a0bd 98d0 b53d 1204 f43c 08a5 483d
000000a0: 8b3b c53d a5c6 a1bd 05a9 a43c b8fd c7bc
000000b0: 09a3 543d 1382 9a3d ccba a0bd 5d05 24be
000000c0: 4d04 643a 8b86 13be 9319 db3d 306d a4bd
000000d0: cd7e 84bc 76d1 cfbb d83b 24be 71cb 533d
000000e0: a9a4 a93d a864 1c3e bc55 15bc 358c d83d
000000f0: 0589 8f3c 4c01 6ebd fd9f fcbc 906b 11be
00000100: 558e 763d 008e 1b3d 0ab3 a93d 4dd9 183e
00000110: 30e7 66bd a64e bd3c 7453 163e fc0c 41bd
00000120: f4bf 8dbc a924 b73c 588c 85bd 1c87 013d
00000130: 1527 0ebe a173 d0bd a61f 56bd d98f ea3d
00000140: 6849 bfbd 7bd4 94bd 3a9c e5bd 4a40 1bbe
00000150: 449b b73c 1aa7 9d3d 3c95 c1bd 78b1 203c
00000160: 1430 9abd eec9 e13d 6766 fa3d 31e4 d23c
00000170: 2b17 113d 3410 4dbd 9e18 e2bd 4517 b13d
00000180: 3383 e63d b9ae 2a3c dc0f 8f3d 4089 ccbc
00000190: c0cd a43d 93e0 cfbd 04e0 a23d 487f 213e
000001a0: 7960 e83c b4a2 363e a600 f1bd 280b 0a3c
000001b0: 2d48 58bd e1a8 d13d 82dc eebd 0f7c e43d
000001c0: df88 b43d 56d9 103e aba1 bebc a4ec 75bd
000001d0: 212f 8bbd 10a7 e53d 279c a33d 0be4 6d3b
000001e0: 1e17 263d e4c9 90bd 48c3 90bc 10f5 f83d
000001f0: 881e 7c3d bad0 3bbc 0a82 11be 2514 05bd
00000200: 1daa 9a3c 384b 333e 095f a53d 481e 15bd
00000210: 2965 1e3d 9cd1 263e 9477 a7bd 3129 a53d
00000220: c8e5 ddbd be67 923c d5d9 da3d 0131 da3d
00000230: 17d5 19bc c4ee a0bb c6f5 dabd c4d0 493d
00000240: 0624 ebbd 1bad 4c3b 434f 8f3d c286 26bd
00000250: 15da 333e 85b3 f23d e2c8 253e 0726 0ebe
00000260: c454 dfbd 1b7c 063e 4884 0e3e a37c 173e
00000270: 0aa3 f5bb 7f33 053d 71e0 babd a1ba 11bd
00000280: 0bdd 683d d75c d53d 5cd1 e8bd a0ed ec3c
00000290: 45d8 fd3d c2ba ef3d d3fb 7f3d e942 b43c
000002a0: f4c0 0c3e 580c 84bd df7f 0e3e 629c 12be
000002b0: bf02 2e3d 60a8 d33d b638 1d3e 8807 8bbc
000002c0: a21e 163e 8012 1dbe 159b 6dbd 96fa bf3d
000002d0: b19b 1c3d 1277 20bd e9e3 c73d 4560 53bd
000002e0: 65a9 38bd ad5f b7bd c6e6 89bd 3b80 cabd
000002f0: db33 33be cf4f 5bbd 6ca9 a5bd d0f5 21be
00000300: 87bb a43d a12e a3bd 222e 173e 328b 29be
00000310: 90cb 12bd 51b2 0d3e bfeb 19bd 80af 123d
00000320: c3a7 413d 615b b03d fbc4 093e 8f64 06be
00000330: e485 1fbe 9811 f43d 6365 7e3d 3686 29bd
00000340: 5dc3 233e 5cc5 13be 0fa9 8cbd 4773 c6bd
00000350: 750a ce3b edaf f83c 3008 7cbd 7ff6 8abd
00000360: b226 213e c541 01be 66cf c13d a938 fb3d
00000370: b590 a6bd e553 3fbd 76fe 6e3d f102 e43d
00000380: c5b3 e6bd da72 a7bd 7048 f0bd a603 89bd
00000390: 1d08 06be 822c 50bc 2432 0bbe 748b 08bd
000003a0: e3d0 803d 058c d8bc 07ae bebd ef8b fdbd
000003b0: b68f 55bd d676 073d d3c0 293d 3cfa 24be
000003c0: 85ae d63d 4175 003e 3691 393d c121 24bd
000003d0: 0e19 48bd d30f cd3d 1bcb 9fbd 3dc4 1abe
000003e0: 3df8 963d 10ee 2ebd 9566 0f3e 031f 25be
000003f0: a52e 943d 5f92 e1bc 9a2c 783c f1bb e13d

sequential_15/batch_normalization_52/batchnorm/sub f4 [64]
-0.9100366 -0.6980722 -0.50249517 -1.1437005 -0.37341288 -0.5628291 -0.75733083 -0.506644
-0.43304297 -0.58646274 -0.75611573 -0.24964452 -0.10992835 -0.28068122 -0.16435093 -0.57195246
-0.53141785 -0.54755616 -0.7703749 -1.6250634 -0.7265114 -1.5505426 -0.68216056 -0.6340307
-0.27129734 -0.9784153 -0.113155685 -1.1881465 -0.28250954 -1.9957827 -0.6917365 -0.30203202
-0.5134193 -0.9929513 -0.17305683 -0.11445005 -0.47482863 -0.9240242 -0.7497939 -0.18640389
-1.6563921 -0.27062696 -0.35266855 -0.97970545 -1.4316528 -0.39943773 -0.72711396 -0.14322367
-0.2598608 -0.17593296 -0.72054154 -0.27303052 -1.4698341 -0.80713266 -0.29760763 -0.42586365
-0.20667511 -0.26825172 -0.15194573 -0.17714716 -0.9274014 -0.9735311 -0.6591246 -0.732859
00000000: 29f8 68bf dcb4 32bf 86a3 00bf c764 92bf
00000010: f92f bfbe 9115 10bf 6fe0 41bf 6cb3 01bf
00000020: cfb7 ddbe 6c22 16bf cd90 41bf d0a2 7fbe
00000030: 1d22 e1bd 73b5 8fbe 9c4b 28be 7a6b 12bf
00000040: 000b 08bf a42c 0cbf 4a37 45bf 1402 d0bf
00000050: a7fc 39bf 2e78 c6bf 13a2 2ebf d64f 22bf
00000060: 7ce7 8abe 6d79 7abf 2bbe e7bd 2f15 98bf
00000070: 17a5 90be cf75 ffbf a515 31bf f1a3 9abe
00000080: 726f 03bf 0e32 7ebf cf35 31be ca64 eabd
00000090: bd1c f3be da8c 6cbf 7ef2 3fbf a9e0 3ebe
000000a0: a804 d4bf 9e8f 8abe f990 b4be facd 7abf
000000b0: 6640 b7bf 1a83 ccbe 2424 3abf 3aa9 12be
000000c0: 7a0c 85be c527 34be 6975 38bf a8ca 8bbe
000000d0: 8623 bcbf 3fa0 4ebf 0760 98be cd0a dabe
000000e0: a4a2 53be 4a58 89be a997 1bbe 1166 35be
000000f0: 2e6a 6dbf 5639 79bf 64bc 28bf a69c 3bbf

sequential_15/batch_normalization_52/batchnorm/mul f4 [64]
16.698696 9.491438 21.165087 6.328944 24.470335 15.189734 14.48957 15.146983
18.668047 21.067335 9.857069 18.116919 28.734129 16.628849 24.140484 15.955361
23.086193 12.266886 8.152776 8.497363 16.567217 13.688313 15.721473 18.215239
14.032493 8.750916 25.710718 13.8862505 13.674965 8.692315 11.414211 13.713825
17.70846 21.810192 24.319319 27.348185 22.997116 12.475802 13.332344 17.547604
9.134236 13.883929 14.941234 9.310794 13.393643 20.470837 10.853905 24.327559
15.2104025 20.819603 20.329256 14.941408 18.215052 10.776174 20.674364 21.905113
21.605152 27.491753 23.749193 24.626003 13.261417 10.54795 13.114065 12.957146
00000000: ee96 8541 eedc 1741 1952 a941 b686 ca40
00000010: 3fc3 c341 2709 7341 47d5 6741 0b5a 7241
00000020: 2958 9541 e789 a841 8eb6 1d41 73ef 9041
00000030: 7fdf e541 e207 8541 b61f c141 2949 7f41
00000040: 86b0 b841 2a45 4441 c571 0241 33f5 0741
00000050: a989 8441 5403 5b41 278b 7b41 cfb8 9141
00000060: 1785 6041 c003 0c41 8daf cd41 152e 5e41
00000070: a8cc 5a41 b913 0b41 9ca0 3641 d46b 5b41
00000080: edaa 8d41 467b ae41 f78d c241 15c9 da41
00000090: 18fa b741 e39c 4741 4851 5541 7e61 8c41
000000a0: d525 1241 9324 5e41 4b0f 6f41 03f9 1441
000000b0: 5d4c 5641 46c4 a341 98a9 2d41 d79e c241
000000c0: cf5d 7341 8c8e a641 51a2 a241 0210 6f41
000000d0: 6db8 9141 356b 2c41 1965 a541 ac3d af41
000000e0: 5ad7 ac41 1cef db41 59fe bd41 0e02 c541
000000f0: c42e 5441 67c4 2841 36d3 5141 7850 4f41

sequential_15/dense_30/BiasAdd/ReadVariableOp f4 [128]
-0.015384413 -0.0073414575 -0.012647247 -0.02520587 -0.026763713 -0.0082446 -0.0025606772 0.00068838545
-0.014625805 -0.0033584996 0.0041994555 -0.0053579854 -0.002636027 -0.012138474 -0.013194567 -0.015046577
-0.03713897 -0.02671324 -0.004363349 -0.011452637 -0.010344049 -0.009363588 -0.017855361 -0.0028411422
-0.006893705 -0.01933269 -0.02427617 -0.021962643 -0.0128843775 -0.012337831 -0.0051733223 -0.009923466
0.0005834736 -0.021987122 -0.0069974624 0.0069022584 -0.03522321 -0.01796184 -0.0028018898 -0.004000259
-0.02261172 -0.01753721 -0.0031245225 -0.0062683686 -0.005274065 -0.02810864 -0.027583608 3.942153e-05
0.006122164 0.002174643 -0.013648662 -0.01848146 -0.0034517664 -0.038777277 -0.021656986 -0.008278004
-0.012553812 -0.010066001 0.004284499 -0.01798754 -0.012627066 -0.026316259 -0.023217563 -0.03497748
-0.004145754 -0.029315958 -0.014779191 -0.005472425 -0.031723704 -0.0092074135 0.0023902277 -0.0378083
-0.021571836 -0.009886134 -0.00052704813 -0.031190386 0.00020450511 -0.024101125 -0.009873255 -0.014405724
-0.045087308 -0.008435355 -0.019791435 -0.012496986 -0.024508046 0.0015672221 -0.014058197 0.0044473074
-0.017466402 -0.0016826597 -0.0056466004 0.011467407 -0.033263125 -0.0178189 -0.01199214 -0.0020117909
-0.00096084824 -0.011089819 -0.021597803 -0.0030109817 -0.015400602 -0.014211169 -0.0043151444 -0.0044605155
0.0071463785 -0.015962608 -0.035063114 -0.020243142 -0.00477348 -0.0043787407 -0.012823772 -0.015054596
-0.024757404 -0.018452248 0.018289298 -0.027316058 -0.010722846 -0.015114884 -0.008327249 -0.01240713
-0.025320627 -0.020258375 -0.013931844 -0.018448776 -0.017179733 -0.009569582 -0.010137532 -0.006419265
00000000: e80e 7cbc 9c90 f0bb 6636 4fbc 8a7c cebc
00000010: 933f dbbc 5c14 07bc 09d1 27bb c474 343a
00000020: 13a1 6fbc 461a 5cbb 969b 893b 0a92 afbb
00000030: 32c1 2cbb 73e0 46bc 062e 58bc eb85 76bc
00000040: 081f 18bd bad5 dabc 6dfa 8ebb d7a3 3bbc
00000050: 167a 29bc bc69 19bc 6845 92bc 7532 3abb
00000060: 97e4 e1bb 975f 9ebc d2de c6bc 00eb b3bc
00000070: ff18 53bc 9d24 4abc f984 a9bb 0896 22bc
00000080: 40f4 183a 561e b4bc f84a e5bb 572c e23b
00000090: 3646 10bd b524 93bc e99f 37bb 9b14 83bb
000000a0: 373c b9bc 32aa 8fbc cac4 4cbb e366 cdbb
000000b0: 10d2 acbb 1744 e6bc 05f7 e1bc 8c58 2538
000000c0: 6f9c c83b 7584 0e3b a39e 5fbc 6e66 97bc
000000d0: 0837 62bb ecd4 1ebd fe69 b1bc 77a0 07bc
000000e0: 81ae 4dbc deeb 24bc fc64 8c3b 9b5a 93bc
000000f0: c1e1 4ebc 3295 d7bc c232 bebc 8c44 0fbd
00000100: 1bd9 87bb 0528 f0bc 6c24 72bc 0752 b3bb
00000110: b7f0 01bd b1da 16bc 5ea5 1c3b e0dc 1abd
00000120: 6bb7 b0bc 74f9 21bc 9a29 0aba fb82 ffbc
00000130: 6c70 5639 b96f c5bc 6fc3 21bc fc05 6cbc
00000140: 78ad 38bd 7134 0abc a621 a2bc 29c0 4cbc
00000150: 19c5 c8bc 3f6b cd3a 5a54 66bc b8ba 913b
00000160: b315 8fbc b18c dcba 1e07 b9bb cbe1 3b3c
00000170: ea3e 08bd f1f8 91bc ae7a 44bc 40d8 03bb
00000180: 6fe1 7bba 12b2 35bc e0ed b0bc e453 45bb
00000190: ce52 7cbc f7d5 68bc 0e66 8dbb 8429 92bb
000001a0: 2b2c ea3b 04c4 82bc 579e 0fbd f2d4 a5bc
000001b0: da6a 9cbb 8a7b 8fbb cc1a 52bc 8da7 76bc
000001c0: 0ad0 cabc 2b29 97bc 70d3 953c edc5 dfbc
000001d0: e0ae 2fbc 6ba4 77bc 046f 08bc 4647 4bbc
000001e0: 346d cfbc e4f4 a5bc 6442 64bc e321 97bc
000001f0: 83bc 8cbc bcc9 1cbc e417 26bc b358 d2bb

sequential_15/dense_30/MatMul f4 [128, 1536]
0.004764873 -0.0033915506 0.0019775543 -0.0053637237 -0.023966445 -0.001828213 -0.040220737 0.019791747
-0.012588541 0.013406573 -0.042113878 0.037902117 -0.0109653305 -0.042487733 -0.01842086 0.014825856
-0.01766434 0.045207758 -0.00035136484 0.020875677 -0.011919086 0.050420854 0.012106824 -0.047504064
-0.03181961 -0.030201914 -0.021452187 0.040695794 -0.039228108 0.008939529 0.008557884 -0.01920621
-0.013474525 -0.03531863 -0.014821369 -0.029219769 0.00028882598 0.034280602 0.037992667 -0.03846127
0.04601729 -0.020767735 0.034245398 -0.036683768 0.036936056 -0.035846554 -0.038710725 0.016706478
0.012096347 -0.008150279 -0.0035894916 -0.0068605896 -0.009439697 -0.038709357 0.004985871 -0.022104954
-0.00021339238 0.018383196 0.031378604 0.03667757 0.010660614 -0.025796723 -0.04614719 -0.0056696413
-0.04057184 0.033628296 -0.017661335 0.0308019 0.0042901356 0.014179094 0.007563707 -0.026052948
-0.00384986 -0.02607088 -0.002559078 0.036765784 0.014364635 0.036958594 -0.034595545 0.025379587
-0.02456006 -0.028879855 -0.023984255 0.033547536 -0.047000688 0.009238348 -0.032186165 -0.044910353
-0.053278923 0.032684773 0.023337573 0.023449995 -0.010585732 0.027919268 0.029894672 -0.00021306003
0.009350436 -0.010987871 -0.026845485 0.012561773 0.020770345 0.0013633162 0.027338881 0.019573154
0.028381772 -0.017481416 0.0427208 -0.012728428 -0.040643156 -0.039446183 -0.01703541 -0.008089831
-0.021378996 -0.007308812 -0.05033159 0.039896574 -0.024702795 -0.019620799 0.0021274416 -0.0069676796
0.030282717 -0.00011681112 0.0062351595 0.03562958 0.026323691 -0.034201164 0.022409054 0.003941099
0.044988606 -0.034257602 0.014307561 0.04466085 -0.028785668 0.016236741 -0.02771506 -0.026251836
-0.014084579 0.021089256 0.032633364 0.026898285 0.0058770445 0.0014796961 0.02361343 0.04450409
0.009187096 -0.007871782 -0.046797756 0.018583594 -0.015835797 -0.0091770105 0.0058208574 -0.036153633
-0.008018416 -0.020907098 -0.02554331 0.0045671393 0.03470798 0.010638781 0.00069579424 0.043657437
-0.033388954 0.00492935 -0.029222827 0.012418137 -0.018111305 0.004033984 0.05073737 -0.025880208
0.02077936 0.0530071 -0.028930552 0.01795792 -0.011941984 0.017610053 -0.042880636 0.016889887
-0.017303936 -0.013599001 -0.034822978 0.015430252 -0.043440383 -0.03459953 0.038928624 -0.0050910693
0.04152214 0.02696625 0.0044718543 0.03869371 0.035229128 0.02755706 -0.04530702 -0.0048452774
-0.045987334 -0.01066316 -0.00014857498 -0.015508056 -0.029335642 -0.0054209484 0.006105283 -0.0070573133
0.0013455033 0.013024709 -0.024283027 0.039073154 -0.01661292 0.019540152 -0.033292282 -0.032328606
-0.019788122 -0.025293479 -0.022285093 0.020097584 -0.014126702 0.03661231 0.003604413 0.008166999
0.0067488663 0.024441173 -0.0076554175 -0.021535145 0.022848079 -0.033761807 -0.016366942 0.016599918
-0.01148663 0.006957805 0.029045468 -0.0087033585 -0.009432796 0.026904091 0.0197251 -0.042963926
0.003595023 0.0038249274 0.03832177 -0.021855835 -0.0073396256 0.030940922 0.0032528227 0.014095609
-0.046995763 -0.031045286 -0.046470173 0.0041277385 -0.02556233 -0.01623754 0.013807118 -0.011117287
0.02295874 -0.021384796 -0.039864324 0.02559053 0.025361182 0.044551235 -0.002906252 -0.03715297
00000000: a722 9c3b c744 5ebb db99 013b 2dc2 afbb
00000010: 4755 c4bc a6a0 efba 80be 24bd 4d22 a23c
00000020: 2b40 4ebc 3ea7 5b3c 9a7f 2cbd 403f 1b3d
00000030: eea7 33bc 9e07 2ebd 58e7 96bc 26e8 723c
00000040: ceb4 90bc c52b 393d 6437 b8b9 7803 ab3c
00000050: 4548 43bc 1986 4e3d b35b 463c 9f93 42bd
00000060: 4855 02bd 016a f7bc 7fbc afbc a2b0 263d
00000070: a7ad 20bd 1a77 123c 5e36 0c3c 5756 9dbc
00000080: 41c4 5cbc 45aa 10bd 54d5 72bc 4c5e efbc
00000090: 916d 9739 d169 0c3d 339e 1b3d 9189 1dbd
000000a0: a07c 3c3d 1921 aabc e744 0c3d b841 16bd
000000b0: 434a 173d d6d3 12bd 238f 1ebd 06dc 883c
000000c0: c22f 463c bf88 05bc ad3d 6bbb ccce e0bb
000000d0: f5a8 1abc b48d 1ebd 8460 a33b 7315 b5bc
000000e0: 15c2 5fb9 5b98 963c da86 003d 383b 163d
000000f0: dba9 2e3c a653 d3bc d604 3dbd 66c8 b9bb
00000100: a82e 26bd d3bd 093d 81ae 90bc 4454 fc3c
00000110: 4494 8c3b 6e4f 683c f9d8 f73b fe6c d5bc
00000120: ef4d 7cbb 9992 d5bc 34b6 27bb b897 163d
00000130: a559 6b3c e561 173d 0fb4 0dbd dae8 cf3c
00000140: 2e32 c9bc 7295 ecbc a17a c4bc 2469 093d
00000150: cb83 40bd 715c 173c a4d5 03bd ebf3 37bd
00000160: 003b 5abd 78e0 053d 702e bf3c 341a c03c
00000170: c76f 2dbc f3b6 e43c ace5 f43c de68 5fb9
00000180: 9232 193c 7906 34bc 10eb dbbc e5cf 4d3c
00000190: 9226 aa3c 4db1 b23a caf5 df3c e157 a03c
000001a0: e480 e83c 3035 8fbc 01fc 2e3d e58a 50bc
000001b0: 7079 26bd 5292 21bd d88d 8bbc 368b 04bc
000001c0: 0123 afbc c27e efbb 7f28 4ebd 976a 233d
000001d0: 845d cabc ccbb a0bc 8c6c 0b3b 2251 e4bb
000001e0: 7613 f83c 7ef8 f4b8 4f50 cc3b 53f0 113d
000001f0: c8a4 d73c 8516 0cbd 3193 b73c 5624 813b
00000200: f945 383d b351 0cbd 436a 6a3c 4cee 363d
00000210: eccf ebbc ea02 853c b20a e3bc 170e d7bc
00000220: 02c3 66bc 60c3 ac3c 90aa 053d cb59 dc3c
00000230: 3994 c03b 5df2 c13a f470 c13c ec49 363d
00000240: 7985 163c a6f8 00bc 01af 3fbd 9f3c 983c
00000250: 13ba 81bc 2c5b 16bc e4bc be3b d515 14bd
00000260: ad5f 03bc 5d45 abbc 3440 d1bc f1a7 953b
00000270: f429 0e3d 484e 2e3c f665 363a 24d2 323d
00000280: dbc2 08bd 6386 a13b b664 efbc 7175 4b3c
00000290: 295e 94bc 832f 843b fdd1 4f3d bb02 d4bc
000002a0: 7a39 aa3c f91d 593d c4ff ecbc 7d1c 933c
000002b0: 50a8 43bc f542 903c 9ba3 2fbd a95c 8a3c
000002c0: fcc0 8dbc 58ce 5ebc 8aa2 0ebd 2bcf 7c3c
000002d0: 8bee 31bd 3db8 0dbd 9f73 1f3d fcd2 a6bb
000002e0: 1f13 2a3d 53e8 dc3c a288 923b 4c7d 1e3d
000002f0: 6b4c 103d 58bf e13c db93 39bd 22c5 9ebb
00000300: 375d 3cbd 89b4 2ebc cbca 1bb9 8015 7ebc
00000310: 4d51 f0bc 36a2 b1bb d30e c83b 0941 e7bb
00000320: 995b b03a 9765 553c 33ed c6bc 2c0b 203d
00000330: d217 88bc ab12 a03c 7d5d 08bd 006b 04bd
00000340: b31a a2bc 4534 cfbc 3a8f b6bc b0a3 a43c
00000350: af73 67bc caf6 153d 0438 6c3b e0ce 053c
00000360: 9825 dd3b db38 c83c 4cda fabb 796a b0bc
00000370: e52b bb3c d249 0abd f713 86bc 8dfc 873c
00000380: 6b32 3cbc 4cfe e33b c3f0 ed3c 8898 0ebc
00000390: 048c 1abc f865 dc3c 8896 a13c f1fa 2fbd
000003a0: 7a9a 6b3b a2ab 7a3b 4af7 1c3d 020b b3bc
000003b0: 3e81 f0bb d177 fd3c 4f2d 553b 45f1 663c
000003c0: a17e 40bd af52 febc 8257 3ebd fb41 873b
000003d0: 1768 d1bc 9704 85bc 4037 623c 4825 36bc
000003e0: f813 bc3c 2b2f afbc c648 23bd 3ba3 d13c
000003f0: 41c2 cf3c 5b7b 363d d176 3ebb b62d 18bd
